Version12_7/BP3/bp3/BP3Models/BP3C50IDSeqLenFFNN/Fold2.pt (torch, 866575 bytes, 8 tensors)

ff_model.0.weight f4 [150, 1281]
1.7317706e-17 -1.6993283e-17 -1.263538e-17 -2.0237702e-17 -1.40723e-17 -7.705612e-18 2.5601453e-18 4.9081496e-19
-1.240773e-18 2.250725e-17 -2.7291854e-18 3.7338607e-19 -7.257148e-18 -5.719422e-18 -2.7612677e-19 -2.7458796e-17
-2.6745009e-17 3.5750554e-17 -2.5587074e-17 1.1590899e-17 7.4194536e-18 1.4354418e-18 -4.5405325e-18 -3.5798127e-18
-8.9084755e-18 -1.2890756e-19 1.16834555e-17 6.4742996e-17 7.055104e-18 -9.367885e-18 5.2813854e-19 1.0000186e-17
-1.1028574e-17 1.6795517e-17 -4.608293e-17 -3.244928e-18 1.5593688e-17 -1.5779109e-17 3.574107e-17 -3.8519733e-18
-4.3979378e-18 -2.2787418e-17 -7.453576e-19 -6.7895733e-18 -9.400052e-18 3.2894177e-17 -5.5165277e-17 -1.5813594e-18
1.3608238e-17 3.6253285e-17 -3.2555964e-18 -1.8729724e-18 4.5459276e-17 -1.1481835e-17 -1.2060169e-17 -4.8077944e-17
-9.138159e-18 -2.1698226e-17 -7.130585e-18 5.0222995e-18 -3.2888367e-17 4.0626317e-17 -1.7936627e-17 -2.0972e-18
3.4689867e-17 1.1584899e-18 -2.1591138e-17 1.8166478e-17 -2.9834033e-18 6.718051e-18 1.3507792e-17 -1.2059498e-16
-1.5696876e-18 6.8250763e-18 3.7799528e-18 9.424839e-19 3.0571415e-18 -3.4083028e-17 2.0593073e-17 2.2801107e-18
-5.754973e-18 2.8138023e-18 2.423244e-17 -6.8394875e-18 3.614712e-18 9.813064e-18 2.97275e-17 9.523184e-18
-1.2515191e-18 -1.4692255e-17 -2.4386654e-19 -7.820483e-18 -1.2024977e-17 -3.2534347e-18 -3.056722e-19 7.423851e-18
-4.929436e-18 2.6875407e-17 -3.79361e-18 -1.3856964e-17 -3.429371e-17 1.0038709e-17 8.745321e-18 -3.8688213e-17
5.959314e-18 -7.1781534e-18 1.01479965e-17 3.2252378e-17 1.35289575e-17 1.1389125e-17 8.775724e-18 6.690398e-19
2.8184287e-17 -1.9105445e-17 1.0753786e-17 1.0229344e-18 4.8470695e-19 -7.053741e-18 -7.585387e-18 1.1481506e-17
-1.5242736e-19 9.233792e-19 1.7433204e-18 4.8073826e-18 -2.1542732e-18 1.0958964e-17 4.4892415e-18 -3.7135926e-17
-8.798475e-18 -2.4602597e-18 2.2519976e-17 -7.89925e-17 -1.4144516e-17 1.592083e-17 2.9452159e-18 -2.509813e-18
6.7625365e-18 8.050329e-18 -1.112347e-17 2.7857352e-17 2.1560661e-17 -1.0564161e-17 -1.0528191e-17 -1.3216224e-18
-2.1665518e-19 2.1221036e-17 5.831114e-17 1.08205965e-19 -1.6731263e-17 -6.973599e-18 -9.217685e-18 6.7864338e-18
4.353138e-17 -1.4260598e-18 8.062174e-18 8.5970654e-19 -1.6489425e-17 1.042402e-17 5.9718556e-17 1.8298383e-17
-4.2222682e-19 4.624199e-17 -9.464569e-18 -1.5969648e-17 1.2682466e-18 -2.6721654e-18 -8.864986e-18 2.2402868e-17
5.9643483e-20 -8.6274193e-19 3.8975183e-18 -9.978026e-18 -1.4527123e-18 -1.7593392e-17 -1.0571482e-18 3.9850092e-20
1.29880666e-17 7.085024e-19 2.9511935e-18 5.115464e-18 -2.4655064e-17 5.409928e-18 -1.1119973e-16 3.6279817e-17
4.8298646e-18 8.533803e-18 3.76957e-17 -2.87215e-17 7.215265e-18 2.8640562e-18 9.366197e-18 -4.4827634e-17
1.2612597e-18 -2.9501195e-17 -9.244513e-18 -1.236867e-17 -1.7426371e-17 -6.5674774e-20 -3.707267e-17 -1.3751532e-18
1.9782463e-17 -3.1025927e-17 3.3804185e-17 4.2299667e-19 5.6264226e-18 -1.5205922e-17 -1.675982e-18 1.4277032e-18
-1.30109025e-17 5.137517e-18 -1.3249522e-17 -5.1931123e-18 4.181571e-18 -2.9334854e-18 1.4741017e-17 1.3551019e-17
2.6651557e-18 -2.3858948e-17 6.8553627e-18 -3.3011805e-17 -5.6686567e-18 -4.1511778e-18 -2.4129537e-17 4.747047e-18
2.0762483e-17 1.25054216e-17 -1.6806781e-18 -2.857465e-18 -1.0190715e-17 1.9834612e-18 8.982446e-18 2.839589e-17
3.471845e-18 5.545288e-19 -3.2942263e-16 -5.45974e-18 -1.7583578e-17 5.9068116e-18 -1.4291722e-17 -6.315144e-17
-1.6272054e-18 -1.7586e-18 -3.686918e-18 3.95177e-18 2.7544008e-18 -9.978223e-18 2.1620685e-17 -3.539034e-17
-1.7489167e-17 4.5006785e-18 -1.7652208e-17 -3.4856063e-18 4.0462338e-18 1.835919e-17 -3.5132174e-17 -8.042959e-18
00000000: 47ba 9f23 41bc 9ca3 e514 69a3 eca8 baa3
00000010: 47cb 81a3 b924 0ea3 c7e7 3c22 eedc 1021
00000020: 141b b7a1 be97 cf23 db60 49a2 8268 dc20
00000030: eade 05a3 6a02 d3a2 19ff a2a0 4043 fda3
00000040: dead f6a3 cede 2424 c5ff eba3 79d0 5523
00000050: 61dd 0823 75d5 d321 1e84 a7a2 6012 84a2
00000060: 1655 24a3 eb2f 18a0 8f85 5723 8549 9524
00000070: c924 0223 96ce 2ca3 05e1 1b21 8b78 3823
00000080: f870 4ba3 4be9 9a23 1f85 54a4 f56e 6fa2
00000090: 8ed3 8f23 5e89 91a3 9cd3 2424 dc1c 8ea2
000000a0: 5941 a2a2 452d d2a3 a1fd 5ba1 b57d faa2
000000b0: 7e66 2da3 97b2 1724 aa67 7ea4 125e e9a1
000000c0: 1607 7b23 5330 2724 7a38 70a2 7333 0aa2
000000d0: d7a4 5124 6fcd 53a3 8a78 5ea3 6bb8 5da4
000000e0: bc91 28a3 7d21 c8a3 3c89 03a3 474a b922
000000f0: bbab 17a4 175b 3b24 aa6f a5a3 fdbe 1aa2
00000100: 91fa 1f24 83f6 aa21 a224 c7a3 628e a723
00000110: e522 5ca2 33da f722 bf2c 7923 5b09 0ba5
00000120: 1fa5 e7a1 06cd fb22 a574 8b22 0916 8b21
00000130: c593 6122 232e 1da4 05f0 bd23 133e 2822
00000140: 2f52 d4a2 399f 4f22 3b81 df23 2255 fca2
00000150: fd5b 8522 e204 3523 0a18 0924 f7ab 2f23
00000160: 0eb1 b8a1 1b83 87a3 12f4 8fa0 3043 10a3
00000170: 59d2 5da3 a50f 70a2 e06f b4a0 25f2 0823
00000180: 35dd b5a2 c3e1 f723 a2f5 8ba2 aa9d 7fa3
00000190: de26 1ea4 772e 3923 9c52 2123 fb6a 32a4
000001a0: 21dc db22 df69 04a3 8f32 3b23 e3bc 1424
000001b0: b290 7923 9f17 5223 2fe2 2123 3877 4521
000001c0: 22fa 0124 7537 b0a3 525f 4623 5ef5 9621
000001d0: 6c0f 0f21 5a1e 02a3 faec 0ba3 e1cb 5323
000001e0: 58f4 33a0 4844 8821 64a2 0022 725c b122
000001f0: 12f5 1ea2 3f28 4a23 b09f a522 5d42 2ba4
00000200: a04d 22a3 fe88 35a2 cab5 cf23 f124 b6a4
00000210: cb75 82a3 ffd7 9223 8e51 5922 0731 39a2
00000220: 5a7e f922 9b80 1423 1a31 4da3 2878 0024
00000230: acdc c623 d7df 42a3 fa35 42a3 7c09 c3a1
00000240: 03c8 7fa0 c1ba c323 d274 8624 7e7e ff1f
00000250: 9451 9aa3 e4a3 00a3 4909 2aa3 0e60 fa22
00000260: c8c0 4824 0473 d2a1 8ab8 1423 97bd 7d21
00000270: 8e16 98a3 0b4a 4023 9db3 8924 d6c5 a823
00000280: 1d3d f9a0 e840 5524 2a97 2ea3 444b 93a3
00000290: 0029 bb21 c72b 45a2 b687 23a3 47a1 ce23
000002a0: 46d4 8c1f f0a2 7ea1 05cb 8f22 e50f 38a3
000002b0: eb61 d6a1 3945 a2a3 ee01 9ca1 ce2f 3c1f
000002c0: 6996 6f23 ee1c 5121 78c2 5922 31ba bc22
000002d0: 2067 e3a3 5397 c722 5e34 00a5 a64f 2724
000002e0: c830 b222 bf6b 1d23 3ad7 2d24 5d74 04a4
000002f0: 2019 0523 7e54 5322 9dc6 2c23 21bb 4ea4
00000300: 0b21 ba21 dd0c 08a4 fa87 2aa3 6529 64a3
00000310: dbba a0a3 f711 9b9f aff7 2aa4 d2ef caa1
00000320: 0576 b623 f314 0fa4 f0e4 1b24 73b1 f920
00000330: 0f94 cf22 f83f 8ca3 cf54 f7a1 1ab1 d221
00000340: 4002 70a3 7a8a bd22 1969 74a3 8f97 bfa2
00000350: d245 9a22 f973 58a2 3ef6 8723 e1f8 7923
00000360: 5ea7 4422 590f dca3 12eb fc22 763d 18a4
00000370: f322 d1a2 c426 99a2 428e dea3 9722 af22
00000380: 0780 bf23 2faf 6623 3906 f8a1 fdd7 52a2
00000390: 4afc 3ba3 865a 1222 67b2 2523 f3f3 0224
000003a0: a616 8022 03ab 2321 33e6 bda5 c96d c9a2
000003b0: 0d2e a2a3 42ec d922 60d1 83a3 089e 91a4
000003c0: 1522 f0a1 04c3 01a2 f505 88a2 6acb 9122
000003d0: 293d 4b22 d310 38a3 666a c723 8a35 23a4
000003e0: 214f a1a3 b50b a622 19d0 a2a3 9f98 80a2
000003f0: 9947 9522 6955 a923 c004 22a4 cd5d 14a3

ff_model.0.bias f4 [150]
-5.404426e-17 0.015606346 0.012465649 -1.7868554e-31 0.0077321758 -3.209e-42 -3.4100358e-07 -2.0639896e-20
0.019292856 0.012285066 -6.234705e-12 -8.04e-43 2.705e-42 -3.4715895e-15 0.030154185 0.0064982544
-5.65e-43 0.034851894 -8.8e-43 4.406e-42 0.016736016 -3.673e-42 -0.000103917904 -7.43e-43
1.404e-42 0.026773954 0.023306848 5.42329e-40 2.0154891e-07 -0.0010067206 -0.00043731058 1.974e-42
0.015991164 -1.26309e-12 -7.773751e-26 -1.163e-42 -1.207e-42 2.4e-42 8.37e-43 -3.266429e-05
3.072e-42 0.019603057 0.012332642 -2.9797826e-27 0.0184803 0.02069777 4.56e-42 -1.2048837e-09
0.022558881 4.3066424e-17 -1.1080318e-15 -1.541e-42 1.4174907e-10 -0.00017618113 -1.015e-42 0.020537267
9.808573e-33 -5.5142305e-06 -3.1775375e-07 5.83e-43 -1.88e-43 -2.507218e-05 1.7145143e-07 0.01259307
-3.36e-43 -2.725831e-39 2.686e-42 -8.882387e-05 1.602e-42 4.33e-43 0.014928919 4.22e-43
0.027229393 2.45e-42 -1.589e-42 0.00012592282 0.011192538 -3.56e-43 0.012767999 1.4882808e-19
5.54e-43 5.595735e-39 -9.657046e-39 8.91e-43 0.010842937 0.004315908 0.013474349 -1.945e-42
6.6e-44 -2.07e-43 9.2e-44 0.031356737 2.887769e-15 1.261e-42 0.010922736 0.027863549
0.0034994173 0.009485905 -2.56e-42 1.009e-42 -3.7380582e-10 2.506e-42 -6.4274596e-19 -2.957e-42
0.012699663 0.018621618 0.028126918 0.016875666 -2.024377e-09 -6.18e-43 -7.4279284e-11 0.010045239
-2.4611655e-22 -1.38e-42 4.9462163e-37 2.13e-43 -3.56e-43 -2.9630194e-11 -2.4694419e-14 0.014151548
-0.0011400627 -2.08e-42 8.304563e-15 -1.05e-42 0.032022838 1.44e-42 4.96e-43 2.641e-42
0.010667772 0.0108748935 -1.567e-42 -3.073e-42 5.542008e-33 1.1444915e-12 -5.7970175e-09 -1.012e-42
0.0072238613 -1.307e-42 0.04179359 7.57e-43 0.008549936 0.02397467 -5.1745953e-28 -1.187e-42
-1.2541374e-05 -0.00029352107 -1.862e-42 7.52e-43 5.98e-43 1.8009356e-17
00000000: 333c 79a4 c2b1 7f3c b93c 4c3c 75f2 678c
00000010: 315e fd3b f208 0080 2d13 b7b4 35f0 c29e
00000020: 0d0c 9e3c 4d47 493c 3b5d dbac 3e02 0080
00000030: 8a07 0000 8627 7aa7 e905 f73c 4fef d43b
00000040: 9301 0080 dcc0 0e3d 7402 0080 480c 0000
00000050: f819 893c 3d0a 0080 80ee d9b8 1202 0080
00000060: ea03 0000 0d55 db3c 01ee be3c cbe7 0500
00000070: 5869 5834 f0f3 83ba d546 e5b9 8105 0000
00000080: e7ff 823c 9dc3 b1ab 0078 c095 3e03 0080
00000090: 5d03 0080 b106 0000 5502 0000 0401 09b8
000000a0: 9008 0000 9796 a03c da0e 4a3c 2c15 6c93
000000b0: 0064 973c 5f8e a93c b60c 0000 1499 a5b0
000000c0: 67cd b83c dc9b 4624 28af 9fa6 4c04 0080
000000d0: d1da 1b2f 43bd 38b9 d402 0080 c53d a83c
000000e0: 52b7 4b0a e106 b9b6 be97 aab4 a001 0000
000000f0: 8600 0080 1952 d2b7 3618 3834 2a53 4e3c
00000100: f000 0080 82ae 1d80 7d07 0000 f446 bab8
00000110: 7704 0000 3501 0000 6d98 743c 2d01 0000
00000120: 2d10 df3c d406 0000 6e04 0080 260a 0439
00000130: e860 373c fe00 0080 df30 513c 87b4 2f20
00000140: 8b01 0000 a2ee 3c00 ea27 6980 7c02 0000
00000150: 93a6 313c 766c 8d3b 84c3 5c3c 6c05 0080
00000160: 2f00 0000 9400 0080 4200 0000 ec6f 003d
00000170: f015 5027 8403 0000 46f5 323c 1942 e43c
00000180: 7b56 653b c56a 1b3c 2307 0080 d002 0000
00000190: 7e80 cdaf fc06 0000 83b4 3da1 3e08 0080
000001a0: 3f12 503c 5d8c 983c 6c6a e63c d63e 8a3c
000001b0: 381d 0bb1 b901 0080 8557 a3ae c994 243c
000001c0: b1c4 949b d903 0080 9f4f 2803 9800 0000
000001d0: fe00 0080 a250 02ae 746d dea8 e5db 673c
000001e0: 286e 95ba cc05 0080 099a 1528 ed02 0080
000001f0: 612a 033d 0404 0000 6201 0000 5d07 0000
00000200: e1c7 2e3c 9c2c 323c 5e04 0080 9108 0080
00000210: bd34 e609 a712 a12b 1b2f c7b1 d202 0080
00000220: 24b6 ec3b a503 0080 c12f 2b3d 1c02 0000
00000230: 0815 0c3c 8766 c43c 4efd 2392 4f03 0080
00000240: cb68 52b7 bbe3 99b9 3105 0080 1902 0000
00000250: ab01 0000 641b a623

ff_model.3.weight f4 [120, 150]
1.135044e-15 0.013567291 0.016653141 -8.907093e-31 0.007879279 -5.5e-44 -0.00023220107 -1.0114431e-05
0.018076142 0.014562168 1.3666713e-11 1.738e-42 -2.074e-42 -8.499473e-07 0.017596148 0.004723951
-1.4727074e-09 0.025351081 -2.1466416e-25 -4.8e-44 0.012198525 -1.624e-42 -0.000780121 5.8e-43
-1.2362547e-36 0.020343833 0.021458104 -3.4781986e-09 1.6078837e-07 0.0010768882 -0.0001001293 -6.68e-43
0.014544237 -6.816558e-05 -2.232375e-39 2.1664337e-13 -2.1236719e-08 -1.956e-42 -8.66e-43 0.0011762212
-3.107e-42 0.02496258 0.01087118 -2.9101207e-12 0.024772186 0.021450689 7.229e-42 2.880689e-07
0.016798386 2.79947e-15 2.7988904e-16 -2.19e-43 -1.9939255e-06 0.00019404982 -2.463e-42 0.012876907
1.332279e-32 7.535461e-05 0.00020608248 -3.254517e-12 -1.4283969e-11 2.6759176e-06 2.605411e-06 0.018749991
-1.9187652e-31 -3.0606687e-12 -1.708e-42 0.0012907599 2.1219336e-32 1.5064516e-21 0.019437836 2.9707738e-33
0.021605873 1.889e-42 -2.314e-42 9.833087e-08 0.008628133 -2.0197082e-19 0.014680636 4.053765e-19
1.21e-42 -3.672096e-39 -3.196715e-30 4.09e-43 0.019153195 -0.00096867123 0.012545585 -1.62e-42
-3.85325e-18 -1.4457568e-28 -4.4500902e-18 0.024216488 -2.2431494e-09 2.6567437e-16 0.01498082 0.025268367
0.021019053 0.010867265 -2.1e-43 2.9629077e-09 -4.110837e-06 -7.41e-43 7.864311e-06 -5.6728846e-21
0.0053500193 0.024553005 0.018709319 0.014256875 -0.0003558927 -2.3033663e-15 0.000116335126 0.014783024
-2.516327e-07 -5.123694e-14 2.0893742e-12 -2.12e-43 2.0322048e-09 6.68402e-07 8.589189e-06 0.016103433
-0.0009676572 4.1e-43 2.2732933e-14 -1.05e-43 0.02402259 4.16e-43 -5.4538636e-31 -1.408e-42
0.008343324 0.018274762 -7.494205e-33 1.89e-42 -3.439753e-11 9.806766e-05 -1.0157447e-05 -1.4468885e-35
0.021064378 -3.2206486e-12 0.029324418 1.3738091e-27 0.022620061 0.02230143 -2.0408662e-27 -5.1e-43
3.45862e-05 -0.0033184672 3.2e-44 -4.3779134e-19 1.85e-43 3.5801783e-18 -9.791245e-17 0.0130192125
0.013494547 8.136269e-31 0.0066658175 2.588e-42 -0.0005891642 -5.8299214e-08 0.020272035 0.016947724
-1.9737639e-11 -1.383e-42 1.5e-42 -1.0885907e-05 0.020612145 0.0051028305 -1.2615892e-09 0.028864915
-4.0761825e-09 2.147e-42 0.015881319 -4.92e-43 -0.0013224053 1.128e-42 -1.0016987e-23 0.023344725
0.025456542 -2.485936e-08 1.2255677e-07 0.0013108854 -0.0024257004 1.281e-42 0.013309913 -0.00014388046
-1.6085411e-18 -2.2154654e-12 -3.650951e-08 -4.5e-44 1.167e-42 3.0139616e-05 -1.722e-42 0.02427176
0.008749776 0.0004517173 0.023249617 0.023578055 8.09e-43 -1.1405386e-06 0.019513918 -5.1045822e-17
-1.5667692e-15 -5.91e-43 -5.1872852e-05 -0.00035966077 -2.351e-42 0.014334653 3.6059394e-32 8.196119e-05
-1.7700027e-05 1.7670628e-07 -5.911518e-10 0.00020504312 0.0013417512 0.01991559 -1.6165116e-09 2.084599e-05
-6.63e-43 0.00013833794 -1.5106823e-18 1.6781943e-10 0.015581618 -9.832101e-15 0.02117665 -1.548e-42
1.913e-42 -4.0612325e-05 0.0059020715 2.9093307e-15 0.015757324 -8.717951e-22 -1.15e-43 -2.7650295e-38
3.301162e-08 -9.67e-43 0.014529344 -0.0008472044 0.016873503 -9.61e-43 -1.5038958e-06 -1.6135427e-21
3.2219168e-06 0.027068038 -2.4970763e-07 -3.9902736e-07 0.017359955 0.026196644 0.014445031 0.013013829
-1.368e-42 3.909464e-05 4.588186e-05 -7.23e-43 5.0493018e-05 -3.150151e-21 0.0066683646 0.024377994
00000000: bb93 a326 5849 5e3c 2b6c 883c 9e86 908d
00000010: 1718 013c 2700 0080 007b 73b9 26b1 29b7
00000020: 6b14 943c 2996 6e3c 676d 702d d804 0000
00000030: c805 0080 ef27 64b5 cc25 903c 60cb 9a3b
00000040: 4968 cab0 12ad cf3c e5de 8496 2200 0080
00000050: 52dc 473c 8704 0080 0981 4cba 9e01 0000
00000060: 7d56 d283 1ca8 a63c e8c8 af3c 1e05 6fb1
00000070: 2ca5 2c34 5f26 8d3a 82fc d1b8 dd01 0080
00000080: f44a 6e3c 1ef4 8eb8 f44e 1880 33eb 732a
00000090: 0a6c b6b2 7405 0080 6a02 0080 6f2b 9a3a
000000a0: a908 0080 537e cc3c 091d 323c 13c8 4cac
000000b0: 0aef ca3c 5bb9 af3c 2714 0000 e3a7 9a34
000000c0: c59c 893c 1bb9 4927 5558 a125 9c00 0080
000000d0: 61cf 05b6 da79 4b39 de06 0080 aaf9 523c
000000e0: 0d5a 8a0a b307 9e38 d817 5839 2b04 65ac
000000f0: 4749 7bad ea93 3336 9fd8 2e36 9599 993c
00000100: e911 798c 1b60 57ac c304 0080 b72e a93a
00000110: ac5a dc0a 06a6 e31c 193c 9f3c 5fcd 7609
00000120: cdfe b03c 4405 0000 7306 0080 f829 d333
00000130: 035d 0d3c ef71 6ea0 0d87 703c c44a ef20
00000140: 5f03 0000 4ffc 2780 96ac 818e 2401 0000
00000150: 29e7 9c3c 6dee 7dba ff8b 4d3c 8404 0080
00000160: eb28 8ea2 7e45 3791 ea2d a4a2 a861 c63c
00000170: e725 1ab1 9e26 9925 1d72 753c 9bff ce3c
00000180: 2630 ac3c 9d0c 323c 9600 0080 069c 4b31
00000190: d2ef 89b6 1102 0080 f5f0 0337 c650 d69d
000001a0: 374f af3b 6223 c93c 4944 993c ab95 693c
000001b0: 1c97 bab9 9cf9 25a7 f2f8 f338 7f34 723c
000001c0: 2318 87b4 2cc0 66a9 d206 132c 9700 0080
000001d0: eda6 0b31 3c6c 3335 491a 1037 59eb 833c
000001e0: 60aa 7dba 2501 0000 93c2 cc28 4b00 0080
000001f0: 06cb c43c 2901 0000 edfc 308d ed03 0080
00000200: 70b2 083c f4b4 953c 07a6 1b8a 4505 0000
00000210: 2d48 17ae ada9 cd38 e769 2ab7 0ddc 9985
00000220: 348f ac3c 0ca2 62ac c339 f03c 51b0 d912
00000230: b54d b93c 7db1 b63c afb1 2193 6c01 0080
00000240: a610 1138 a47a 59bb 1700 0000 9436 01a1
00000250: 8400 0000 d415 8422 4fc5 e1a4 894e 553c
00000260: 3c18 5d3c bd04 840d ee6c da3b 3707 0000
00000270: 2472 1aba aa64 7ab3 8a11 a63c f4d5 8a3c
00000280: 369d adad db03 0080 2e04 0000 9da2 36b7
00000290: cdda a83c a535 a73b 3964 adb0 1d76 ec3c
000002a0: 7b0e 8cb1 fc05 0000 8a19 823c 5f01 0080
000002b0: 8f54 adba 2503 0000 b8c1 4199 703d bf3c
000002c0: 3d8a d03c 508a d5b2 2698 0334 04d2 ab3a
000002d0: 80f8 1ebb 9203 0000 d211 5a3c 9ede 16b9
000002e0: f760 eda1 47e6 1bac a1ce 1cb3 2000 0080
000002f0: 4103 0000 55d4 fc37 cd04 0080 92d5 c63c
00000300: 385b 0f3c 78d4 ec39 fb75 be3c c426 c13c
00000310: 4102 0000 9c14 99b5 a7db 9f3c 4568 6ba4
00000320: 95cb e1a6 a601 0080 0d92 59b8 da90 bcb9
00000330: 8e06 0080 e4db 6a3c 283b 3b0b 94e2 ab38
00000340: 857a 94b7 a7bc 3d34 9c7e 22b0 d800 5739
00000350: b3dd af3a 0526 a33c f22b deb0 6cde ae37
00000360: d901 0080 cf0e 1139 f7ef dea1 f884 382f
00000370: 0b4a 7f3c 901e 31a8 a77a ad3c 5104 0080
00000380: 5505 0000 2757 2ab8 2a66 c13b aea3 5127
00000390: 8115 813c f0bd 839c 5200 0080 e38a 1681
000003a0: a9c8 0d33 b202 0080 7c0c 6e3c ed16 5eba
000003b0: 4d3a 8a3c ae02 0080 77d9 c9b5 e9d4 f39c
000003c0: 1c38 5836 cabd dd3c 8e0f 86b4 e739 d6b4
000003d0: 7736 8e3c 589a d63c daaa 6c3c f437 553c
000003e0: d003 0080 8df9 2338 4671 4038 0402 0080
000003f0: 77c8 5338 c804 6e9d 4c82 da3b 5cb4 c73c

ff_model.3.bias f4 [120]
2.3630335e-05 0.00045239486 0.00035826565 0.009745994 0.00018314493 0.005012267 0.00028272002 0.0002897745
0.0002965672 0.0013363464 0.001540123 0.00038493733 0.0004859984 0.00052666315 9.6896925e-05 0.00023456832
1.1710542e-05 0.000106426676 0.0062324773 0.0003229086 0.017644841 0.00038636097 0.0036423116 0.0007649754
7.640945e-05 0.013164218 0.0004124471 0.00036585785 0.008963356 0.0004633138 0.004669321 0.0007377886
0.0066129025 0.01313696 0.000412417 0.0006131353 0.00088199944 0.0002803019 6.591023e-05 0.00011341088
0.00023258709 -0.00029998607 0.00038267518 0.00039422928 0.005456474 0.0022608377 0.0008478933 0.00046932726
0.00045538094 0.00043481964 0.0045882873 0.00025325062 0.0001876579 0.000263856 0.009503553 0.0006205503
0.0068622767 0.0004531584 0.00011225493 0.005070984 0.010406138 0.00011527526 0.00022792473 0.0042067175
0.006088637 0.00022642736 0.000108729226 0.012842241 0.00039396714 0.0003499983 -9.24147e-05 4.8001704e-05
0.00025342972 0.013392953 0.013600651 0.010325696 0.00041115072 0.00028322396 6.449284e-06 0.01611462
0.0006208528 0.0005196412 9.210071e-05 0.014463378 0.00093036913 0.00024688125 3.6138776e-05 0.00038393345
0.007897234 0.00059393095 0.009236802 -0.0001526223 0.016068116 0.0003689639 -9.583411e-05 0.00058352837
0.0078095854 0.00040593077 0.0001251843 0.017760213 0.0002776805 0.00030101757 0.0005494054 0.000404138
0.00040167352 0.008087375 0.00016092927 0.00561313 0.00036114248 0.00070446305 0.00041918183 -8.086942e-05
0.0100631425 9.136035e-06 0.015224368 0.0032756617 0.008863223 0.000389946 0.00024061446 0.02088132
00000000: c239 c637 692f ed39 9ad5 bb39 a9ad 1f3c
00000010: 980a 4039 f13d a43b 0a3a 9439 e0ec 9739
00000020: 937c 9b39 5828 af3a f4dd c93a 6ad1 c939
00000030: 9acd fe39 c40f 0a3a 2435 cb38 74f6 7539
00000040: 6578 4437 6331 df38 cf39 cc3b 0f4c a939
00000050: ea8b 903c 7e90 ca39 d9b3 6e3b a188 483a
00000060: 033e a038 bbae 573c b63d d839 9cd0 bf39
00000070: 0adb 123c ede8 f239 1a01 993b 2868 413a
00000080: 0cb1 d83b 673c 573c ac39 d839 d0ba 203a
00000090: fb35 673a 7cf5 9239 4939 8a38 01d7 ed38
000000a0: 9fe2 7339 7347 9db9 cba1 c839 8fb0 ce39
000000b0: 39cc b23b 902a 143b 2845 5e3a 0a10 f639
000000c0: 32c0 ee39 81f8 e339 5859 963b b9c6 8439
000000d0: 09c6 4439 2756 8a39 cab4 1b3c 6dac 223a
000000e0: f3dc e03b e495 ed39 686a eb38 7f2a a63b
000000f0: 827e 2a3c efbf f138 14ff 6e39 81d8 893b
00000100: 3083 c73b 226d 6d39 8f05 e438 4368 523c
00000110: 608d ce39 fa7f b739 c4ce c1b8 7055 4938
00000120: c3de 8439 1e6e 5b3c 44d5 5e3c 1c2d 293c
00000130: b78f d739 ad7d 9439 ed66 d836 cf02 843c
00000140: bac0 223a 8838 083a 3126 c138 cef7 6c3c
00000150: 04e4 733a d76f 8139 b793 1738 ad4a c939
00000160: 6663 013c 08b2 1b3a f555 173c 3d09 20b9
00000170: 48a1 833c 7f71 c139 8cfa c8b8 edf7 183a
00000180: 8de7 ff3b 1bd3 d439 e843 0339 de7d 913c
00000190: a595 9139 e5d1 9d39 f905 103a 7ce2 d339
000001a0: b597 d239 e980 043c 1fbf 2839 59ee b73b
000001b0: b957 bd39 b7ab 383a a2c5 db39 7098 a9b8
000001c0: e1df 243c f946 1937 a16f 793c 7cac 563b
000001d0: 0d37 113c ab71 cc39 744d 7c39 4d0f ab3c

ff_model.6.weight f4 [45, 120]
2.236405e-19 -9.096511e-08 -1.5231475e-23 -5.3156846e-22 2.4277229e-23 -4.6638764e-22 7.271116e-25 2.2256237e-23
-8.4260505e-18 -1.1734912e-11 5.5050556e-22 -3.8174618e-20 -1.981587e-22 -4.2749973e-16 3.1046984e-21 -2.0370036e-08
-2.8038722e-09 -3.2691527e-22 -1.6915882e-09 -7.714264e-24 -5.9795924e-09 -2.7658622e-09 -1.6774122e-23 -7.871043e-09
2.950989e-23 2.6026178e-21 -2.508946e-23 -5.5191505e-23 -1.0498271e-08 -1.3297307e-24 -1.382862e-23 -7.564616e-09
-3.536768e-20 7.372683e-23 6.755001e-24 1.4609716e-18 -2.0550592e-09 -8.804021e-12 -2.4933178e-10 2.4412935e-23
-2.4892697e-07 -2.140412e-14 1.2465144e-23 -1.4329113e-13 -8.9323343e-10 1.04259005e-23 -5.5681233e-09 1.6026452e-23
-1.0249793e-24 -3.5091594e-09 -5.966268e-09 1.4595025e-23 -2.2899111e-11 -4.939072e-24 -6.1499125e-11 -3.285152e-22
-2.8758666e-24 -2.9458783e-15 -3.5971668e-20 -4.0655687e-13 -4.2956337e-21 1.559505e-23 -5.681162e-09 -1.1683339e-16
-3.6029508e-09 2.257968e-21 -4.591927e-12 -1.8344793e-23 -2.8479738e-20 1.1776439e-22 -1.7685294e-23 -1.675281e-07
-4.3805622e-11 -3.1870978e-15 4.6721227e-23 -2.3438422e-09 -1.8316552e-10 2.5980795e-23 -8.592775e-11 -2.2496666e-08
-2.8228243e-22 -4.649963e-15 -3.0548917e-15 3.8715664e-24 -3.027731e-11 -2.5005513e-09 9.302754e-24 1.8785213e-23
-5.325116e-22 1.4522108e-24 -2.2552823e-14 7.6783633e-25 -1.6834334e-23 -1.8972786e-20 -3.736576e-09 -1.2636079e-09
-8.807222e-24 -4.5023448e-08 8.258882e-24 -2.0086454e-23 -1.3258777e-23 -2.7558297e-22 -3.712788e-15 -4.7048043e-23
-7.610523e-24 -1.8482367e-16 -3.0168982e-23 -5.2327022e-20 -8.6833626e-07 -7.55685e-07 -1.5136631e-23 2.4347392e-23
-7.8900364e-08 -5.845443e-23 -2.2578966e-22 -2.3882422e-12 -6.797284e-20 -1.9622782e-12 -4.0815093e-22 -8.034187e-12
0.024510017 0.02678809 0.022117143 0.019032525 0.019068573 0.017766608 0.01564174 0.023578666
0.018102843 0.023440938 0.022173129 0.023471344 0.022949543 0.013435508 0.021187803 0.025289094
0.02942187 0.022122972 0.024845898 0.019764774 0.02300022 0.02049809 0.022730593 0.021695327
0.023120431 0.023132123 0.026396774 0.021822607 0.019448768 0.013859975 0.018386586 0.013193259
0.022816567 0.019674547 0.018781677 0.013890695 0.020510912 0.02010774 0.020366829 0.021851992
0.018807042 0.020921053 0.02441257 0.025488185 0.017984018 0.0205626 0.0074580377 0.01885243
0.022252528 0.014754031 0.019844027 0.020767953 0.019555187 0.022209816 0.016136868 0.012896181
0.015699387 0.021589221 0.022518655 0.02256498 0.019804398 0.021810137 0.021463217 0.017327636
0.021611737 0.017844956 0.019165546 0.025475446 0.021198465 0.020165186 0.01816757 0.02099851
0.019969042 0.024195286 0.020164825 0.018983796 0.020048296 0.01900907 0.024268415 0.016922781
0.019487629 0.015375966 0.019409694 0.023108182 0.017914834 0.021976052 0.0196538 0.021219555
0.018330928 0.022319473 0.023070747 0.023099393 0.017863128 0.024173839 0.020144232 0.024615299
0.0217226 0.01867614 0.024287304 0.0195563 0.020354284 0.019856548 0.021418612 0.021660203
0.015827572 0.018313035 0.021647658 0.022327734 0.02003545 0.019778129 0.021481322 0.020970471
0.019310366 0.024374956 0.018667879 0.017684525 0.022909896 0.021681292 0.01989159 0.016859371
0.021740718 0.02213122 0.021911886 0.017111195 0.016662262 0.0172935 0.016722929 0.020664299
0.016119294 0.021625262 0.023175 0.020721028 0.019817123 0.014840646 0.023077052 0.019365614
00000000: 9903 8420 9958 c3b3 4e4f 9399 1ea8 209c
00000010: 82cb ea19 fff4 0c9c b707 6117 c63f d719
00000020: e66e 1ba3 5871 4ead 4e61 261c 4846 349f
00000030: 268f 6f9b d36f f6a5 9a95 6a1d 2ffa aeb2
00000040: 3eae 40b1 b09b c59b 787d e8b0 2f37 1599
00000050: 0d75 cdb1 9011 3eb1 b73a a299 3739 07b2
00000060: 79b3 0e1a f3a5 441d 7fa6 f299 e371 859a
00000070: e25b 34b2 0fc4 cd97 01be 8599 88f5 01b2
00000080: e704 279f b342 b21a 25a9 0219 f299 d721
00000090: fc38 0db1 c9e1 1aad 5412 89af 801b ec19
000000a0: 43a4 85b4 8aca c0a8 671c 7119 db54 21aa
000000b0: b787 75b0 8faa 4919 bb51 bfb1 93ff 9a19
000000c0: 9d9b 9e97 c925 71b1 d9ff ccb1 8827 8d19
000000d0: 376c c9ad 3312 bf98 ee3c 87ae 4493 c69b
000000e0: 6882 5e98 dd45 54a7 14df 299f 05df e4aa
000000f0: d248 a29d 79d3 9619 0834 c3b1 21b3 06a5
00000100: c897 77b1 749b 2a1d 6790 a1ac 826b b199
00000110: e47d 069f 505e 0e1b ab0a ab99 c6e1 33b4
00000120: bfa8 40ae 94a7 65a7 14ee 611a 4f11 21b1
00000130: 8364 49af 5545 fb19 06f5 bcae b13e c1b2
00000140: 17a1 aa9b 5788 a7a7 ce20 5ca7 23c6 9518
00000150: 3829 05ae 2ad6 2bb1 02f1 3319 efad b519
00000160: 17f1 209c ffb7 e017 4523 cba8 43a2 6d17
00000170: cbcf a299 6231 b39e 4563 80b1 40ab adb0
00000180: 405b 2a99 ce5f 41b3 01c0 1f19 a743 c299
00000190: 243b 8099 6694 a69b 6dc4 85a7 a882 639a
000001a0: 7c35 1399 5216 55a5 64e3 119a 7d1b 779f
000001b0: 9d17 69b5 47da 4ab5 7c64 9299 3979 eb19
000001c0: ef6f a9b3 8a55 8d9a 427b 889b bf0e 28ac
000001d0: 107f a09f 4315 0aac 4cb6 f69b c356 0dad
000001e0: 3bc9 c83c b272 db3c 032f b53c 19ea 9b3c
000001f0: b235 9c3c 478b 913c 1b23 803c 0c28 c13c
00000200: 6a4c 943c 3607 c03c 6ca4 b53c fa46 c03c
00000210: ae00 bc3c 9b20 5c3c 0b92 ad3c 132b cf3c
00000220: 2206 f13c 3c3b b53c a089 cb3c bce9 a13c
00000230: f56a bc3c 9ceb a73c 8235 ba3c 66ba b13c
00000240: 0f67 bd3c 947f bd3c 0c3e d83c 53c5 b23c
00000250: 0653 9f3c f314 633c 779f 963c 8a28 583c
00000260: cfe9 ba3c 842c a13c 08dc 993c cc95 633c
00000270: 8006 a83c fdb8 a43c 56d8 a63c f302 b33c
00000280: 3a11 9a3c a162 ab3c dffc c73c 99cc d03c
00000290: 3853 933c e672 a83c 8e62 f43b 6970 9a3c
000002a0: ef4a b63c e4ba 713c f18f a23c 8e21 aa3c
000002b0: 3332 a03c 5cf1 b53c 7731 843c 814a 533c
000002c0: 009c 803c e1db b03c 0b79 b83c 31da b83c
000002d0: d53c a23c 2cab b23c a1d3 af3c b0f2 8d3c
000002e0: 190b b13c 962f 923c 1001 9d3c e2b1 d03c
000002f0: 67a8 ad3c 7631 a53c 28d4 943c 1105 ac3c
00000300: 1e96 a33c 3135 c63c b430 a53c e883 9b3c
00000310: 533c a43c e9b8 9b3c 8ece c63c a5a1 8a3c
00000320: 85a4 9f3c 7aeb 7b3c 1401 9f3c 5f4d bd3c
00000330: 21c2 923c 1f07 b43c 0201 a13c a2d4 ad3c
00000340: be2a 963c 54d7 b63c ddfe bc3c f03a bd3c
00000350: b255 923c 3708 c63c 8405 a53c 06a6 c93c
00000360: 98f3 b13c b4fe 983c 2bf6 c63c 8934 a03c
00000370: 07be a63c 33aa a23c 1676 af3c bd70 b13c
00000380: d3a8 813c 3805 963c 6e56 b13c a7e8 b63c
00000390: 6221 a43c be05 a23c 99f9 af3c 44ca ab3c
000003a0: c630 9e3c fdad c73c 61ed 983c 23df 903c
000003b0: 89ad bb3c f79c b13c b0f3 a23c aa1c 8a3c
000003c0: 9719 b23c 884c b53c 8e80 b33c c72c 8c3c
000003d0: 4c7f 883c 19ab 8d3c 86fe 883c 2d48 a93c
000003e0: 9c0c 843c 7627 b13c 7fd9 bd3c 25bf a93c
000003f0: 8557 a23c 2e26 733c 160c bd3c a3a4 9e3c

ff_model.6.bias f4 [45]
-3.180328e-08 0.042224605 0.077046715 -0.000715729 0.094266295 -7.515749e-05 0.08692199 -6.809873e-05
0.072650366 0.0491797 -3.6975232e-06 -0.00364952 -0.0013458765 0.053792737 0.06445768 0.045415875
-2.758568e-05 0.06722884 0.054016557 0.038896978 0.08241629 -3.0528514e-05 -6.468053e-05 0.034552097
0.09928753 0.08960983 0.04095641 0.059459247 -3.1940803e-05 -0.003320362 -1.944313e-08 0.065778665
0.035510395 0.07990921 0.044048306 -3.4098396e-06 0.05115475 -0.0016719893 0.04600653 -9.14272e-06
-6.3692045e-05 0.058301404 -4.260842e-07 0.058441922 0.06688865
00000000: 1398 08b3 b5f3 2c3d abca 9d3d c39f 3bba
00000010: b00e c13d df9d 9db8 2804 b23d 3ad0 8eb8
00000020: b7c9 943d a770 493d f722 78b6 c92c 6fbb
00000030: 1f68 b0ba c655 5c3d 6302 843d ff05 3a3d
00000040: cc67 e7b7 46af 893d 7740 5d3d 7052 1f3d
00000050: dfc9 a83d be0b 00b8 18a5 87b8 8086 0d3d
00000060: 4357 cb3d 5c85 b73d e9c1 273d 8a8b 733d
00000070: 2df8 05b8 6e9a 59bb e503 a7b2 f7b6 863d
00000080: 5973 113d 71a7 a33d ff6b 343d 99d4 64b6
00000090: a587 513d a726 dbba 5871 3c3d af63 19b7
000000a0: 6892 85b8 74cd 6e3d 91c0 e4b4 cc60 6f3d
000000b0: ebfc 883d

ff_model.9.weight f4 [2, 45]
0.0048517776 0.13734752 0.15130015 -0.025951998 0.064552166 -0.00061678066 0.10667348 -0.0023321596
0.1275284 0.007995054 0.011877654 -0.047641255 -0.016507152 0.091508456 0.123124965 0.09197425
0.016328922 0.14598523 0.15560423 0.15723263 0.06278216 -0.03208559 -0.0015624485 0.11272284
0.055971663 0.15303378 0.072191566 0.04246516 0.020471377 -0.027844282 -0.0024346947 0.12626825
0.16799934 0.07929908 0.12284867 -0.008531731 0.19329582 -0.011384808 0.07039923 -0.003803947
-0.011091646 0.11510851 -0.00033500636 0.1614008 0.02528589 0.009371142 -0.06622747 -0.02928329
0.02017039 -0.1249371 0.00069307454 -0.09800655 0.00069004006 -0.09449884 -0.18559486 0.022161335
0.017888958 0.03261457 -0.10799875 -0.0707622 -0.11927282 0.043327417 -0.04384125 -0.037517235
-0.052274212 -0.13033459 -0.0121865235 0.0006865914 -0.11045437 -0.13797152 -0.030275403 -0.12645258
-0.16362111 0.035362795 0.041394528 -0.001936666 -0.0994281 -0.046855543 -0.11635751 -0.12679905
-0.0034438027 -0.012271388 0.021578472 -0.15807638 -0.00028750006 -0.0034603667 -0.114690855 8.401113e-06
-0.052720364 -0.17635468
00000000: a9fb 9e3b d4a4 0c3e 6dee 1a3e 4999 d4bc
00000010: ed33 843d 73af 21ba a077 da3d 25d7 18bb
00000020: ce96 023e b0fd 023c 7e9a 423c 7a23 43bd
00000030: 023a 87bc c968 bb3d f128 fc3d ff5c bc3d
00000040: 3bc4 853c 277d 153e b756 1f3e 9701 213e
00000050: ef93 803d 2e6c 03bd 12cb ccba 3bdb e63d
00000060: 8b42 653d e3b4 1c3e 2cd9 933d f3ef 2d3d
00000070: 97b3 a73c b119 e4bc 668f 1fbb 774c 013e
00000080: 0508 2c3e 8e67 a23d 1598 fb3d acc8 0bbc
00000090: 57ef 453e 5987 3abc 792d 903d a44b 79bb
000000a0: bcb9 35bc 03be eb3d cba3 afb9 4046 253e
000000b0: 5b24 cf3c 6b89 193c 45a2 87bd 83e3 efbc
000000c0: 603c a53c 06df ffbd 72af 353a a8b7 c8bd
000000d0: cee3 343a 9c88 c1bd 940c 3ebe b08b b53c
000000e0: dd8b 923c db96 053d 732e ddbd c6eb 90bd
000000f0: 4f45 f4bd 1778 313d e292 33bd acab 19bd
00000100: 7c1d 56bd 6e76 05be fca9 47bc 5efc 333a
00000110: e735 e2bd 6848 0dbe 1f04 f8bc c97c 01be
00000120: 4b8c 27be 94d8 103d 4f8d 293d bad7 fdba
00000130: f6a0 cbbd 99eb 3fbd d94c eebd 9cd7 01be
00000140: 6cb1 61bb ef0d 49bc 56c5 b03c c6de 21be
00000150: 9bbb 96b9 52c7 62bb 0ae3 eabd 81f2 0c37
00000160: 4ff1 57bd 5296 34be

ff_model.9.bias f4 [2]
0.3071191 -0.17203632
00000000: b73e 9d3e 4a2a 30be
