Version12_7/BP3/bp3/BP3Models/BP3C50IDFFNN/Fold3.pt (torch, 865935 bytes, 8 tensors)

ff_model.0.weight f4 [150, 1280]
8.067014e-06 7.033566e-05 2.1076721e-05 4.310132e-05 0.000119252305 5.3596807e-05 -2.4467805e-05 2.4095561e-05
4.9707196e-05 1.5332613e-05 6.165873e-06 -1.37448205e-05 -1.1773733e-05 -0.00013595272 -1.0890572e-05 -4.9490336e-05
-3.804313e-05 -9.679428e-05 1.6683873e-05 -7.220549e-05 -7.1036644e-05 -7.681021e-09 -2.3983177e-05 -6.003579e-05
6.662572e-05 -0.00012546456 -1.3417346e-06 2.08976e-05 4.498597e-06 0.00012254162 1.2972844e-05 -3.389153e-05
-0.00010857767 2.1753516e-05 -3.8195973e-05 -6.050251e-05 4.232034e-05 2.5053274e-05 -0.00011195131 -5.0597653e-05
4.269878e-05 -6.612827e-05 -5.6128674e-06 -1.9146087e-06 -8.918252e-05 -1.5214575e-05 -2.5618256e-05 -5.7395533e-05
-5.315421e-05 4.7683785e-05 6.9388145e-05 -0.00014320995 2.1115407e-05 -0.00012479053 2.7688375e-05 -2.6851005e-05
-1.5173065e-05 -1.2128258e-05 -4.4518645e-05 -6.7491346e-05 3.7547867e-05 2.4456913e-05 5.527158e-05 1.2231532e-05
3.792248e-05 -3.7140893e-05 -4.5953813e-05 1.9328774e-05 1.793083e-05 8.217849e-05 2.8648585e-06 9.700665e-05
6.1413825e-06 -2.3618095e-05 4.2014766e-05 -6.122821e-07 -5.859204e-05 -5.6750807e-05 4.7859367e-06 7.9943464e-05
-4.1832056e-05 8.684351e-05 -5.240527e-05 -3.1720985e-05 -1.7643462e-05 5.168087e-06 2.4916486e-05 -9.155667e-05
2.0540412e-05 8.453081e-05 3.3271877e-05 -3.461534e-05 -3.2431304e-05 2.2433223e-05 -3.1247782e-05 2.7391972e-05
-1.307725e-05 1.0961149e-05 5.3305903e-05 9.685633e-05 -0.00010257067 -1.4822048e-05 2.6917025e-05 3.2543252e-05
1.3032699e-05 3.3661123e-05 -5.1532948e-06 6.114981e-05 1.0646317e-05 3.911175e-05 -2.5567753e-05 1.3297718e-05
-5.0254534e-05 -2.4135259e-05 -1.6923132e-05 -6.8974464e-06 3.661125e-05 -2.9715737e-05 0.00012036659 -5.2448777e-06
1.6185035e-05 4.4205066e-05 -2.7201337e-05 -1.3067153e-06 1.4513249e-05 -2.2127211e-05 -2.9358145e-05 -2.0100066e-05
3.0762083e-05 -4.6480827e-06 8.918544e-05 8.236815e-05 3.7165475e-05 -3.5042114e-05 -2.548688e-05 -7.059142e-05
4.0257142e-05 2.8814484e-05 -8.846813e-06 9.998466e-07 1.3703553e-05 1.37286415e-05 3.9205777e-05 1.181521e-05
-1.6385844e-05 -3.3219374e-05 -5.3627077e-06 -4.2099124e-05 -5.165387e-06 -6.597798e-05 -1.4993794e-05 3.7113218e-06
-6.739813e-05 -0.000116574825 -4.70408e-05 6.0737482e-05 -1.6992142e-05 -6.300678e-05 1.9141992e-06 2.5536521e-05
-2.9109608e-05 -3.9145376e-05 -4.4540633e-05 8.881904e-05 6.733153e-05 5.383032e-05 -1.0781094e-05 -2.0039055e-05
3.4455281e-06 5.701789e-05 0.000100371304 1.9854902e-05 -3.4853878e-05 0.00017186251 6.982285e-05 0.00010685685
4.4076918e-05 -8.763539e-06 3.5019113e-07 -5.059507e-05 -3.825241e-05 -2.5014508e-05 2.6316793e-05 -2.774015e-05
6.9799185e-05 6.195592e-05 7.080416e-05 3.7906433e-05 2.0742855e-06 -9.518661e-06 5.6255907e-05 -5.125513e-05
-3.673714e-05 4.2992957e-05 -4.205077e-05 -7.651382e-05 4.6312096e-05 -1.7205884e-05 7.6057295e-05 -1.5192164e-06
-1.6265947e-05 -5.7219106e-05 9.507471e-06 -5.3778727e-05 1.8275692e-05 -2.328615e-05 2.0100111e-05 -1.1530895e-05
3.3082313e-05 -3.7470247e-05 6.0530507e-05 -1.733325e-05 -9.090492e-05 -9.840652e-06 3.3324064e-05 6.812815e-06
5.962122e-05 -9.976956e-06 -1.1888031e-06 -3.1391817e-05 -5.3041495e-05 -4.3800787e-06 2.6486137e-05 -8.376071e-06
-6.49475e-05 -1.8049324e-05 8.421364e-05 2.551432e-05 4.6327685e-05 9.5175965e-05 -5.302449e-05 -5.082768e-06
-8.441896e-05 6.12062e-05 -0.0006445362 3.644045e-05 -1.7716646e-05 -4.9772894e-05 -6.2220743e-06 8.1107144e-05
8.911457e-05 1.8627548e-05 8.88092e-05 2.8085891e-05 2.4914152e-05 -6.9640773e-06 -2.6959364e-05 6.701587e-05
5.0893877e-06 -3.716434e-05 8.8762965e-05 -9.003213e-05 3.0305075e-05 -4.7870257e-05 -2.1865395e-05 5.659996e-05
00000000: 9057 0737 2c81 9338 eacd b037 b1c7 3438
00000010: 1817 fa38 22cd 6038 3640 cdb7 d320 ca37
00000020: b27c 5038 899e 8037 72e4 ce36 8e99 66b7
00000030: cc87 45b7 888e 0eb9 a7b6 36b7 d893 4fb8
00000040: 8090 1fb8 09fe cab8 58f4 8b37 076d 97b8
00000050: 82f9 94b8 7df5 03b2 7b2f c9b7 f0ce 7bb8
00000060: 69b9 8b38 238f 03b9 a615 b4b5 414d af37
00000070: a7f2 9636 847e 0039 f1a5 5937 c126 0eb8
00000080: 31b4 e3b8 527b b637 9d34 20b8 13c4 7db8
00000090: 1e81 3138 7f29 d237 67c7 eab8 d138 54b8
000000a0: 7717 3338 58ae 8ab8 2a56 bcb6 ba7c 00b6
000000b0: 8007 bbb8 1a42 7fb7 c9e6 d6b7 fcbb 70b8
000000c0: e6f1 5eb8 1300 4838 7a84 9138 a12a 16b9
000000d0: fe20 b137 34da 02b9 5544 e837 183e e1b7
000000e0: d18f 7eb7 797a 4bb7 88b9 3ab8 248a 8db8
000000f0: b77c 1d38 d228 cd37 68d3 6738 0836 4d37
00000100: f40e 1f38 bbc7 1bb8 88be 40b8 3a24 a237
00000110: 2a6a 9637 3e57 ac38 e541 4036 0c70 cb38
00000120: 1312 ce36 791f c6b7 0339 3038 b55b 24b5
00000130: b9c0 75b8 b707 6eb8 e296 a036 52a7 a738
00000140: d474 2fb8 c11f b638 bbcd 5bb8 260c 05b8
00000150: 0c01 94b7 8769 ad36 bf03 d137 1d02 c0b8
00000160: 334e ac37 2246 b138 688d 0b38 f02f 11b8
00000170: d906 08b8 fb2e bc37 0d10 03b8 d0c7 e537
00000180: 5c66 5bb7 c7e5 3737 c794 5f38 591f cb38
00000190: 361b d7b8 36ac 78b7 dfcb e137 0d7f 0838
000001a0: 04a7 5a37 5b2f 0d38 77ea acb6 8e3d 8038
000001b0: 959d 3237 ec0b 2438 557a d6b7 4419 5f37
000001c0: 65c8 52b8 1376 cab7 26f6 8db7 9d70 e7b6
000001d0: 088f 1938 0f46 f9b7 526d fc38 28fd afb6
000001e0: 19c5 8737 d468 3938 6d2e e4b7 6562 afb5
000001f0: ee7d 7337 d39d b9b7 2346 f6b7 909c a8b7
00000200: 8906 0138 baf6 9bb6 1209 bb38 10bd ac38
00000210: 20e2 1b38 2ffa 12b8 a8cc d5b7 7b0a 94b8
00000220: c7d9 2838 a2b6 f137 c66c 14b7 7832 8635
00000230: 50e8 6537 1154 6637 e270 2438 f139 4637
00000240: 5574 89b7 0855 0bb8 4ff1 b3b6 9793 30b8
00000250: 5652 adb6 a95d 8ab8 db8d 7bb7 0610 7936
00000260: 1858 8db8 a279 f4b8 ad4d 45b8 60c0 7e38
00000270: 598a 8eb7 8222 84b8 b175 0036 4337 d637
00000280: 6830 f4b7 0730 24b8 24d1 3ab8 5c44 ba38
00000290: 5734 8d38 dec7 6138 72e0 34b7 8b19 a8b7
000002a0: b939 6736 7e26 6f38 6f7e d238 148e a637
000002b0: 1130 12b8 fe35 3439 db6d 9238 5618 e038
000002c0: 3bdf 3838 1d07 13b7 e701 bc34 0b36 54b8
000002d0: 3671 20b8 3fd6 d1b7 e2c2 dc37 85b3 e8b7
000002e0: 2761 9238 55ee 8138 b27c 9438 b9fd 1e38
000002f0: f433 0b36 56b2 1fb7 52f4 6b38 c7fa 56b8
00000300: 3416 1ab8 5653 3438 ac5f 30b8 0b76 a0b8
00000310: 3c3f 4238 5b55 90b7 f380 9f38 e1e7 cbb5
00000320: db72 88b7 8cfe 6fb8 4782 1f37 7890 61b8
00000330: c04e 9937 a056 c3b7 a99c a837 d174 41b7
00000340: ddc1 0a38 5f29 1db8 23e2 7d38 df66 91b7
00000350: 35a4 beb8 4719 25b7 71c5 0b38 a399 e436
00000360: cc11 7a38 b362 27b7 f78e 9fb5 b5aa 03b8
00000370: df78 5eb8 97f8 92b6 8c2e de37 f386 0cb7
00000380: 6c34 88b8 a168 97b7 db9b b038 9607 d637
00000390: f94f 4238 3599 c738 9d66 5eb8 a58c aab6
000003a0: 160a b1b8 d45b 8038 18f6 28ba a3d7 1838
000003b0: 359e 94b7 3dc3 50b8 36c7 d0b6 1118 aa38
000003c0: 05e3 ba38 5b42 9c37 143f ba38 fe99 eb37
000003d0: bcfe d037 f8ac e9b6 cb26 e2b7 df8a 8c38
000003e0: 82c5 aa36 e8e0 1bb8 4126 ba38 a2cf bcb8
000003f0: a737 fe37 4cc8 48b8 946b b7b7 bf65 6d38

ff_model.0.bias f4 [150]
0.0008295237 -0.00019509792 0.027849248 -0.014266995 0.013479069 0.014497969 0.024902593 -0.006594438
-0.005205408 0.02339202 0.03063104 -0.00033055022 -0.0042616567 0.008670329 0.03722624 -0.013243222
-0.0083833095 0.015124922 0.009941161 4.588915e-05 0.009322008 -0.010106014 0.013219832 -1.7951552e-05
0.014220903 -0.014038471 -0.0025413746 -0.010682743 0.00015885352 0.031234486 0.021550596 0.027568012
0.0355506 0.021225285 0.007546533 -0.00043853032 0.022559566 -0.0027934092 0.010554333 -0.00023086881
-0.016125537 -0.0067334175 -0.00036508925 -0.012696992 -0.007563406 0.008714668 -0.00047706324 -0.0006516992
0.011255317 0.0046618516 0.031459626 0.022103876 0.024020478 0.00478671 -0.016341873 -0.006270948
0.008761104 -0.00051376503 -0.000245787 -0.0003326952 0.02785081 -0.0015734001 -0.0006773805 0.031094864
0.0046402076 0.0033953968 0.021465896 0.032459315 -0.004086547 0.016946362 -0.00064272684 -5.6769328e-05
0.02861026 0.009077901 0.016623758 -0.015035758 0.004367131 -0.004504302 0.00034801563 0.0016640718
-0.0020140836 0.00059152953 0.035391275 -0.017038666 8.515781e-06 0.0041650366 -0.009640701 0.0027099221
0.007814802 -0.0036943206 0.011890803 0.012437283 0.0005911886 0.03490602 0.014119868 -0.0046680765
0.00060471025 0.017517442 0.024265058 0.018158335 0.009541884 0.000116557705 0.008774437 0.031525735
0.020071559 -0.0039483695 -0.0039237896 0.009011208 0.015103457 0.024804093 0.009523045 -0.0025062077
0.00016637721 0.020976987 0.017789265 0.004730418 0.0031504433 0.0019380241 -0.00022733537 0.016527321
0.02524351 0.0022505356 0.022626521 0.0031510699 0.0026011358 0.033388954 0.007732839 0.007875665
0.020174429 0.014209078 0.011762952 -0.0057603326 -0.005101791 0.030329678 0.015503177 -0.0060119964
-0.015517883 0.0024764505 0.010768059 0.0147097325 -0.010218025 -4.3418277e-05 0.026187375 0.03176344
0.00015130348 -0.0073971525 0.00073276606 -0.0015688287 -0.008150597 0.02292351
00000000: 6574 593a 3393 4cb9 1b24 e43c 1dc0 69bc
00000010: 50d7 5c3c e488 6d3c 8600 cc3c 2816 d8bb
00000020: 2192 aabb 9fa0 bf3c f2ed fa3c b34d adb9
00000030: 5ea5 8bbb ff0d 0e3c 8b7a 183d 19fa 58bc
00000040: 265a 09bc 85ce 773c 40e0 223c 1a79 4038
00000050: 56bb 183c b293 25bc ff97 583c aa96 96b7
00000060: cafe 683c 9d01 66bc 318d 26bb ac06 2fbc
00000070: eb91 2639 77df ff3c e08a b03c 50d6 e13c
00000080: 829d 113d a6e0 ad3c e848 f73b 8bea e5b9
00000090: d7ce b83c a111 37bb 15ec 2c3c 6015 72b9
000000a0: b419 84bc 00a4 dcbb 7369 bfb9 0b07 50bc
000000b0: 73d6 f7bb f8c7 0e3c 581e fab9 cbd6 2aba
000000c0: 3968 383c 72c2 983b cfdb 003d 3013 b53c
000000d0: 98c6 c43c d5d9 9c3b 64df 85bc 867c cdbb
000000e0: bc8a 0f3c 30ae 06ba f9dc 80b9 986d aeb9
000000f0: 6227 e43c 8c3a ceba 3c92 31ba a8ba fe3c
00000100: e20c 983b 4e85 5e3b 3fd9 af3c 0ff4 043d
00000110: 71e8 85bb 19d3 8a3c ab7c 28ba 9a1b 6eb8
00000120: 1060 ea3c 7abb 143c 8c2e 883c 8a58 76bc
00000130: 261a 8f3b d398 93bb de75 b639 fc1c da3a
00000140: b7fe 03bb e010 1b3a 71f6 103d ac94 8bbc
00000150: 00df 0e37 dc7a 883b 08f4 1dbc f398 313b
00000160: a809 003c 6a1c 72bb a5d1 423c bfc5 4b3c
00000170: fff9 1a3a 9df9 0e3d 0557 673c aaf6 98bb
00000180: 6b85 1e3a bd80 8f3c 84c7 c63c cac0 943c
00000190: 9055 1c3c 7170 f438 a8c2 0f3c 2121 013d
000001a0: 1c6d a43c 5361 81bb 2293 80bb bfa3 133c
000001b0: 7d74 773c f431 cb3c 8c06 1c3c 303f 24bb
000001c0: 8b75 2e39 eed7 ab3c cbba 913c 9f01 9b3b
000001d0: ab77 4e3b 4c05 fe3a e060 6eb9 4e64 873c
000001e0: 7acb ce3c b97d 133b 415b b93c 2e82 4e3b
000001f0: d177 2a3b dbc2 083d c163 fd3b ef08 013c
00000200: d844 a53c 31cd 683c 66b9 403c 2cc1 bcbb
00000210: ed2c a7bb f275 f83c 0a01 7e3c 4800 c5bb
00000220: b83e 7ebc f24b 223b 836c 303c 1701 713c
00000230: 8169 27bc 051c 36b8 e886 d63c 621a 023d
00000240: 38a7 1e39 d063 f2bb 1917 403a 28a1 cdba
00000250: 158a 05bc 16ca bb3c

ff_model.3.weight f4 [120, 150]
0.0029487428 -0.0020401538 0.017023455 0.009438672 0.047818765 0.04896635 0.06217683 -0.019805538
-0.0001310726 0.028292254 0.03435333 0.0034807213 0.023878396 0.042944133 0.046255294 -0.031423092
0.04050505 -0.0079935435 -0.03942325 -0.0027758179 0.0025860283 0.046323985 -0.036236554 3.973063e-05
0.058193326 0.045376204 -0.00023536143 -0.015883854 -4.7418394e-05 0.05329474 -0.020310745 0.053398736
0.054013386 0.06588691 0.007430666 0.0013470269 0.0076438193 0.0004473147 0.039579935 -4.58674e-07
0.04804011 0.058420494 -0.000104213235 -0.0113712745 0.0339288 -0.009088011 -0.019920915 -0.0015539795
0.04859671 0.028255215 -0.036620356 0.02085276 -0.020648796 0.0021623296 -0.036881488 -0.010227472
-0.03282456 6.1564356e-06 2.9361083e-06 -8.3920655e-05 -0.0062099383 -0.0077414005 3.014947e-05 0.0056170267
-0.03992903 0.045747735 -0.030834043 -0.0036543023 -0.008084164 0.008000732 -0.003092848 -9.063726e-05
-0.017059581 0.0384817 0.069003105 -0.033393793 0.000812432 0.026375478 -0.00021522092 0.00016767129
-0.008125742 -0.006635092 0.031243693 0.0023054068 4.2133643e-06 0.030237012 -0.045300648 -0.0016686157
-0.033918254 -0.008529985 0.051298875 -0.036091775 0.00011301401 0.01449554 -0.0075124493 -0.0075886995
-0.00028982924 0.046615407 0.038965225 -0.0075864047 -0.022551429 -2.4259898e-05 0.018020121 0.014755927
0.060067832 0.008392578 0.01322646 0.0060392497 0.04732371 0.07007915 0.027880978 0.004013984
1.604577e-05 -0.018561615 0.016510913 -0.018788619 0.0067163063 -0.0064941742 -0.0016123608 0.008778145
-0.0084559005 -0.01525365 0.03033805 -0.00912715 0.0030553623 0.03673351 0.01186683 0.029083233
-0.02852971 -0.012257914 -0.019841459 -0.018422961 7.2853654e-05 -0.032304797 -0.043647468 -0.0073334672
0.025046607 0.02909077 0.01020747 0.022533687 -0.0059152693 0.0043444806 -0.046480086 0.014911658
-0.008349796 -0.0067119766 -0.0004377136 -0.0070098964 0.047063038 0.009668275 0.0010862857 -0.0072505414
-0.0029476765 -0.016676845 0.047351982 0.021558786 -0.013721343 -0.012136111 -0.004431712 0.0036798904
0.006312706 0.0084654465 0.010513907 0.03952104 0.0056821965 -0.00043224517 0.04455817 0.029655505
0.01614224 0.003180031 0.0032300595 -0.02474858 -0.015077373 0.0005733151 -0.0076892236 0.05174105
-0.0072932052 0.0029335779 0.002329437 0.039972443 -0.03995224 0.046946123 0.007089849 0.040581524
-0.0070629674 2.6378555e-05 -0.0012129475 0.026308253 -0.009927366 9.452205e-06 -0.010875645 0.01517975
7.205371e-05 -0.0036877014 0.012099211 0.0067796814 0.04281273 0.013665313 0.034133215 0.0056756223
0.057934076 0.012900729 0.029887646 0.048323732 0.04876379 0.02483571 -0.006097422 0.00063861866
-3.0010498e-05 0.00011338193 0.021243753 -0.0011622923 -4.1157757e-05 0.0015147007 0.03359234 0.05770279
0.006957067 -0.019633325 0.03231044 0.028366867 -0.00020566906 0.00056107686 0.051559117 0.01256849
-0.0074146735 -0.00726293 -0.0004480639 0.052399345 -0.0065371087 -0.0046532433 -0.0010222574 -0.004413279
0.045915287 -0.003916348 3.0160289e-05 0.06236864 -0.039585263 -0.0023832915 0.05595043 0.018629475
0.0005803961 0.025871586 -0.0074532544 0.016146246 0.020591399 0.0011275159 -4.814954e-05 0.018629642
0.012358868 -0.024379108 0.015328674 -0.0037905006 0.027547026 0.049138032 -0.030219978 0.025667632
00000000: b23f 413b 1ab4 05bb c674 8b3c a9a4 1a3c
00000010: 9cdd 433d f090 483d 22ad 7e3d 393f a2bc
00000020: 8870 09b9 28c5 e73c 14b6 0c3d d01c 643b
00000030: a09c c33c 30e6 2f3d 3176 3d3d 80b5 00bd
00000040: a0e8 253d 5af7 02bc 467a 21bd 7fea 35bb
00000050: 5b7a 293b 38be 3d3d c86c 14bd 70a4 2638
00000060: 205c 6e3d 66dc 393d 5acb 76b9 db1e 82bc
00000070: 1de3 46b8 964b 5a3d b862 a6bc a2b8 5a3d
00000080: 243d 5d3d b7ef 863d f27c f33b b98e b03a
00000090: 0179 fa3b 9085 ea39 921e 223d ad3f f6b4
000000a0: b5c5 443d 544a 6f3d 0e8d dab8 954e 3abc
000000b0: edf8 0a3d e2e5 14bc 3031 a3bc e6ae cbba
000000c0: 580d 473d 7b77 e73c 3aff 15bd 68d3 aa3c
000000d0: aa27 a9bc dfb5 0d3b 0b11 17bd 2091 27bc
000000e0: 0c73 06bd 6193 ce36 f509 4536 8ffe afb8
000000f0: bd7c cbbb 93ab fdbb 7ee9 fc37 090f b83b
00000100: 9f8c 23bd fa61 3b3d ad97 fcbc 057d 6fbb
00000110: 7173 04bc 8115 033c 61b1 4abb 8214 beb8
00000120: 89c0 8bbc fd9e 1d3d 8051 8d3d eec7 08bd
00000130: 63f9 543a 6311 d83c edac 61b9 ebd0 2f39
00000140: d521 05bc 306b d9bb c6f2 ff3c 4f16 173b
00000150: 8660 8d36 9cb3 f73c 2c8d 39bd 74b5 daba
00000160: deed 0abd 5ac1 0bbc c51e 523d f8d4 13bd
00000170: ef01 ed38 b47e 6d3c fe2a f6bb a0aa f8bb
00000180: 39f4 97b9 ccef 3e3d 009a 1f3d 6097 f8bb
00000190: c6bd b8bc bc81 cbb7 ef9e 933c d8c2 713c
000001a0: b009 763d 0681 093c cbb3 583c e6e4 c53b
000001b0: 82d6 413d a885 8f3d a666 e43c bd87 833b
000001c0: 079a 8637 870e 98bc e541 873c 97ea 99bc
000001d0: 7614 dc3b 15cd d4bb da55 d3ba 35d2 0f3c
000001e0: 9e8a 0abc 72ea 79bc 8187 f83c 0b8a 15bc
000001f0: 793c 483b e175 163d 186d 423c f63f ee3c
00000200: 23b7 e9bc 6bd5 48bc 8e8a a2bc c0eb 96bc
00000210: 02c9 9838 0952 04bd b0c7 32bd 954d f0bb
00000220: 8b2e cd3c c44f ee3c 3b3d 273c 9198 b83c
00000230: e0d4 c1bb 255c 8e3b e761 3ebd 0750 743c
00000240: 95cd 08bc 24f0 dbbb ed7c e5b9 46b3 e5bb
00000250: 2cc5 403d af67 1e3c b361 8e3a f395 edbb
00000260: ce2d 41bb e19d 88bc 27f4 413d 0d9c b03c
00000270: 7ccf 60bc 8ad6 46bc e537 91bb 512a 713b
00000280: d1da ce3b a8b2 0a3c 8642 2c3c d0e0 213d
00000290: b831 ba3b f79e e2b9 a182 363d 1af0 f23c
000002a0: bb3c 843c 1168 503b 68af 533b 89bd cabc
000002b0: 1607 77bc 864a 163a e2f5 fbbb 6cee 533d
000002c0: d7fb eebb 4541 403b 78a9 183b 25ba 233d
000002d0: f6a4 23bd 944a 403d f751 e83b d038 263d
000002e0: 7770 e7bb 8447 dd37 c4fb 9eba 6884 d73c
000002f0: 64a6 22bc e994 1e37 c32f 32bc 7cb4 783c
00000300: 8a1b 9738 5dad 71bb c53b 463c 1728 de3b
00000310: 675c 2f3d 7ae4 5f3c 45cf 0b3d 92fa b93b
00000320: 484c 6d3d 945d 533c f0d6 f43c 1bef 453d
00000330: 8abc 473d 4274 cb3c e2cc c7bb f968 273a
00000340: 0ebf fbb7 76c7 ed38 6107 ae3c 0f58 98ba
00000350: cea0 2cb8 ec88 c63a 1f98 093d c359 6c3d
00000360: 1cf8 e33b 11d6 a0bc f457 043d a261 e83c
00000370: dea8 57b9 3b15 133a a72f 533d 11ec 4d3c
00000380: caf6 f2bb dffd edbb 1eea eab9 b2a0 563d
00000390: 3e35 d6bb 3c7a 98bb 44fd 85ba 449d 90bb
000003a0: ab11 3c3d b554 80bb ba00 fd37 4276 7f3d
000003b0: 2824 22bd ff30 1cbb 472c 653d d79c 983c
000003c0: b925 183a a6f0 d33c 6e3a f4bb 2245 843c
000003d0: 4baf a83c 28c9 933a 2df4 49b8 319d 983c
000003e0: d97c 4a3c b2b6 c7bc 1e25 7b3c 0c6a 78bb
000003f0: 4daa e13c f644 493d e38f f7bc ed44 d23c

ff_model.3.bias f4 [120]
0.08959523 0.019150008 -0.0066711274 0.06816209 -0.0021950006 -0.031064793 -0.03713397 0.038439196
-0.019098623 0.0142095685 -0.001671112 0.022323884 0.029963564 -0.019990787 -0.07182796 -0.029673178
0.0075406907 0.06613841 -0.025895173 -0.020397225 -0.03138088 0.0029204316 -0.042006116 0.055740334
0.029777436 0.009583994 0.030580495 8.854539e-05 0.057350043 0.0035141315 0.049650703 0.06405506
0.049814396 0.026692532 0.02876615 -0.02505438 0.056682274 -0.016186422 0.06505616 0.015393304
0.074529365 -0.0137859825 0.037140902 0.017236508 0.041979216 0.056155346 -0.00582146 0.08716098
-0.02449083 -0.019074237 -0.023146892 0.02595953 -0.018507147 -0.0001255907 0.022062317 -0.00045858938
-0.032446332 0.027851967 0.019862777 0.057006765 0.04932931 0.044035222 0.024026949 0.04731867
0.02077438 0.04745587 0.05422247 0.026117131 0.01488843 0.03153681 0.036891297 -0.024809014
0.022495892 0.0698316 0.026773464 -0.026324568 0.0068800705 -0.038245376 0.067527436 -0.03658791
0.05510511 0.0036405516 -0.010210047 0.025300687 -0.018448532 0.0047396724 -0.01148 0.070425265
0.009772206 0.037538912 -0.013564629 -0.050908096 -0.03593004 0.028419252 -0.026841786 0.01789678
0.009015802 0.047306426 -0.017449599 -0.014875182 0.009557519 -0.014863618 0.02542413 -0.04649945
0.048422247 -0.028501047 -0.038003054 -0.012680965 0.042227507 -0.0040918975 0.06162195 0.0075268927
0.044555593 -0.01756115 0.050736394 -0.027150016 0.030057043 -0.028595116 -0.05239615 0.03589307
00000000: b47d b73d 7ae0 9c3c 7999 dabb 9198 8b3d
00000010: 00da 0fbb 987b febc ca19 18bd 6b72 1d3d
00000020: b774 9cbc 40cf 683c 3709 dbba 94e0 b63c
00000030: 2676 f53c b8c3 a3bc 8a1a 93bd 2a15 f3bc
00000040: e617 f73b 9373 873d 1d22 d4bc 1518 a7bc
00000050: 3d89 00bd b664 3f3b 9b0e 2cbd fa4f 643d
00000060: cfef f33c 2f06 1d3c f283 fa3c 72b1 b938
00000070: e1e7 6a3d 584d 663b 895e 4b3d 4d2f 833d
00000080: 2e0a 4c3d 4caa da3c fda6 eb3c d83e cdbc
00000090: ac2b 683d 6399 84bc 2a3c 853d 3234 7c3c
000000a0: daa2 983d 9ade 61bc 0f21 183d 9433 8d3c
000000b0: 66f2 2b3d 2603 663d f2c1 bebb 7581 b23d
000000c0: fea0 c8bc 9341 9cbc 8d9e bdbc 15a9 d43c
000000d0: 4d9c 97bc ffb0 03b9 08bc b43c d36e f0b9
000000e0: 72e6 04bd cf29 e43c 43b7 a23c ed7f 693d
000000f0: 880d 4a3d 475e 343d 2ad4 c43c 39d1 413d
00000100: 082f aa3c 1661 423d 6118 5e3d 98f3 d53c
00000110: 9aee 733c be2c 013d 541b 173d 463c cbbc
00000120: 4e49 b83c df03 8f3d 0654 db3c 9fa6 d7bc
00000130: 3772 e13b 2fa7 1cbd d34b 8a3d 34dd 15bd
00000140: e5b5 613d 5296 6e3b 0a48 27bc 6343 cf3c
00000150: 6021 97bc 414f 9b3b 9c16 3cbc 1f3b 903d
00000160: 9a1b 203c 67c2 193d 2d3e 5ebc 0285 50bd
00000170: 612b 13bd 7ecf e83c 4ee3 dbbc 459c 923c
00000180: 04b7 133c 62c4 413d 76f2 8ebc 09b7 73bc
00000190: 2497 1c3c 8886 73bc 4446 d03c 3576 3ebd
000001a0: 6856 463d 077b e9bc 17a9 1bbd d2c3 4fbc
000001b0: c0f6 2c3d 5315 86bb 4c67 7c3d 27a4 f63b
000001c0: ed7f 363d 67dc 8fbc f7d0 4f3d b669 debc
000001d0: 303a f63c 4e40 eabc 589d 56bd 9d04 133d

ff_model.6.weight f4 [45, 120]
0.064980075 0.005353117 -0.00024875262 0.058384355 0.06431729 0.070033014 0.010576653 -0.006237432
-0.030151397 0.020332718 0.024802946 0.024128107 0.025809132 0.021902446 0.0057425206 0.021485828
0.0027789448 -0.00855387 0.047969017 0.0764692 0.06618092 0.0037290237 0.014909034 0.08706201
0.062675916 0.0062159016 0.0031293174 -0.0021143886 -0.028283605 0.0015519407 -0.020614155 0.07615981
0.06640628 0.033165224 0.04203903 0.04048484 0.050764244 0.023361439 0.06264471 0.054374203
0.014222358 0.016150119 0.040364042 -0.0116220405 0.037872136 0.050340075 0.06000358 0.06836874
0.0021987336 -0.016945917 0.06903558 -0.00444709 0.030756855 0.005115724 -0.011785824 0.024806185
0.027598023 0.07841958 0.07158287 0.06359274 0.043344937 -0.017739074 0.051294994 0.014501972
0.027709188 0.0048525995 0.04481922 0.06693272 0.05354178 -0.014279731 0.021907793 0.0365948
0.004757864 0.05742521 0.04461663 0.0032296546 0.024773449 0.0014711535 0.009020191 0.0268515
0.08006534 0.049662896 -0.0020087038 0.020559303 -0.005731637 0.0038959421 0.03692465 -0.023923963
-0.012272444 -0.040276088 -0.037720624 0.05593622 0.053344127 0.048857488 0.020107374 0.047389783
-0.010848172 0.07610372 -0.04213485 0.022851465 -0.023848837 -0.0014589953 -0.015886674 0.07626848
-0.0028917657 -0.01228955 -0.015313991 0.06815698 0.07609589 0.0076994947 -0.03817002 0.00395886
-0.010410447 0.034475088 0.03125039 0.00785614 0.010935352 0.06014079 -0.015638921 0.04732661
0.024464002 0.07259254 -0.015445951 0.086857274 0.02439605 -0.011366421 0.005305214 -0.014045761
0.040860724 -0.006243312 -0.010667784 -0.020302875 0.005881125 0.026756478 0.004268562 0.021398649
0.042203646 -0.008563273 0.017774628 -0.014884357 0.07124101 0.015693197 0.032141343 0.09096486
-0.015813336 0.028921565 0.035244465 0.014178861 -0.023961365 0.0043043583 0.05164449 0.07002835
-0.039867923 0.06114415 0.0749591 0.06876035 0.063633986 0.0084315995 0.054865804 -0.0016142777
-0.026282676 -0.007185616 -0.01204976 0.052235857 0.07029411 0.0031438356 0.025141725 0.020335317
-0.0013680982 0.009499969 -0.014737122 -0.013173679 -0.016774558 -0.009019179 0.058381245 -0.01593194
-0.0245686 0.008043736 0.07731505 -0.003461899 0.036105156 -0.013050445 -0.026152655 -0.025422832
0.030465124 0.030843504 -0.033196673 0.020768303 0.05650416 -0.02520926 0.023649985 0.053588472
0.029250184 0.0010903917 0.06816423 -0.0033359546 0.04472923 0.00095967785 0.005850985 -0.0032221375
0.09241527 0.00033341485 0.03818664 -0.018929852 0.0070170346 0.021782823 0.07215209 0.019045627
0.0046675024 0.07376172 0.07725703 0.064300805 0.06968296 0.073796384 0.04361337 0.022996513
0.07832075 0.0634454 0.017272634 0.047559958 0.039618474 0.0013913498 -0.03889589 0.024965402
0.05432076 -0.01735867 0.062056646 -0.0012427955 0.010849058 0.022030745 -0.022778418 0.0024419848
0.022792712 0.04132721 0.0076600467 0.047305673 0.008030943 -0.046813153 0.056885142 0.040798947
0.0021898355 -0.012392881 -0.03697523 0.084290795 0.055054285 0.0324566 0.0027987084 0.047953222
-0.002558236 0.04680211 -0.018655995 -0.026577488 -0.008349766 0.05095706 0.006872765 0.061309595
00000000: 4614 853d 3369 af3b 036b 82b9 6f24 6f3d
00000010: c9b8 833d 786d 8f3d b349 2d3c 5f63 ccbb
00000020: 1000 f7bc cd90 a63c 8c2f cb3c 4fa8 c53c
00000030: ac6d d33c c26c b33c c12b bc3b 0c03 b03c
00000040: f51e 363b 8825 0cbc 297b 443d e29b 9c3d
00000050: dd89 873d a362 743b 0545 743c 914d b23d
00000060: 3b5c 803d c3ae cb3b 3c15 4d3b 8e91 0abb
00000070: 05b3 e7bc 7d6a cb3a 04df a8bc adf9 9b3d
00000080: 0400 883d 42d8 073d 1e31 2c3d 6ed3 253d
00000090: 2bee 4f3d 7d60 bf3c df4b 803d 7cb7 5e3d
000000a0: e504 693c 414d 843c c454 253d 5f6a 3ebc
000000b0: d01f 1b3d 6531 4e3d 50c6 753d e904 8c3d
000000c0: a118 103b 2ad2 8abc 8762 8d3d e5b8 91bb
000000d0: cdf5 fb3c cea1 a73b 5419 41bc 5736 cb3c
000000e0: 4015 e23c 729a a03d 0a9a 923d e93c 823d
000000f0: 768a 313d 8951 91bc b31a 523d ae99 6d3c
00000100: 61fe e23c 8e02 9f3b 5c94 373d 0614 893d
00000110: a04e 5b3d 88f5 69bc f977 b33c 6ee4 153d
00000120: dbe7 9b3b b236 6b3d edbf 363d 9da8 533b
00000130: b0f1 ca3c b8d3 c03a 6cc9 133c adf7 db3c
00000140: 4cf9 a33d 526b 4b3d 75a4 03bb fc6b a83c
00000150: 75d0 bbbb 1053 7f3b 4d3e 173d 30fc c3bc
00000160: 5c12 49bc 8af8 24bd f180 1abd 611d 653d
00000170: 5f7f 5a3d ca1e 483d 38b8 a43c ca1b 423d
00000180: 88bc 31bc 44dc 9b3d 9895 2cbd ff32 bb3c
00000190: a35e c3bc c23b bfba c524 82bc a632 9c3d
000001a0: c783 3dbb 1c5a 49bc 89e7 7abc e395 8b3d
000001b0: 29d8 9b3d 0b4c fc3b 2b58 1cbd 53b9 813b
000001c0: 9490 2abc c035 0d3d 6900 003d 0ab7 003c
000001d0: 312a 333c 3056 763d 321d 80bc 8cd9 413d
000001e0: bb68 c83c 66ab 943d 0411 7dbc 3ae2 b13d
000001f0: 3ada c73c 3a3a 3abc 5cd7 ad3b 3120 66bc
00000200: 935d 273d b294 ccbb eec7 2ebc 3752 a6bc
00000210: 74b6 c03b 6730 db3c 4bdf 8b3b 384c af3c
00000220: bbdd 2c3d f84c 0cbc 199c 913c 85dd 73bc
00000230: cfe6 913d 058f 803c a4a6 033d c94b ba3d
00000240: f88a 81bc ebec ec3c 805c 103d 744e 683c
00000250: a04a c4bc 930b 8d3b 2c89 533d 066b 8f3d
00000260: 8c4c 23bd 4a72 7a3d 2884 993d 3ad2 8c3d
00000270: 8952 823d b124 0a3c f7ba 603d 2c96 d3ba
00000280: c44e d7bc 5175 ebbb 5b6c 45bc 44f5 553d
00000290: 5cf6 8f3d cf08 4e3b 05f6 cd3c 4096 a63c
000002a0: c251 b3ba c2a5 1b3c f873 71bc 6ad6 57bc
000002b0: cc6a 89bc 2ec5 13bc 2c21 6f3d b383 82bc
000002c0: 1744 c9bc e0c9 033c 5a57 9e3d 07e1 62bb
000002d0: 00e3 133d 89d1 55bc 183e d6bc 8b43 d0bc
000002e0: ff91 f93c 84ab fc3c 3cf9 07bd 4a22 aa3c
000002f0: e870 673d a683 cebc 9dbd c13c 967f 5b3d
00000300: 159e ef3c 79eb 8e3a b099 8b3d 08a0 5abb
00000310: ff35 373d e492 7b3a 9fb9 bf3b 7f2a 53bb
00000320: 3844 bd3d 2fce ae39 9869 1c3d c712 9bbc
00000330: 27ef e53b e471 b23c 7ac4 933d 9305 9c3c
00000340: d9f1 983b 6210 973d ef38 9e3d 24b0 833d
00000350: f1b5 8e3d 8f22 973d efa3 323d 2f63 bc3c
00000360: a166 a03d a9ef 813d 577f 8d3c 3bce 423d
00000370: fb46 223d f45d b63a 4c51 1fbd 3e84 cc3c
00000380: 727f 5e3d c533 8ebc 1c2f 7e3d 4ce5 a2ba
00000390: 3fc0 313c d279 b43c ce99 babc b509 203b
000003a0: c8b7 ba3c b846 293d 2101 fb3b 98c3 413d
000003b0: 3794 033c 26bf 3fbd 6500 693d cc1c 273d
000003c0: 5883 0f3b 830b 4bbc 5773 17bd a7a0 ac3d
000003d0: 9a80 613d 36f1 043d 896a 373b 996a 443d
000003e0: 14a8 27bb 92b3 3f3d 75d4 98bc 08b9 d9bc
000003f0: 75cd 08bc 5ab8 503d ee34 e13b c51f 7b3d

ff_model.6.bias f4 [45]
0.10516884 -0.03416578 -0.05354749 0.005915882 0.10956121 0.072950535 0.054343916 0.044417873
0.057799652 0.05291364 0.002823006 0.09589519 0.086121984 0.061323933 -0.066437975 -0.080255054
0.050579287 -0.002517574 0.038734496 -0.03644963 -0.08639323 0.10763573 0.05869191 -0.07363546
0.019179711 -0.021076506 0.05969063 0.014507907 -0.024377676 -0.025990143 0.008949784 -0.024978535
-0.08680697 -0.02249746 0.11446275 0.07224096 0.024844354 0.055324182 0.0031049983 -0.05246744
0.093885064 0.009917635 0.025377402 0.040920503 0.03654288
00000000: c362 d73d 6bf1 0bbd 9d54 5bbd 04da c13b
00000010: a161 e03d 1767 953d ba97 5e3d 84ef 353d
00000020: 54bf 6c3d f9bb 583d 2e02 393b b364 c43d
00000030: b960 b03d ce2e 7b3d a210 88bd c35c a4bd
00000040: 3a2c 4f3d e2fd 24bb 10a8 1e3d 354c 15bd
00000050: efee b0bd 1f70 dc3d ee66 703d 30ce 96bd
00000060: c51e 9d3c a3a8 acbc 297e 743d 93b2 6d3c
00000070: b1b3 c7bc 48e9 d4bc 1da2 123c c99f ccbc
00000080: dac7 b1bd 984c b8bc 726b ea3d 12f3 933d
00000090: 6386 cb3c 9c9b 623d 3a7d 4b3b 19e8 56bd
000000a0: d046 c03d 937d 223c 45e4 cf3c 429c 273d
000000b0: fdad 153d

ff_model.9.weight f4 [2, 45]
-0.016988043 0.071623445 0.057578202 0.12847373 0.14876549 0.051966947 0.0005364402 0.14850348
-0.1013917 -0.08000213 0.156642 0.047215383 0.14918199 0.004607365 -0.09793939 -0.0020122437
0.0038417869 0.06886554 0.09634027 0.12515005 -0.04748551 0.011814885 -0.011175714 0.06269281
-0.112835325 -0.034693677 0.15264921 0.14329654 -0.08346142 -0.016269026 0.1711737 -0.0830876
-0.035834227 0.12869574 0.087289035 0.13937841 0.045323595 -0.002790247 0.13502958 0.009959283
0.095209315 -0.11126659 0.17399895 -0.073328085 0.0047571273 -0.10954527 -0.044251133 -0.12055091
-0.10411256 0.048604105 -0.075940974 0.053814456 -0.06260955 0.03835611 0.10158521 0.077020876
-0.10738057 0.08539098 -0.08442824 -0.009415983 0.09176169 -0.086595766 -0.05409546 -0.031912155
-0.07855978 0.06688881 -0.11471759 -0.04934497 0.106512815 0.007197343 -0.053044308 0.06821286
-0.12028173 -0.008461931 -0.046287745 0.06583036 -0.07575293 0.05184931 -0.02885329 0.0003161058
0.005706618 -0.034539778 -0.010673605 -0.006200654 -0.16788034 -0.012093643 -0.0993631 0.056677334
-0.08651671 -0.12056223
00000000: 822a 8bbc 50af 923d 1fd7 6b3d 9e8e 033e
00000010: fb55 183e 4bdb 543d e49f 0c3a 4c11 183e
00000020: 74a6 cfbd 28d8 a3bd c366 203e eb64 413d
00000030: 2ac3 183e 61f9 963b 7294 c8bd d9df 03bb
00000040: 7dc6 7b3b 6009 8d3d 0c4e c53d 5627 003e
00000050: 2b80 42bd 3893 413c 581a 37bc 1765 803d
00000060: 3516 e7bd f51a 0ebd 1350 1c3e 54bc 123e
00000070: d2ed aabd 9f46 85bc 2948 2f3e d529 aabd
00000080: e9c6 12bd d1c8 033e 98c4 b23d 37b9 0e3e
00000090: 3ca5 393d 94dc 36bb 3245 0a3e 432c 233c
000000a0: 1afd c23d bddf e3bd c82c 323e 092d 96bd
000000b0: ade1 9b3b 4559 e0bd ad40 35bd 65e3 f6bd
000000c0: f738 d5bd 1915 473d f186 9bbd 8c6c 5c3d
000000d0: 7039 80bd 4c1b 1d3d e80b d03d 1fbd 9d3d
000000e0: 58ea dbbd 77e1 ae3d b7e8 acbd 7f45 1abc
000000f0: 8eed bb3d 1f59 b1bd 3393 5dbd 52b6 02bd
00000100: f3e3 a0bd 00fd 883d 0ef1 eabd f41d 4abd
00000110: 6423 da3d b0d7 eb3b fd44 59bd 2fb3 8b3d
00000120: 4556 f6bd e9a3 0abc 3898 3dbd 11d2 863d
00000130: 5a24 9bbd f15f 543d bc5d ecbc 01bb a539
00000140: 95fe ba3b 9579 0dbd 58e0 2ebc db2e cbbb
00000150: d3e8 2bbe 6a24 46bc e27e cbbd 7e26 683d
00000160: ac2f b1bd 55e9 f6bd

ff_model.9.bias f4 [2]
-0.07744104 -0.1000191
00000000: 6899 9ebd d0d6 ccbd
