Version12_7/BP3/bp3/BP3Models/BP3C50IDFFNN/Fold5.pt (torch, 865935 bytes, 8 tensors)

ff_model.0.weight f4 [150, 1280]
0	0xbb4a3754	-0.0030855732
1	0x3bab66ba	0.005230752
2	0xbc595cbb	-0.013266738
3	0x38f543e3	0.00011695155
4	0x3a8f2707	0.0010921665
5	0xbc11404a	-0.008865425
6	0xbb239955	-0.002496322
7	0xbc47cde3	-0.012195083
8	0x3c645326	0.01393584
9	0xbb59d950	-0.00332411
10	0x3bfd4d44	0.007730158
11	0x3b028b23	0.0019919358
12	0xbb6cc7ce	-0.0036129835
13	0x3b282462	0.0025656451
14	0x3a948aa2	0.001133282
15	0x3ab054ee	0.0013453045
16	0xb991ca0c	-0.00027807092
17	0xbc489fff	-0.012245177
18	0xbbfe0bf0	-0.007752888
19	0xbba3f920	-0.0050040632
20	0x3c39454a	0.011308024
21	0x3b0086ff	0.0019611714
22	0x3b5c30ad	0.003359835
23	0xbc1b84bf	-0.009492098
24	0xbbd3504b	-0.0064487807
25	0x3c587808	0.013212211
26	0xbbc78a10	-0.0060894564
27	0x3c1cc8a3	0.00956932
28	0xb8896f2d	-6.553377e-05
29	0xbb77373a	-0.0037722127
30	0x3bbeb67c	0.0058200937
31	0xbbe53413	-0.006994733
32	0x3c0ef406	0.008725172
33	0x3c178772	0.009248601
34	0x3bd1e406	0.0064053563
35	0xbbc814f5	-0.006106014
36	0x3ca2a2ff	0.019853113
37	0xbc0e6c51	-0.008692817
38	0x3aff2c56	0.0019468169
39	0xbab8bb7c	-0.0014093961
40	0xb8ef80ec	-0.00011420422
41	0x3c07fcc2	0.008300008
42	0x3c2f1e5d	0.0106883915
43	0x3c3bfdc4	0.011474077
44	0x3a8c8003	0.0010719303
45	0xbb21dc0e	-0.0024697813
46	0x3c126689	0.008935579
47	0xbad2a155	-0.0016069809
48	0xbc57f740	-0.013181508
49	0xbbdea7a9	-0.006794889
50	0x3bbcc4e8	0.0057607777
51	0xbb224b7b	-0.0024764228
52	0x3a98acb6	0.0011648152
53	0x3b123439	0.002230896
54	0xbbaa1fd6	-0.0051917834
55	0xbb5565e1	-0.0032561945
56	0xbbef2844	-0.007298501
57	0xbc20e1dc	-0.009819474
58	0x3b49cff2	0.003079411
59	0xbbbff8b0	-0.0058585033
60	0xbbb577c5	-0.0055379593
61	0x3c0c1c33	0.008551645
62	0xbbb72115	-0.0055886605
63	0x3bb3a085	0.005481782
64	0x3b32f707	0.0027307884
65	0x3b3b04e5	0.0028536853
66	0xbb91cde9	-0.004449595
67	0x3b90243c	0.0043988507
68	0x3c1e78bf	0.009672343
69	0x3a87b108	0.0010352442
70	0xbc25fafe	-0.010130642
71	0xbb3abe38	-0.0028494727
72	0xba8442b4	-0.001009068
73	0x3bcca0fb	0.0062447763
74	0xbb6b9d21	-0.003595181
75	0x3c965a3a	0.01835357
76	0xb865ad93	-5.475951e-05
77	0x3b4bba8e	0.0031086537
78	0xbbbca14b	-0.0057565323
79	0x3bc468d8	0.0059939437
80	0xbc1a9617	-0.009435198
81	0xbc0321a0	-0.008003622
82	0xbc2b9ac6	-0.010473913
83	0x3c32f465	0.010922526
84	0x3b7c5da1	0.0038507956
85	0x3b5626d9	0.0032676964
86	0x3bdff078	0.006834086
87	0x39e9bd15	0.000445821
88	0x3bd8c791	0.006615587
89	0x3bdf87e2	0.0068216184
90	0x3bc5b607	0.0060336622
91	0xb9d3e5cb	-0.00040416265
92	0x3b0076ce	0.0019602063
93	0xbbf03c2e	-0.0073313927
94	0xbc27e4a6	-0.010247385
95	0xbba7c2be	-0.0051196506
96	0xbc30936c	-0.010777336
97	0x3b475497	0.003041541
98	0x3aa8dd15	0.001288327
99	0xbb8efd01	-0.0043636565
100	0xbad1e883	-0.0016014728
101	0x3c002df8	0.00782346
102	0xbbf3554e	-0.0074259406
103	0x3c2afba0	0.010435969
104	0x3afbf6f6	0.001922338
105	0xbc276957	-0.010217986
106	0xbb5c765f	-0.003363989
107	0xbb2d4463	-0.0026438467
108	0xbb32eddb	-0.0027302417
109	0x3b65f0e3	0.0035086207
110	0x3a59d069	0.00083089486
111	0xbbff40a8	-0.00778969
112	0xbb2cdffe	-0.0026378627
113	0x3bb065d5	0.005383233
114	0x3accd7c7	0.0015628272
115	0x3b5cad48	0.003367262
116	0xbb8aa6e7	-0.004231322
117	0xbb7c35d9	-0.0038484244
118	0xbb2b7982	-0.0026164954
119	0x3a1350ec	0.0005619663
120	0xbb50967c	-0.0031827977
121	0x3a4f59e1	0.00079098163
122	0xbb9dd746	-0.0048169224
123	0xb97b7afb	-0.00023983039
124	0x3c1f189a	0.009710455
125	0x3c15db96	0.009146592
126	0xbbe264f2	-0.0069090063
127	0x3b8d684f	0.004315413
128	0xbacba287	-0.0015536108
129	0xbba25fcd	-0.004955268
130	0xbae9874d	-0.0017816812
131	0x3c19b5e5	0.009381746
132	0xbb6da4bf	-0.0036261526
133	0x3bd46bf3	0.006482595
134	0x399bbb34	0.0002970338
135	0xbc12f0c1	-0.008968533
136	0xbbe1abef	-0.006886951
137	0xbbc312ce	-0.0059531694
138	0x3c86e088	0.016464487
139	0xbadd017c	-0.0016861404
140	0xbb8e456f	-0.004341773
141	0xbc6a1513	-0.014287251
142	0xbb434a5b	-0.0029798958
143	0xbaf08600	-0.0018350482
144	0xbc0f68ac	-0.008752983
145	0x3c568131	0.013092325
146	0xbb04147c	-0.0020153811
147	0x3bf6e28f	0.007534332
148	0xb945e18a	-0.00018871404
149	0xbaca1593	-0.0015417807
150	0x3b553a2c	0.0032535894
151	0xbbb2c894	-0.0054560397
152	0x3be955f3	0.0071208416
153	0x3bc25c43	0.0059314086
154	0x3a193692	0.00058446184
155	0xbbb2a071	-0.005451255
156	0x3c3dd066	0.011585331
157	0xbbb3fb64	-0.0054926146
158	0x3ba61ac4	0.0050691087
159	0x3c243218	0.010021709
160	0xbc0cdbca	-0.008597324
161	0x3b00b41c	0.0019638604
162	0x3c184136	0.009292891
163	0x3b93e98f	0.0045139263
164	0xba4e1edc	-0.0007862875
165	0x3b3fc74a	0.0029263073
166	0x3bec46ad	0.0072105736
167	0xbb2630d0	-0.0025358684
168	0x3ca15f40	0.019698739
169	0xb97cdabb	-0.00024114076
170	0x3acf08ab	0.001579543
171	0x3acc5887	0.0015590348
172	0xb99bf8d5	-0.00029749298
173	0x3ab2fbde	0.0013655385
174	0x3b0815d3	0.0020764961
175	0x3b5b1f8f	0.0033435558
176	0x3aa243cf	0.0012379828
177	0xbb33a24c	-0.002740997
178	0x3c06b6d4	0.008222301
179	0xbadf3978	-0.0017030677
180	0x3c001368	0.007817127
181	0xb9c265c2	-0.0003707838
182	0xbb8ecc49	-0.004357849
183	0x3ad8f81d	0.0016553436
184	0xbb77e240	-0.0037824064
185	0x3c291699	0.010320329
186	0xbb687635	-0.0035470848
187	0xbb7ab60b	-0.0038255479
188	0xbbbb2d34	-0.0057121757
189	0xbad3e48b	-0.0016166134
190	0x3b40a229	0.002939353
191	0x3c5c655c	0.0134519
192	0x3bd23380	0.0064148307
193	0xbba5d366	-0.005060601
194	0xb9b03121	-0.0003360594
195	0xbb1a445a	-0.0023539276
196	0x3c2600f2	0.010132061
197	0xbb383392	-0.002810691
198	0xbb6010d2	-0.0034189713
199	0xbb93541d	-0.004496111
200	0x3beac62e	0.007164738
201	0x3abed34d	0.0014558822
202	0x3a1435aa	0.00056537485
203	0x3b4d7bb6	0.0031354255
204	0xbb083b75	-0.0020787392
205	0x3b152a79	0.0022760911
206	0x3bfad581	0.007654846
207	0x3b5b4236	0.0033456213
208	0xbb24bf18	-0.0025138315
209	0xbb5eb8ab	-0.0033984582
210	0xbc015864	-0.007894609
211	0x3c008a75	0.007845511
212	0xbb56f5a3	-0.003280022
213	0x3bae6a7c	0.0053227525
214	0x3bb89e76	0.0056341244
215	0x3b71e3b5	0.0036909406
216	0x3bc64025	0.006050127
217	0x3b98c848	0.0046625473
218	0x3b4a34bf	0.0030854193
219	0x3b62dd5a	0.00346168
220	0x3916d1ec	0.00014383317
221	0x391c5a6b	0.00014911003
222	0xb8cff83e	-9.916768e-05
223	0xbb7fee9b	-0.0039052132
224	0xbbde0b91	-0.006776281
225	0xbb0c0815	-0.0021367122
226	0xbc8200c4	-0.015869506
227	0xba6451b2	-0.00087096833
228	0xbc5d561b	-0.013509299
229	0x3bfee110	0.0077782944
230	0x3b1e37e5	0.0024142202
231	0x3bfcad1d	0.0077110664
232	0xba7e9442	-0.0009711423
233	0xbc72c10d	-0.014816535
234	0x3c440b78	0.011965625
235	0x3b8d9bee	0.004321567
236	0x3c9c4641	0.019076468
237	0x3c57c82b	0.013170282
238	0xbbdbb4d3	-0.0067049055
239	0xbbb5dfc5	-0.005550357
240	0xbbdb209a	-0.006687236
241	0xbbc1bbf1	-0.005912297
242	0x3be19f0a	0.006885414
243	0x3bca9de3	0.0061833723
244	0x3ab60dae	0.0013889575
245	0x3be584fa	0.0070043774
246	0xbbf16305	-0.0073665404
247	0x3bba9177	0.0056936103
248	0xba4a4052	-0.0007715273
249	0x3c438466	0.011933422
250	0x3be73948	0.007056389
251	0x3b75cd1d	0.003750629
252	0xbc4d0476	-0.012513271
253	0x3bd1429d	0.0063861148
254	0x3ba87cdb	0.005141837
255	0xbbc92432	-0.006138348

ff_model.0.bias f4 [150]
0	0x3ce31753	0.027721083
1	0x3d17077d	0.036872376
2	0x3a7e145a	0.00096923637
3	0x3d05debf	0.03268313
4	0xbc03639c	-0.008019354
5	0x3b3c7ffe	0.0028762813
6	0x3c778545	0.0151074575
7	0xbc70336b	-0.0146606965
8	0xb9bacdab	-0.0003562992
9	0x3c276ebc	0.010219272
10	0xbb39daf5	-0.0028359268
11	0x3c597008	0.013271339
12	0xb91aeb37	-0.00014774209
13	0x3bdfd6ac	0.006831011
14	0xbc169e19	-0.009192967
15	0x3a5b5c98	0.00083679846
16	0x3c84e95b	0.016224554
17	0x3ba35923	0.004984991
18	0xb8ed1e30	-0.000113066635
19	0xb831528c	-4.2276966e-05
20	0xbbff5fb4	-0.007793391
21	0x3b9cd6e7	0.0047863605
22	0xbbbd9980	-0.005786121
23	0x3bc71b00	0.0060762167
24	0xbba26a3d	-0.0049565122
25	0x3cc623b2	0.024186943
26	0x39bd5c70	0.0003611776
27	0x3c9add62	0.018904392
28	0x3a9b974a	0.0011870649
29	0xbc00937c	-0.007847663
30	0x39c806f3	0.0003815215
31	0xbc5281cf	-0.012848332
32	0xbc441d4e	-0.011969877
33	0x3cf6015b	0.030029943
34	0x3c9283ac	0.017885052
35	0x3b9d1caf	0.004794679
36	0xbbccebc2	-0.0062536905
37	0x3cfaf0a7	0.03063233
38	0xba3a39cc	-0.00071039493
39	0x3ce69c9a	0.028150845
40	0x39ad9cfd	0.00033114097
41	0x3c3f0e2c	0.011661094
42	0x3cab63b8	0.020921573
43	0xba02a153	-0.00049831456
44	0x3c17e093	0.009269851
45	0xbab8b307	-0.001409144
46	0x390c74ca	0.00013394948
47	0x3bbaea56	0.0057042046
48	0x3b9a38b6	0.0047064675
49	0x3aaffa48	0.001342603
50	0x3cdea605	0.027178774
51	0x3c50d20f	0.012745394
52	0x3994c9be	0.0002837907
53	0x3ce49bef	0.027906386
54	0x3cadc886	0.021213781
55	0xbad2b3e1	-0.0016075337
56	0x3cc2b39d	0.023767287
57	0x3add9065	0.0016903995
58	0xbba52f90	-0.0050410703
59	0x3c2e123d	0.0106244655
60	0xba46c2b4	-0.00075821136
61	0x3a66b92f	0.0008801398
62	0x3c6be1cc	0.014397096
63	0x3c41745e	0.011807529
64	0xbc5ca3d1	-0.013466791
65	0x3c223b83	0.009901884
66	0xbbb6cfd2	-0.0055789733
67	0xbbcdaae1	-0.006276474
68	0x3c379291	0.011204378
69	0xbc4107f5	-0.011781682
70	0x3a8b7541	0.0010639803
71	0xba9eb195	-0.0012107367
72	0x3c0e7aca	0.008696267
73	0x3ba25dbf	0.004955023
74	0xb972c30a	-0.00023151576
75	0x3cd61f14	0.026137866
76	0x3bfa5cd3	0.00764046
77	0x3c330634	0.010926772
78	0x3af01016	0.0018315341
79	0x3cd77c72	0.026304457
80	0x3ae82428	0.0017710971
81	0x3a1ec411	0.0006056438
82	0xb9d7c529	-0.0004115489
83	0x3c70266a	0.014657596
84	0xba81f807	-0.0009915837
85	0x3c163bd5	0.0091695385
86	0xbb69a6b3	-0.003565234
87	0xb9263fa1	-0.00015854697
88	0x3ac288ee	0.0014841834
89	0x3bad081d	0.005280508
90	0x3c46bab5	0.012129475
91	0x3ce04318	0.027375743
92	0x390db14f	0.0001351286
93	0xb7a65a0d	-1.9830675e-05
94	0xba0ca0e6	-0.0005364552
95	0x3cd0e130	0.025498003
96	0xbb97aee7	-0.0046290043
97	0x3bd2a6ad	0.0064285607
98	0xba8eb5d0	-0.0010887925
99	0xbc2116fd	-0.009832141
100	0x3cb65cb0	0.022260994
101	0x39b75ba8	0.0003497277
102	0x3cf7ea1c	0.030263
103	0x3cfb5073	0.03067801
104	0xb9454193	-0.00018811812
105	0x3c885983	0.016644245
106	0x3ca88f94	0.020576276
107	0x3cd58e2f	0.026068775
108	0x39c6f7da	0.00037950167
109	0xbbe51ff1	-0.006992333
110	0x3b5c9abd	0.0033661567
111	0xb83bece5	-4.48049e-05
112	0x3d012902	0.03153325
113	0x3c369ea2	0.011146219
114	0xba7405d0	-0.00093087275
115	0x3c086176	0.008324018
116	0xbbbdc883	-0.005791725
117	0x3ab3a364	0.001370531
118	0x3b2c9f26	0.0026339977
119	0x3c29fed1	0.010375694
120	0x3d1f843d	0.03894447
121	0xbc49add2	-0.012309508
122	0xba28552d	-0.00064213836
123	0x3cb61a57	0.022229357
124	0x3c65681d	0.014001873
125	0x3cd54715	0.026034871
126	0xbc2c9d8b	-0.010535608
127	0x3aaa0acf	0.0012973192
128	0x3cf75193	0.030190265
129	0x3c082b04	0.008311037
130	0x3ba79795	0.0051145055
131	0x3ce74f8e	0.028236177
132	0xbb9ead14	-0.00484241
133	0x3c82fc38	0.015989408
134	0x3a2a3797	0.0006493269
135	0xb9f3d190	-0.00046504708
136	0x3d049c00	0.032375336
137	0x3cf5760a	0.029963512
138	0xbc565e14	-0.013083953
139	0xb9a92b54	-0.00032266474
140	0x3d064a58	0.032785743
141	0x3ceb5bf7	0.028730376
142	0x3d25b443	0.040455114
143	0x3c638ede	0.013889043
144	0x38b0d866	8.432641e-05
145	0xb863c6b7	-5.4306085e-05
146	0x3c62ec3e	0.01385027
147	0xbbdd29c4	-0.0067493636
148	0xbb83e515	-0.0040251114
149	0x3c3911a5	0.011295711

ff_model.3.weight f4 [120, 150]
0	0xbc55b9f3	-0.013044822
1	0x3d502d7d	0.05082463
2	0x388bbfe4	6.663779e-05
3	0x3bfdcc3f	0.0077452953
4	0x3cefd5f9	0.029276835
5	0x3915b47b	0.00014276982
6	0xbae59891	-0.0017516782
7	0xbbeb64bc	-0.0071836393
8	0x3b491885	0.003068478
9	0x3b9eacd1	0.0048423787
10	0x3a16d593	0.0005753871
11	0xbc1f913c	-0.009739216
12	0x3c19f9d3	0.009397942
13	0xbc0e08d2	-0.008669095
14	0x3caf32db	0.021386554
15	0xbc087d69	-0.008330681
16	0xbc3c1bac	-0.011481207
17	0xbca42280	-0.020035982
18	0x38876a88	6.4571446e-05
19	0xba7b82b1	-0.00095943647
20	0x3c33d4d5	0.010976036
21	0xbbe30e58	-0.0069292
22	0xbc08cf9e	-0.008350281
23	0x3ae26244	0.0017271717
24	0xbcabe176	-0.020981532
25	0xbae973c8	-0.0017810995
26	0x3857d146	5.1454896e-05
27	0xbc1356f4	-0.008992899
28	0x3d128766	0.035773657
29	0xbbfcdca7	-0.0077167335
30	0xbc365b57	-0.011130176
31	0x3d66547e	0.05623292
32	0xbc8ff8e3	-0.017574733
33	0x3d0fbc5b	0.03509174
34	0x3d64ffbe	0.055907957
35	0x3b27a3f8	0.002557991
36	0x3b996fd9	0.0046825227
37	0xbd173976	-0.036920033
38	0xbb877426	-0.004133719
39	0x3cc701a2	0.02429277
40	0x36633cfe	3.3861138e-06
41	0x3b952546	0.0045515625
42	0x3ba38b97	0.0049910056
43	0x355c99db	8.2180276e-07
44	0x3be0df64	0.0068625677
45	0xbb53f902	-0.0032344465
46	0xbc964fba	-0.018348563
47	0x3b370aa4	0.0027929926
48	0x3ca77a7e	0.020444151
49	0xbb47666d	-0.003042604
50	0x3d6111c6	0.05494859
51	0xbb46bb28	-0.0030323956
52	0x3a7d3db7	0.00096603803
53	0x3b10dc49	0.0022103956
54	0x3c5532fd	0.013012645
55	0xbc51baa6	-0.012800848
56	0xbb8d3cdb	-0.004310233
57	0xbb84afbd	-0.00404927
58	0x3cae9713	0.021312272
59	0x3c4fbb3a	0.012678916
60	0xbc31ae14	-0.010844726
61	0xba4c6f19	-0.0007798537
62	0x3c9b129b	0.01892977
63	0x3d015766	0.03157749
64	0x3c12f04e	0.008968426
65	0x3acd6341	0.0015669839
66	0x3cc8fe39	0.024535285
67	0x3bf41e34	0.0074498896
68	0xbc6498e1	-0.013952465
69	0x392d60d0	0.00016534631
70	0x38a0c904	7.6668366e-05
71	0xbb8ae98f	-0.004239268
72	0x3d5502bd	0.052004565
73	0x3c794795	0.01521482
74	0xbc3131b8	-0.0108150765
75	0xb8bb099e	-8.918646e-05
76	0x3d0fabdc	0.035076007
77	0xbc13d033	-0.0090218065
78	0x3be5d692	0.007014104
79	0x3ccf0acd	0.025273705
80	0x3c2e765c	0.010648336
81	0x3c11ca1e	0.008898286
82	0x3bb003d5	0.0053715506
83	0x3cdaec5e	0.026724037
84	0xb9fb41ef	-0.00047923575
85	0x3d04898b	0.032357734
86	0x3d603f84	0.054748073
87	0x35d2ebb1	1.5714814e-06
88	0x3d164cd2	0.036694355
89	0x3cddbf84	0.02706886
90	0xbc04da1a	-0.00810864
91	0xbc4b99f8	-0.012426846
92	0xb58adc04	-1.0345834e-06
93	0x3b8397fa	0.0040159198
94	0xbc181b0f	-0.009283795
95	0x3cc537d4	0.024074472
96	0xbbdf6b60	-0.00681822
97	0x3d7272fa	0.05919168
98	0x3c4d0648	0.012513705
99	0xbccee25b	-0.02525442
100	0x3d202ec4	0.0391071
101	0xbbb84a07	-0.005624059
102	0x3d472f74	0.04862924
103	0xbbc6517e	-0.006052195
104	0xb90ff8e8	-0.00013730268
105	0x3c7955d1	0.015218214
106	0x3d2d15e5	0.04225721
107	0x3c766e9d	0.015041021
108	0x39896700	0.00026207417
109	0xbc98c752	-0.01864973
110	0x3d2d22fd	0.042269696
111	0x380b9a28	3.328375e-05
112	0x3ce4b8ef	0.027920214
113	0xbc0cac9e	-0.008586077
114	0x3c9fdfe8	0.019515947
115	0xbc39cef4	-0.011340845
116	0x3ccce157	0.025009794
117	0xbb2766e7	-0.0025543512
118	0x3abb5e0b	0.0014294995
119	0xbc98a7cd	-0.018634701
120	0x3d0e23ef	0.034702238
121	0xbbf1c516	-0.007378231
122	0x3c232ee5	0.009959911
123	0x3cf09e70	0.029372424
124	0xbacd7893	-0.0015676193
125	0xbb9b5220	-0.0047400147
126	0xbc336f53	-0.010951835
127	0xbc815113	-0.01578573
128	0x3caeb5ba	0.021326888
129	0x3c8cc567	0.017183973
130	0x3d53b477	0.051685777
131	0x3d605ea2	0.05477775
132	0x3cbd23ef	0.023088424
133	0x3d079693	0.033102583
134	0xbd00c0fa	-0.031434037
135	0x3b3fb73a	0.0029253499
136	0x3cfdd4e4	0.030985303
137	0xbc10d8bc	-0.008840736
138	0x3d252628	0.04031959
139	0x3aee894d	0.0018198878
140	0x3d30cf15	0.04316624
141	0x3d40c48d	0.047062445
142	0x3d0fbb34	0.03509064
143	0xbcff0bd8	-0.031133577
144	0xba90a644	-0.0011035879
145	0xb88f8b05	-6.844666e-05
146	0x3c42e2bd	0.011894879
147	0x3d601005	0.054702777
148	0xbb798f71	-0.0038079883
149	0x3bde6c00	0.006787777
150	0x3d0f8b59	0.035045
151	0xbc32544b	-0.010884355
152	0x37ac94d9	2.057331e-05
153	0x3b9490ed	0.004533878
154	0x3d0f26a7	0.03494897
155	0x3850ce1e	4.9783026e-05
156	0x3cee539f	0.029092608
157	0xbba43fdd	-0.005012496
158	0x3830616f	4.2052412e-05
159	0x3c171688	0.00922168
160	0x3c1320b9	0.00897997
161	0x3ca16b2f	0.01970443
162	0x379f0c30	1.8959952e-05
163	0x3c0ea59d	0.0087064775
164	0xbcc63da1	-0.024199309
165	0x3c3324d0	0.01093407
166	0x3c9570b4	0.018242218
167	0x3d1b4e3e	0.037916414
168	0xbc0a47d3	-0.008439976
169	0x3c7290ee	0.014805062
170	0x3cb51fdb	0.022109916
171	0xbab5f3fe	-0.001388192
172	0x3972587f	0.00023111886
173	0xbb7dcefc	-0.0038728109
174	0xbc357818	-0.011075996
175	0x3d0cdc18	0.034389585
176	0x3988b907	0.00026077798
177	0x3c6ba7f9	0.0143833095
178	0xbd03ad3a	-0.032147624
179	0xbcf25bd4	-0.029584803
180	0x38f62398	0.00011736824
181	0x3cb66595	0.022265235
182	0x3cd68c26	0.026189875
183	0x3ba2a3f7	0.004963394
184	0x3a9de89d	0.0012047474
185	0x3887a33e	6.467708e-05
186	0x3d1a2e36	0.037641726
187	0x3a99c041	0.001173027
188	0x3a69afac	0.0008914422
189	0x3cdfd527	0.027323319
190	0x3ac4d2da	0.0015016452
191	0x3bdfcb57	0.00682966
192	0x3cabf257	0.02098958
193	0x36d1694d	6.240944e-06
194	0x3bafe8ac	0.005368313
195	0x387fb339	6.096365e-05
196	0xbce21a53	-0.027600443
197	0x3ca8747f	0.020563362
198	0x3c0d8825	0.008638416
199	0xbaa61946	-0.0012672327
200	0xbcf491ba	-0.029854644
201	0x3c016089	0.007896551
202	0x39139aca	0.00014076676
203	0xbce4d064	-0.0279314
204	0x3ce0e135	0.027451137
205	0x37d3123d	2.5161653e-05
206	0xbc88aa63	-0.01668281
207	0x3c6b6579	0.014367455
208	0x3cb3e0b8	0.02195774
209	0xbc3fe7f9	-0.011713021
210	0xbc4e8a1e	-0.012606172
211	0xbba0c3be	-0.004906147
212	0x3d4e90c3	0.050431024
213	0xbb0376a7	-0.0020059736
214	0x3d48c85c	0.049019203
215	0x3bdf3ab7	0.0068124193
216	0x3c30f9cd	0.010801745
217	0x3c91aa04	0.017781265
218	0xbc366e73	-0.011134732
219	0x3a6938c8	0.00088967057
220	0xb79806b9	-1.8122942e-05
221	0xbbacc5be	-0.005272596
222	0xbc8e9f78	-0.017410025
223	0x3ca03147	0.019554747
224	0xb6971b7d	-4.5033507e-06
225	0x3d1cd610	0.038290083
226	0xbc2d7a07	-0.010588176
227	0xbad67521	-0.0016361811
228	0xbbd029c7	-0.0063526365
229	0x3d08ba2f	0.033380684
230	0x3c6e1ad9	0.014532768
231	0xbb09e049	-0.0021038225
232	0x363969f8	2.762883e-06
233	0x3d0f77e2	0.03502644
234	0x37da3a0d	2.6014657e-05
235	0x3d1ac565	0.037785906
236	0xbc44e564	-0.012017582
237	0xbc04a417	-0.008095763
238	0x3d07e4d7	0.033177223
239	0x3d4fc819	0.050727937
240	0x3d1920ce	0.0373848
241	0x3c829a45	0.015942702
242	0x37866aa8	1.602371e-05
243	0xbc2b2ce8	-0.010447718
244	0xbbcc6bdd	-0.0062384442
245	0x3d3f15f7	0.046651807
246	0xbb088f5c	-0.0020837402
247	0x3c09424d	0.008377624
248	0x396c15dc	0.00022514857
249	0xbb00babc	-0.0019642552
250	0x3c846e0e	0.01616576
251	0x397726cf	0.00023570213
252	0x3d3f4c82	0.046703823
253	0x3b814b7c	0.003945766
254	0xbc257f5f	-0.010101168
255	0x3cd61d6f	0.026137082

ff_model.3.bias f4 [120]
0	0x3d897eb7	0.06713622
1	0x3d3000fb	0.042969685
2	0x3b8ca5d1	0.004292228
3	0x3d1228b6	0.035683356
4	0x3be9f7b9	0.0071401265
5	0x3d11e7ab	0.035621326
6	0xbc7ff497	-0.01562228
7	0xbc5666e9	-0.013086059
8	0xbcb04c6f	-0.021520821
9	0x3d5d6616	0.054052435
10	0x3cee840f	0.029115705
11	0xbc551ab6	-0.013006857
12	0xbc9b2f9d	-0.018943602
13	0xbc4638a7	-0.012098468
14	0xbd3b98ac	-0.045799896
15	0xbced08e4	-0.028934903
16	0xbd34385c	-0.04399906
17	0x3cab786d	0.020931447
18	0x3d88f863	0.06688001
19	0x3d606252	0.054781266
20	0x3d8e9be3	0.06963327
21	0x3c7e2c13	0.015513438
22	0xbcc391ad	-0.023873175
23	0x3c69b63d	0.01426464
24	0x3d7f9f69	0.062407885
25	0x3d3b3878	0.04570815
26	0xbcb5dc5c	-0.022199802
27	0x3d07f2fa	0.033190705
28	0xbc71eed2	-0.014766412
29	0x3b0cf905	0.0021510732
30	0xbca5796f	-0.020199506
31	0xbd17df30	-0.037078083
32	0x3d3e4fdf	0.04646289
33	0x3d7a3902	0.061089523
34	0x3da1a11d	0.07892058
35	0x3d8b403e	0.067993626
36	0xbc012252	-0.007881718
37	0x3cac72fb	0.02105092
38	0x3d528a4e	0.05140143
39	0xbc90f01d	-0.01769262
40	0x3a8a71aa	0.0010562439
41	0x3d3a44cc	0.045475766
42	0x3d8eede5	0.069789685
43	0x3d32f7c6	0.043693326
44	0x3d307cbe	0.043087713
45	0x3d47f384	0.04881622
46	0x3c59350e	0.013257278
47	0xbc87b8fa	-0.016567696
48	0x3d7a946c	0.061176702
49	0xbd183939	-0.037163947
50	0xbbade9cc	-0.005307412
51	0x3d263711	0.04057986
52	0x3d96e69d	0.07368205
53	0x3ccd281b	0.025043538
54	0x3d62536e	0.055255346
55	0xbd67f306	-0.05662825
56	0xbd099cee	-0.033596925
57	0xbd2ca550	-0.04214984
58	0x3d5b186e	0.053490095
59	0x3d48b727	0.049002793
60	0x3d6ecbce	0.058299832
61	0x3cdc22cf	0.026872067
62	0xbd021b56	-0.03176435
63	0x3d51b50b	0.051198047
64	0xbc3fd28b	-0.011707912
65	0x3a004be3	0.00048941205
66	0x3d8846ed	0.06654153
67	0x3da31b35	0.07964174
68	0x3d257ab4	0.040400222
69	0x3cea1bfe	0.0285778
70	0xbd0810c8	-0.03321913
71	0x3d2c6c99	0.042095754
72	0x3d9163b0	0.07099092
73	0x3da81210	0.0820657
74	0x3d21576a	0.039390005
75	0x3d1674f9	0.036732648
76	0x3ce57117	0.028008027
77	0xbbc9c6a0	-0.006157711
78	0x3da922dc	0.08258602
79	0x3cd8d657	0.026469393
80	0xbd3d8aaf	-0.046274837
81	0x3d18551c	0.03719054
82	0x3d3b586e	0.04573863
83	0x3d85c419	0.06531543
84	0xbca89bde	-0.020582136
85	0x3d73f4b5	0.059559543
86	0xbbfa283d	-0.0076341913
87	0x3c678281	0.014130236
88	0x3d0c5e4a	0.03426961
89	0x3d27e650	0.040991127
90	0x3d34729a	0.044054605
91	0x3d773e40	0.0603621
92	0xbc255fa8	-0.010093607
93	0x3c82f188	0.015984312
94	0x3d1f0c3a	0.03883002
95	0xbca1795f	-0.019711195
96	0xbc5ba686	-0.0134064015
97	0x3d7ab266	0.06120529
98	0x3d16cbe7	0.03681555
99	0x3ca71f94	0.0204008
100	0x3ca0a418	0.019609496
101	0xba61f05e	-0.00086188863
102	0x3c59cfbe	0.0132941585
103	0x3c467efd	0.012115237
104	0x39ec74f3	0.00045100562
105	0x3d2da0a5	0.04238953
106	0xbceefea1	-0.02917415
107	0xbc9f0cab	-0.01941522
108	0x3d4dd432	0.050251193
109	0xbc8adbd5	-0.016950527
110	0x3d9e0ded	0.077175
111	0xbb2f3d8d	-0.0026739568
112	0x3d9dd009	0.07705695
113	0xbc44aeb9	-0.012004548
114	0x3da5fe47	0.0810514
115	0xbd2f2fbf	-0.042770144
116	0x3d4a4768	0.049384505
117	0xbcb97af3	-0.022641635
118	0x3bc11f25	0.0058936053
119	0x3d8586c7	0.06519847

ff_model.6.weight f4 [45, 120]
0	0xbc9a9244	-0.018868573
1	0x3b7a7348	0.0038215686
2	0x3c0f822c	0.008759063
3	0xbb612937	-0.0034356841
4	0xba97f099	-0.001159209
5	0x3c1157d8	0.008871041
6	0xbad4c958	-0.0016234322
7	0xbc799c35	-0.015234997
8	0xbb2afed7	-0.0026091838
9	0xbc0b959d	-0.008519557
10	0x3c364bf6	0.011126509
11	0xbbdb8840	-0.006699592
12	0xba3e3a7b	-0.0007256639
13	0xb95dd0a6	-0.0002115393
14	0xba0f1712	-0.0005458455
15	0xbc3d76f7	-0.011564008
16	0xb9f3a8f8	-0.00046474463
17	0xbb881506	-0.004152897
18	0xbc674e6a	-0.014117816
19	0x3b49c090	0.0030784942
20	0x3c01774a	0.007901976
21	0xba275900	-0.00063838065
22	0x3b622e15	0.003451233
23	0xbc088c67	-0.008334256
24	0x3cf8e698	0.030383393
25	0x3c1d046f	0.009583577
26	0xbcbfecb1	-0.023428293
27	0x3bcbc399	0.0062183854
28	0x3bd65b10	0.006541617
29	0xbc418fd1	-0.011814074
30	0xb8b20ccc	-8.490085e-05
31	0x3c9e953d	0.019358272
32	0xbcb1d8e2	-0.021709863
33	0x3cd27aeb	0.025693377
34	0xb9da0c10	-0.00041589187
35	0x3d031d0a	0.032010116
36	0xb9ec6468	-0.00045088236
37	0x3cd391bc	0.025826328
38	0x3cc9c3a6	0.024629425
39	0x3c24cb72	0.010058271
40	0xbb19640c	-0.002340558
41	0xbcc045c5	-0.023470769
42	0xbc1bfcf2	-0.009520756
43	0xbcb6b39f	-0.022302447
44	0xbc77c56e	-0.0151227545
45	0xbc5bc81c	-0.013414409
46	0xbc8a65ff	-0.016894339
47	0xbc33c1fa	-0.010971541
48	0xbbdc07ef	-0.006714813
49	0x3d0470fe	0.03233432
50	0x3cb6566a	0.022258002
51	0xbc938dd4	-0.018011965
52	0xbc8c988c	-0.017162584
53	0x3ad0198b	0.0015876753
54	0xbbd7cff1	-0.006586068
55	0xbb964183	-0.0045854463
56	0x3cafbbff	0.021451948
57	0xbaa74c72	-0.0012763871
58	0xbc37b217	-0.0112118935
59	0x3cc734b6	0.024317127
60	0x3c064ddd	0.008197275
61	0x3c565eb4	0.013084102
62	0xbcbf239b	-0.023332408
63	0xbce3dbb7	-0.02781473
64	0x3bfb81ac	0.00767537
65	0x39bcbf6f	0.00036000783
66	0x3d149b13	0.036280703
67	0xbce9e80f	-0.028553037
68	0xbc954acd	-0.018224144
69	0xbc18719d	-0.009304431
70	0xb9c7fca1	-0.0003814446
71	0x3c9304c4	0.017946608
72	0x3c236595	0.0099729495
73	0xb8bd1900	-9.016879e-05
74	0xbcd008f9	-0.025394903
75	0xba3eafbc	-0.0007274111
76	0xbbdbd6d2	-0.006708958
77	0xbc83e05b	-0.016098192
78	0xbcb05fc8	-0.021530047
79	0xbb52fcd7	-0.0032194161
80	0xbc6fdc3c	-0.01463991
81	0x3cf42b49	0.029805796
82	0xbc8fe157	-0.017563505
83	0xbcec652b	-0.028856834
84	0xbc63fa58	-0.013914667
85	0xbcc6b3e0	-0.024255693
86	0xbc25d77b	-0.010122175
87	0x3b83f041	0.004026443
88	0xbc8ca689	-0.017169254
89	0xbafdc49f	-0.0019360966
90	0x3c77650d	0.015099776
91	0xbac0c222	-0.0014706294
92	0xb2877332	-1.5768453e-08
93	0xbc1a7b0c	-0.009428751
94	0xbb8fcad9	-0.004388195
95	0x3cfcc7bc	0.03085696
96	0xbb91099c	-0.0044261944
97	0x3c692b6a	0.014231542
98	0xbca14276	-0.019685011
99	0xbc5bfc60	-0.01342687
100	0x3ac3805f	0.0014915577
101	0xbc45464c	-0.012040686
102	0xbb0d502c	-0.0021562679
103	0x3cd2c0ab	0.025726637
104	0x3c26e9fd	0.010187623
105	0xbc7d9e09	-0.015479573
106	0x3cdf1e69	0.02723618
107	0xbcc979f3	-0.024594283
108	0xbcb3ddb9	-0.021956312
109	0x3cca073e	0.024661656
110	0xbcd258db	-0.025677135
111	0xbc6f0830	-0.014589354
112	0x3c87305e	0.016502555
113	0xbc5436c1	-0.0129525075
114	0xbcb904da	-0.022585321
115	0xbca55f1d	-0.020186955
116	0xbb12d871	-0.002240684
117	0xbb47b7a8	-0.0030474458
118	0xbca7599d	-0.020428473
119	0xbc809d20	-0.015699923
120	0xbc16b201	-0.009197713
121	0xbc934822	-0.017978732
122	0xbbac963d	-0.0052669332
123	0x3caf1f2a	0.021377165
124	0xba661c2e	-0.0008778003
125	0x3ba24d0f	0.0049530338
126	0x3c487b1e	0.012236385
127	0xbc163b26	-0.0091693755
128	0x3bf9d559	0.00762431
129	0xbcaf78bd	-0.021419877
130	0xbc6960c0	-0.014244258
131	0xbb9f0670	-0.0048530623
132	0xbb77d1a9	-0.0037814176
133	0x3c1ab00e	0.009441389
134	0x3be3c05b	0.006950421
135	0x39ce3d9b	0.00039337281
136	0x3c4bbf50	0.012435749
137	0xba5ff8a9	-0.0008543828
138	0x3c8f10e1	0.017464103
139	0x3bc26e51	0.005933561
140	0x3b921e50	0.00445918
141	0xbb9784d0	-0.004623987
142	0xbc63980a	-0.013891229
143	0x3d024899	0.031807516
144	0x3c2a5953	0.010397273
145	0x39ab3a41	0.00032659064
146	0xbc7e3a82	-0.015516879
147	0xba4b7596	-0.0007761357
148	0x39e7f20d	0.00044240095
149	0xbb9b5de4	-0.0047414172
150	0x379965b1	1.8286375e-05
151	0x3607897a	2.019659e-06
152	0x3c9f9c73	0.01948378
153	0x394178e6	0.00018450952
154	0xbbed2a04	-0.0072376747
155	0xbc57524d	-0.013142181
156	0x3a633d01	0.0008668453
157	0xba7af3b2	-0.00095730566
158	0xbc02fc18	-0.007994674
159	0xbbcc541d	-0.006235613
160	0xbbf88c34	-0.007585073
161	0xbc1d4b45	-0.009600465
162	0xbc92aec0	-0.017905593
163	0x3c4a150a	0.012334118
164	0xbb6e37b7	-0.0036349127
165	0x3c6bf15f	0.014400809
166	0xbad0fd79	-0.0015944681
167	0x38b5ab78	8.662691e-05
168	0x3cee0fb3	0.02906022
169	0x3c789510	0.015172258
170	0x3af494d4	0.0018660077
171	0xbc4c9a9c	-0.012488034
172	0x3ccac33d	0.0247513
173	0xb9a530aa	-0.0003150751
174	0x3cf0860d	0.029360795
175	0xbb4d35a6	-0.0031312495
176	0xba336f4a	-0.00068448915
177	0x3c015fcf	0.007896378
178	0xbc79d3f2	-0.015248286
179	0x3d0a37b7	0.03374454
180	0xba799848	-0.0009521288
181	0x3c0f8f8a	0.00876225
182	0x3c0dd24d	0.008656097
183	0xbbedc3fc	-0.007256029
184	0x3cceeb06	0.025258552
185	0xba071f8d	-0.0005154543
186	0xbad73a1d	-0.0016420517
187	0xbc39a5ca	-0.011331031
188	0xbab3d7b7	-0.0013720904
189	0xbb9c2563	-0.004765199
190	0x3b32aff3	0.0027265518
191	0x3c85f23d	0.01635086
192	0x3d16f427	0.036853936
193	0x3c342cdd	0.010997024
194	0xbcb5d374	-0.022195555
195	0xbc3558e7	-0.011068559
196	0x3a35dc7d	0.00069374574
197	0x3cdc5b76	0.02689908
198	0xbc5663d2	-0.013085322
199	0xbae44d4e	-0.0017418058
200	0x3a27625b	0.00063852005
201	0x3a8aa699	0.0010578214
202	0x3c279d61	0.010230393
203	0x3cecc597	0.028902812
204	0x3c4e0319	0.012573981
205	0xbac571e5	-0.001506385
206	0xb9f9fbc0	-0.0004768055
207	0xbabf7f81	-0.0014610143
208	0xbc5a4f45	-0.013324563
209	0xbc829a83	-0.015942818
210	0x3c87d7ab	0.01658233
211	0xbb2d68bf	-0.0026460139
212	0x3805fedf	3.194704e-05
213	0xbaf2de3a	-0.0018529363
214	0xba720fc8	-0.0009233919
215	0xbbafc326	-0.0053638397
216	0x3c8319fe	0.016003605
217	0xbc37ae2e	-0.011210961
218	0x3b131be9	0.0022447056
219	0x3c6fce61	0.014636607
220	0x3cc62df4	0.024191834
221	0x3cd8b182	0.02645183
222	0x39c41660	0.00037400704
223	0x38f4fe04	0.00011682141
224	0xba3e21af	-0.0007252944
225	0x3bc0d5d7	0.0058848667
226	0x3bd40731	0.006470584
227	0xbbe22413	-0.006901273
228	0x3c1fb75b	0.009748305
229	0x3a6b3de4	0.0008973761
230	0x3b728897	0.0037007683
231	0x3cf654c2	0.030069713
232	0x3d2bb465	0.041920085
233	0x3b940fa1	0.0045184647
234	0x3afc0dc3	0.0019230176
235	0xbbfb2a7d	-0.007664977
236	0x3960c263	0.0002143472
237	0x398e47af	0.0002713776
238	0x3c065ca0	0.008200794
239	0xbc534df8	-0.012897007
240	0x3cbce0b7	0.023056371
241	0xbc8d825a	-0.01727407
242	0x3c3ceaf8	0.01153063
243	0x3bd50637	0.006500985
244	0x3d1532f7	0.036425557
245	0x3c6a4244	0.0142980255
246	0x3ca56211	0.020188363
247	0x3b82941f	0.0039849426
248	0x3c53e2c8	0.012932487
249	0x3cf701f1	0.030152293
250	0xbd024246	-0.031801485
251	0xbd0d2496	-0.03445872
252	0xbc7f299a	-0.015573883
253	0xbba4fbeb	-0.005034914
254	0x3b05b8e9	0.0020404404
255	0x3d098952	0.033578224

ff_model.6.bias f4 [45]
0	0xbd610c37	-0.05494329
1	0xbcdc4ee9	-0.026893096
2	0xbd5e691a	-0.05429945
3	0xbd6f6de9	-0.058454428
4	0x3d3dc5df	0.046331283
5	0xbd2982a4	-0.041384354
6	0x3d3c16f3	0.045920324
7	0x3da39bbc	0.07988688
8	0x3c1e55fe	0.009664057
9	0x3dabc03a	0.08386274
10	0xbd9239d8	-0.07139939
11	0x3da212d5	0.07913748
12	0xbc2ccc24	-0.010546718
13	0x3c301383	0.010746839
14	0x3ddef20e	0.10886012
15	0xbd4e3e2e	-0.050352268
16	0x3de90c79	0.11379332
17	0xbdb79f60	-0.08965945
18	0x3da91701	0.08256341
19	0x3ce96e39	0.028494941
20	0x3c0ed24a	0.008717129
21	0x3d137c9a	0.0360075
22	0x3d75e7a7	0.060035374
23	0x3d967c2b	0.07347902
24	0xbd213485	-0.039356727
25	0x3dfb8ae1	0.122823484
26	0x3d46abc2	0.048503645
27	0x3df4d189	0.11954028
28	0x3d859d2f	0.06524121
29	0x3d1dc620	0.038519025
30	0x3d96cb35	0.073629774
31	0x3ca551e7	0.020180656
32	0x3db43919	0.08799953
33	0xbd8218ca	-0.063523844
34	0x3caddacf	0.0212225
35	0xbc8b0a3f	-0.01697266
36	0xb958fcc2	-0.00020693525
37	0x3d41d353	0.047320675
38	0xba4eccc6	-0.000788879
39	0xbca1a1c6	-0.01973046
40	0x3d90e8a0	0.0707562
41	0xbcc33861	-0.023830594
42	0x3c94cd48	0.018164292
43	0x3c4a6c2c	0.012354892
44	0xbd7c2e50	-0.061567605

ff_model.9.weight f4 [2, 45]
0	0xbce4775b	-0.027888944
1	0x3d4f95b5	0.05067988
2	0xbda56137	-0.08075183
3	0xbd7b3f68	-0.061339766
4	0xbd29de7a	-0.041471936
5	0x3daccf78	0.08438009
6	0x3d15e539	0.036595557
7	0x3d23c658	0.039984077
8	0x3dc54097	0.0963146
9	0xbb60c549	-0.0034297279
10	0xbc3c8f52	-0.01150878
11	0x3e1cb759	0.15304317
12	0xbdaa760f	-0.08323299
13	0x3d87a9da	0.066241935
14	0x3d97f148	0.074190676
15	0x3de449b9	0.11146874
16	0xbd93b444	-0.07212117
17	0xbd36845f	-0.044559833
18	0xbd2b7e09	-0.041868243
19	0x3e1768bd	0.14786048
20	0x3cbe686f	0.023243157
21	0xbc23bdcb	-0.009993981
22	0x3dc541d9	0.096317
23	0xbdc0eb8b	-0.09419926
24	0x3d8bddfb	0.06829449
25	0x3d79d638	0.06099531
26	0x3cd1466e	0.025546279
27	0x3e2418a8	0.1602503
28	0x3cfbc65f	0.03073424
29	0xbb775f85	-0.0037746143
30	0xbd9952b6	-0.07486479
31	0xbd7d60d7	-0.06185993
32	0x3cbe3f7d	0.023223633
33	0xbbd3c291	-0.006462403
34	0x3e059972	0.13046816
35	0x3db29a9b	0.08720895
36	0x3e0d8db2	0.13823584
37	0x3e053c3c	0.13011259
38	0x3e0ce274	0.1375826
39	0x3afd0105	0.0019302672
40	0x3e2af2c9	0.16694178
41	0x3cb41682	0.021983389
42	0xbd87b36c	-0.06626019
43	0x3d6e4fce	0.058181576
44	0xbb00bca5	-0.001964369
45	0x3d901adf	0.07036375
46	0x3d406521	0.046971444
47	0x3d84b8c5	0.064805545
48	0xbcdaa4fd	-0.02669
49	0x3d8155ba	0.06315179
50	0xbdcd01d5	-0.10010115
51	0x3deff3f1	0.1171645
52	0xbe0edfa1	-0.13952495
53	0x3c0e0c9c	0.0086699985
54	0xbdbe7d37	-0.093012266
55	0x3d88fb4c	0.06688556
56	0xbcdcc1c5	-0.026947865
57	0xbe23641d	-0.15956159
58	0xbd9a02c1	-0.075200565
59	0xbc90b895	-0.01766614
60	0xbd52db89	-0.051478896
61	0xbe2398d7	-0.15976273
62	0x3d802471	0.06256951
63	0xbdefa65c	-0.117016524
64	0x3dc1ec26	0.0946887
65	0xbda8714d	-0.082247354
66	0x3d8a1db4	0.06743947
67	0x3dbd4dcb	0.092433535
68	0x3db52fff	0.08847045
69	0xbd52aad1	-0.051432434
70	0xbca71ac5	-0.020398507
71	0xbdfbc7f1	-0.12293995
72	0x3d97a196	0.07403867
73	0xbe003a9a	-0.12522355
74	0xbdcc63bc	-0.0997996
75	0xbe20d3ec	-0.15705842
76	0x3da72943	0.08162167
77	0xbd6324e1	-0.055455092
78	0x3d7f0812	0.062263556
79	0xbc9c4454	-0.01907555
80	0x3dc227b2	0.094802275
81	0x3d081594	0.033223704
82	0xbce227ba	-0.027606834
83	0xbddd5b7d	-0.10808466
84	0xbdb96fd2	-0.09054531
85	0x3c13401c	0.008987453
86	0x3d4cd5e5	0.050008673
87	0xbce6afbf	-0.028159974
88	0x3deb8236	0.11499445
89	0x3d1dac4d	0.038494397

ff_model.9.bias f4 [2]
0	0x3e2e03b7	0.16993605
1	0xbd9df9d2	-0.07713665
