pip/Version12_7/BP3/bp3/BP3Models/BP3C50IDSeqLenFFNN/Fold5.pt (torch, 866575 bytes, 8 tensors)

ff_model.0.weight f4 [150, 1281]
000000 b2 02 03 b9 50 d8 47 b9 d2 00 47 3a e3 2f a6 bb
       -0.00012494138 -0.00019058702 0.000759137 -0.0050716265
000010 cd c5 da 3a de 51 f9 39 97 1f 18 bb df ad 57 3b
       0.0016691029 0.00047553977 -0.0023212188 0.0032910032
000020 c4 bf 3a bb d4 a2 8f bb 32 9a 31 bb cf 97 ee ba
       -0.002849565 -0.0043834243 -0.0027099964 -0.0018203201
000030 43 d9 97 ba 59 97 b7 bb ea 0c 66 bb 13 f3 83 b7
       -0.0011585135 -0.005602759 -0.0035102912 -1.5729607e-05
000040 08 00 05 bb 8e 8e 7f bb 6d f8 35 3b 51 8c 85 bb
       -0.0020294208 -0.0038994881 0.0027766482 -0.004075565
000050 f2 2f f5 bb 0f bf 06 b9 06 25 dd 39 2d 63 91 3b
       -0.007482522 -0.0001285041 0.0004217999 0.0044368715
000060 82 24 91 3a b5 ce 37 bb f1 60 65 ba 1e d1 3e 39
       0.0011073502 -0.002804679 -0.0008750102 0.00018197714
000070 9c 22 dc ba 5f 2d 48 3b c0 91 18 b9 f0 cc 40 ba
       -0.0016794982 0.0030544621 -0.00014550146 -0.0007354757
000080 0f d1 3d bb 9e 58 49 ba af a1 a8 ba 66 2f bf b9
       -0.002896372 -0.00076807465 -0.0012865568 -0.00036465673
000090 56 9f be ba 91 93 40 3b 66 e3 f1 ba 63 1e 64 3a
       -0.0014543335 0.0029384831 -0.0018454611 0.0008702038
0000a0 0a 6f a4 b9 9e 79 3a ba 0f 0a f5 bb a5 9c 99 ba
       -0.00031363248 -0.0007113459 -0.0074780057 -0.0011719657
0000b0 e7 d7 c7 3b 98 ef e9 39 82 f2 5b 3b a2 0b 44 3b
       0.0060987356 0.00044619734 0.0033561294 0.002991416
0000c0 97 ca 13 3b 9e 00 63 3a 81 ce 88 3b 15 26 ca b8
       0.0022551173 0.0008659455 0.004175008 -9.639204e-05
0000d0 86 ce 80 ba b0 04 99 ba 1c df 0f 3b 1b 02 0a ba
       -0.0009827174 -0.0011674371 0.0021953052 -0.0005264596
0000e0 ef 69 79 ba 2d 05 25 3a f8 28 c8 39 4d d2 b4 3a
       -0.00095143815 0.0006295022 0.00038177497 0.0013795585
0000f0 41 43 af 3a 56 81 22 38 2d 76 d9 39 42 50 54 3a
       0.0013371484 3.8744263e-05 0.00041477513 0.00080991175
000100 bb 23 20 bb 8f dd 0c b9 ff 49 09 bc 2d 9c e6 ba
       -0.002443536 -0.00013433977 -0.008379458 -0.0017594151
000110 83 f3 de ba b5 67 f6 ba 66 85 30 38 a9 e2 8c 3b
       -0.0017009828 -0.0018799218 4.2085907e-05 0.004299481
000120 31 1c 27 3b 5d 32 16 ba a3 68 22 3b b5 95 4c bb
       0.002549898 -0.00057295506 0.0024781607 -0.0031217162
000130 2f 4b 9a 3a f9 1f 51 bb 13 10 e1 3a 4f d8 b3 b9
       0.0011771674 -0.0031909926 0.0017170928 -0.00034302703
000140 f9 6f c7 39 bb 2d e2 b9 6f b6 6e 3b 30 80 48 bb
       0.00038039664 -0.0004314015 0.0036424657 -0.0030593984
000150 07 cb 0e bb e2 67 2e bb 9d fc 7c bb 15 76 3b 3b
       -0.0021788494 -0.0026612212 -0.0038602718 0.0028604318
000160 05 a6 03 ba dc 9c c2 ba 81 b1 15 bb d7 10 dc ba
       -0.0005021992 -0.0014847773 -0.0022841396 -0.0016789687
000170 e8 28 2c bb d8 1c b8 b8 58 b9 8a 3b d5 45 63 ba
       -0.00262695 -8.779176e-05 0.0042335205 -0.00086697686
000180 1e 43 9b ba f0 ca 68 3b 4f 04 82 bb 8f 80 68 3a
       -0.0011845564 0.003552135 -0.003967799 0.00088692544
000190 8b d2 58 bb 35 be bc 3a 17 8d ac 3a 02 ec 95 ba
       -0.0033084478 0.0014399948 0.0013164607 -0.0011438134
0001a0 1f 10 a4 3a 06 ae b6 3b aa dc 04 3a 96 1f 14 bb
       0.0012517011 0.0055749444 0.0005068282 -0.0022601834
0001b0 c2 6f b5 3b a8 7e 2e 39 90 1e 28 bb f3 bb 88 ba
       0.005537004 0.00016641116 -0.0025652982 -0.001043199
0001c0 c6 00 cc 39 41 44 d6 ba 7a 08 58 3b d1 1c 72 bb
       0.00038910488 -0.0016347246 0.0032964037 -0.0036943445
0001d0 db b5 02 3c 68 b9 07 bb 66 a1 92 ba bc 82 cc ba
       0.007977928 -0.0020709876 -0.0011187016 -0.0015602927
0001e0 f3 c2 c1 3b 3e 2a 3a 3b 7d 8e f2 bb 45 e1 1c bb
       0.0059131323 0.0028406526 -0.00740224 -0.0023937982
0001f0 7d 4b e9 3a 0a bf 72 3a ac 50 57 ba 21 c3 5f ba
       0.0017798987 0.00092600344 -0.000821362 -0.00085358514
000200 5b 13 80 3a b9 0e 25 3b 54 df 8d 3b e9 ad 1c ba
       0.0009771393 0.0025185777 0.0043296013 -0.00059768424
000210 f0 15 ce 37 b3 f1 7a ba 40 dd 6e 3b 2a 26 a5 39
       2.456733e-05 -0.0009572759 0.0036447793 0.00031499687
000220 a8 f5 ea 3a d7 b3 b6 bb 41 b3 35 bb 7a 66 8e ba
       0.0017925994 -0.005575638 -0.0027725252 -0.0010864281
000230 f7 8b 7c b7 8d fd bf 3b 27 d3 30 3a 16 9c 13 bb
       -1.5052959e-05 0.005859083 0.00067453313 -0.0022523454
000240 e5 ac 50 3b bc 72 1a bc 7c 97 4e 3b ec 6b d0 3a
       0.0031841334 -0.009426769 0.0031523397 0.0015901304
000250 d5 10 a4 3a 64 7b 27 bb 0a 2f 16 38 29 cb 8e 3b
       0.0012517223 -0.0025555724 3.5806595e-05 0.0043577147
000260 01 5a 3e bb 68 54 ab ba 98 75 81 3a ad 84 e5 39
       -0.0029045346 -0.001307142 0.0009876965 0.00043777135
000270 de d6 87 bb 58 06 12 bb 6a d7 2b 3b f4 21 e0 ba
       -0.004145487 -0.0022281613 0.0026220926 -0.0017099963
000280 08 10 ba 3a 29 0f 98 bb a7 c3 b0 bb 1c 53 87 3a
       0.0014195452 -0.004640479 -0.0053944173 0.0010324451
000290 e5 ba 63 3b d8 fa 88 bb 76 42 cb bb a7 fa 67 3a
       0.003474885 -0.0041802935 -0.006202991 0.0008849301
0002a0 dd 88 e4 bb d9 a7 c6 39 db 36 a5 3b e8 49 de b9
       -0.006974323 0.0003789056 0.0050419397 -0.00042398204
0002b0 df 3f 00 bc b9 7e 20 3b 10 bc d4 3b 12 28 13 3b
       -0.007827728 0.0024489595 0.0064921454 0.0022454304
0002c0 cd 86 2b bb 9d c5 e5 3a da 30 5c ba 03 07 66 3a
       -0.0026172877 0.0017530207 -0.00083996134 0.00087748485
0002d0 5f 37 ed b9 a3 67 9f 3b 35 8d 93 bb 40 97 1f ba
       -0.00045245417 0.0048646494 -0.004502917 -0.00060879067
0002e0 19 ad 28 bb eb b4 16 b9 4e 42 94 3b 98 76 ae bb
       -0.002573794 -0.00014372512 0.0045245057 -0.005324196
0002f0 40 eb 9d b9 a4 4f 7e bb b9 f7 97 39 1e b4 aa bb
       -0.00030120648 -0.0038804794 0.00028985532 -0.00520946
000300 19 b0 93 bb c6 c0 b0 b9 a0 28 bd ba fd af 03 bb
       -0.0045070765 -0.00033712963 -0.0014431663 -0.002009391
000310 7f 8f 34 3b 1d 6e d5 3a 91 d2 2b 3b 57 c9 96 3b
       0.002755135 0.0016283427 0.0026218037 0.0046016383
000320 c9 de b6 bb be 5f 13 3a 7f 37 af 3b 2b 56 9b bb
       -0.0055807573 0.00056218717 0.005347192 -0.0047404966
000330 59 78 00 bb 38 8f 20 3b 4c d4 cb 39 0c bf 62 bb
       -0.0019602983 0.0024499428 0.0003887735 -0.0034598736
000340 0c 37 73 3b 4d 30 02 3c 9f e4 6d 39 11 0a 2b bb
       0.0037111668 0.007946086 0.0002268725 -0.002609853
000350 1a 0a 16 3a f7 10 65 ba 76 c9 b2 39 41 28 b5 b6
       0.0005723551 -0.00087381847 0.00034100906 -5.3989065e-06
000360 d3 41 06 3b 56 73 80 ba de 6e 1a 3a cc ab 80 bb
       0.0020486012 -0.0009799998 0.0005891154 -0.00392673
000370 49 cc 0a bb 1e 25 9f ba 74 12 2a bb b5 0c ad 3b
       -0.0021178892 -0.0012141799 -0.002595094 0.005281056
000380 69 e2 a1 ba d7 83 51 3b 67 b9 1c 3c 07 bb c1 3b
       -0.0012350801 0.0031969452 0.009565688 0.005912188
000390 34 02 9a 3b 81 51 ca ba 7e ae 58 bb 04 d3 2f bb
       0.0046999697 -0.0015435667 -0.003306299 -0.0026828656
0003a0 75 01 bc 3a 7e 7a bc 3b be c8 97 bc 46 88 97 39
       0.0014343696 0.005751907 -0.018528339 0.00028902496
0003b0 e8 a8 80 bb 09 ae b3 bb 88 79 b8 3b 18 d6 82 3b
       -0.003926385 -0.005483393 0.005629722 0.003992807
0003c0 bf 19 b1 3b 6b 32 fe b9 ec 91 fd ba e9 ff a8 ba
       0.0054046805 -0.0004848422 -0.0019345856 -0.001289365
0003d0 43 f9 8a 39 d7 b0 02 3b f6 10 c8 b9 29 74 8d 3b
       0.00026507126 0.001994183 -0.0003815961 0.004316826
0003e0 65 f3 3e ba 76 81 d2 ba c0 88 cd 3a 76 97 2e bb
       -0.00072841934 -0.0016060311 0.0015681013 -0.002664057
0003f0 a2 35 17 3b 80 e3 80 3a 63 86 78 3b 95 ff af ba
       0.002307274 0.0009833425 0.0037921898 -0.001342761

ff_model.0.bias f4 [150]
000000 df a1 d4 bc fc 02 00 80 5c 22 05 bd ae 24 f2 b9
       -0.025956092 -1.07e-42 -0.03250347 -0.00046185165
000010 fd 01 00 00 41 56 05 3c df 04 00 00 0e 05 00 00
       7.13e-43 0.00813824 1.747e-42 1.813e-42
000020 04 07 00 00 e0 c4 97 3c 1e 82 7c 3c 5d 7b 5d b9
       2.517e-42 0.018526495 0.015411882 -0.00021122159
000030 f3 03 00 00 a5 02 00 80 e5 79 f5 b9 a1 04 00 00
       1.417e-42 -9.49e-43 -0.0004682086 1.66e-42
000040 9c 58 a3 a2 c8 20 22 3c e0 05 00 80 b9 01 00 80
       -4.4275057e-18 0.009895511 -2.108e-42 -6.18e-43
000050 9c 9a ce 3c ed f2 72 ab 7f 0a 00 00 0b e3 92 3c
       0.025220208 -8.63128e-13 3.765e-42 0.017930528
000060 0a b7 3c 3c 24 78 3b b3 8c 87 9d 9d 61 90 b9 3c
       0.011518249 -4.3648598e-08 -4.1697706e-21 0.022651853
000070 42 82 4b 2b a0 03 33 a7 7e 14 ad 3c 25 01 00 00
       7.2300857e-13 -2.4843205e-15 0.021127935 4.1e-43
000080 6d 07 00 00 29 08 00 80 19 aa d5 3c ef bd ea 35
       2.664e-42 -2.927e-42 0.026082085 1.7489637e-06
000090 9a de c1 3b 87 03 00 00 e1 d0 34 1b c8 0a 00 00
       0.0059164288 1.265e-42 1.4956743e-22 3.868e-42
0000a0 6c 00 00 80 e4 05 00 80 24 07 00 00 c8 03 00 00
       -1.51e-43 -2.113e-42 2.562e-42 1.356e-42
0000b0 20 df a8 b4 02 59 09 b5 b4 01 00 80 f7 01 31 3c
       -3.1454783e-07 -5.1166e-07 -6.11e-43 0.010803691
0000c0 d9 03 b1 3b f3 6c 87 3b 51 eb 1a 99 57 00 00 00
       0.00540207 0.004132861 -8.009135e-24 1.22e-43
0000d0 8a ea d0 3c a3 3d 53 3c bd 05 00 00 ce 16 18 bd
       0.025502462 0.012893113 2.059e-42 -0.037131123
0000e0 4b 2c a0 28 68 07 00 00 05 dc e6 a8 f1 d5 0f b8
       1.7782777e-14 2.657e-42 -2.5630548e-14 -3.4293105e-05
0000f0 e3 a0 8e 3b 84 cd 96 3c ef 06 96 3b 12 07 00 80
       0.0043526753 0.018408544 0.0045784633 -2.536e-42
000100 8c 00 00 80 b6 6d 42 36 cc d7 12 3c 67 21 ff bc
       -1.96e-43 2.8972113e-06 0.008962583 -0.031143857
000110 7f e6 c0 92 ae c9 77 35 78 e3 58 3c 12 0f 00 00
       -1.2173725e-27 9.2308153e-07 0.0132378265 5.406e-42
000120 c2 05 e0 bc 7e de 3d b2 9f 01 00 80 ad d7 59 3c
       -0.027346496 -1.1051837e-08 -5.82e-43 0.01329605
000130 70 d9 3a 3c 6f 95 c2 2b 15 05 00 00 f1 02 00 80
       0.01140438 1.3826005e-12 1.823e-42 -1.055e-42
000140 11 84 08 3c 04 bb 95 3b 22 ac 12 3c 86 cb 7e 3c
       0.008332268 0.004569413 0.0089521725 0.015551453
000150 10 c8 97 3c 8a 89 2b 3c 82 cb b4 3b c7 55 66 84
       0.018528014 0.010469804 0.005517424 -2.7075757e-36
000160 ba 98 94 3c e8 02 00 00 24 e1 8f a5 75 ce 0a 1d
       0.018139232 1.043e-42 -2.4959107e-16 1.8370884e-21
000170 e3 03 00 00 ee 34 40 3b d0 04 00 00 02 1c 89 3c
       1.394e-42 0.0029328424 1.726e-42 0.016736988
000180 97 59 8c 3c 16 21 80 b6 58 67 2c 3c 62 8c 4a a7
       0.017132564 -3.818549e-06 0.010522686 -2.8109233e-15
000190 06 35 00 bb 8e e1 6d 9b 5e c1 46 15 18 6a 45 3c
       -0.0019562854 -1.9677061e-22 4.013832e-26 0.0120492205
0001a0 54 45 33 23 f5 30 b3 3c be 86 08 2d 45 29 17 11
       9.71829e-18 0.02187393 7.760624e-12 1.1924517e-28
0001b0 c6 9e 66 3c d0 7e cf bc e6 2d 85 a6 03 65 4d 0d
       0.0140759405 -0.025329024 -9.24117e-16 6.329209e-31
0001c0 e7 03 00 80 1d b5 93 3b 32 98 bc ac 60 07 00 80
       -1.4e-42 0.0045076744 -5.3601784e-12 -2.646e-42
0001d0 f7 46 92 9f e8 05 00 80 a1 6a e3 3c 71 33 1f 9c
       -6.1950807e-20 -2.119e-42 0.027760806 -5.2675173e-22
0001e0 a0 51 06 3c f6 a5 0f 25 7a 83 cc a9 9b a0 9c 3c
       0.008198172 1.2459503e-16 -9.0822274e-14 0.019119551
0001f0 5e 04 00 00 9f 0f 6b 3c 7a 53 0f a2 1e ee dd 3c
       1.567e-42 0.014346986 -1.9424306e-18 0.027091082
000200 e0 8e 20 ba 7e b9 82 81 74 01 00 3d 59 8d 78 3b
       -0.00061248057 -4.8020626e-38 0.031251386 0.0037926047
000210 29 9a a5 3b 1b c3 9d 3c 33 8b 65 86 8b ba dd ac
       0.0050537777 0.019258073 -4.317238e-35 -6.301908e-12
000220 8c fc 7c 99 97 4e 98 3b 89 94 66 2f 7f cb 16 3c
       -1.3079096e-23 0.0046480405 2.0971148e-10 0.009203791
000230 c2 7c 7e b1 9e 01 b1 3c b1 63 71 b3 61 dd c4 05
       -3.7032781e-09 0.021607216 -5.6202854e-08 1.8513073e-35
000240 6e 30 8d 3c 15 01 00 00 2c 21 a5 2d 0b c1 50 0c
       0.017235007 3.88e-43 1.877306e-11 1.6081829e-31
000250 b0 04 00 80 a8 a7 93 3c
       -1.682e-42 0.01802428

ff_model.3.weight f4 [120, 150]
000000 44 0f 19 bc 28 02 00 80 e0 ed 5c bc b7 16 0b bb
       -0.0093420185 -7.74e-43 -0.013484448 -0.0021223256
000010 6a 57 c9 2b 9c 4c 3c 3c 70 01 00 80 79 05 00 80
       1.4306171e-12 0.0114928745 -5.16e-43 -1.963e-42
000020 cc 01 00 00 62 73 83 3c 23 3f 60 3c 98 b2 07 b9
       6.45e-43 0.01604623 0.013686928 -0.00012941135
000030 6f 02 00 80 4e 0a 00 00 a4 4e e8 3a 92 09 00 80
       -8.73e-43 3.697e-42 0.0017723632 -3.433e-42
000040 b9 61 bd a1 2e fa 5c 3c 20 03 00 80 78 cc c5 9e
       -1.2833005e-18 0.013487382 -1.121e-42 -2.0942753e-20
000050 93 bd e5 3c 4b 96 71 2b bb 00 00 00 f7 19 8f 3c
       0.028044498 8.5828973e-13 2.62e-43 0.017468436
000060 21 f3 bb 3b 34 41 54 b5 76 b6 3c 9f 2d 21 c3 3c
       0.0057357703 -7.907104e-07 -3.9961477e-20 0.02381953
000070 17 e2 95 2c 3b 2c c4 a7 1e 4f 6b 3c b5 11 3d a5
       4.2599357e-12 -5.4448883e-15 0.014362125 -1.6399136e-16
000080 b3 00 00 80 27 04 00 00 2f e4 95 3c 01 4b 03 37
       -2.51e-43 1.49e-42 0.018297283 7.825672e-06
000090 de e4 14 3c 78 f8 81 97 a5 89 6f a2 28 02 00 80
       0.009087769 -8.399152e-25 -3.2463408e-18 -7.74e-43
0000a0 43 00 00 80 da 9a e7 9b c0 01 00 00 d7 03 00 00
       -9.4e-44 -3.8315815e-22 6.28e-43 1.377e-42
0000b0 50 25 54 38 a4 0a 73 37 21 02 00 80 f6 2a 16 3c
       5.057949e-05 1.4486406e-05 -7.64e-43 0.009165516
0000c0 6f 0f dd 3b fb 10 cc 3b 3b da 19 31 4f 01 00 80
       0.0067462246 0.00622761 2.238848e-09 -4.7e-43
0000d0 e0 a4 d7 3c d2 5d 9b 3c 49 03 00 00 1c 9b 5f bc
       0.026323736 0.018965635 1.178e-42 -0.013647821
0000e0 6c ed 99 29 ce 03 00 80 16 ca 49 ab 01 84 e2 ba
       6.835751e-14 -1.365e-42 -7.1689996e-13 -0.0017281772
0000f0 b8 f2 2b 3c da 88 cf 3c 47 2b 4f 39 75 04 00 80
       0.01049488 0.02533381 0.0001975718 -1.599e-42
000100 ff 09 00 00 c5 98 60 b8 e9 bc e6 3b a6 fb 40 bc
       3.586e-42 -5.354804e-05 0.007041563 -0.011778748
000110 45 ad ad 36 4f 79 1a 3a d9 8d 99 3c 03 03 00 80
       5.175973e-06 0.000589271 0.018744396 -1.08e-42
000120 6a b4 31 bc 7e 1c 0a b8 45 01 00 80 d3 ed 11 3c
       -0.010846237 -3.29283e-05 -4.55e-43 0.008906799
000130 6b e7 1f 3c dd 3a aa 2d e1 00 00 00 61 02 00 80
       0.009759764 1.9352903e-11 3.15e-43 -8.53e-43
000140 9a 2d 1d 3c 8a dc db 3b 78 47 7c 3c 4d f8 c3 3c
       0.009593392 0.00670964 0.015397899 0.02392211
000150 60 1e b5 3c 65 1d 31 3c d5 80 0b 3b f2 ee f7 82
       0.02210921 0.010810231 0.0021286507 -3.6430536e-37
000160 d2 03 95 3c 2c 04 00 80 42 c2 a1 24 f1 27 df 20
       0.018190298 -1.497e-42 7.0151705e-17 3.78041e-19
000170 3e 00 00 80 33 12 14 3c 3e 00 19 a4 51 b2 18 3c
       -8.7e-44 0.009037542 -3.317679e-17 0.009319858
000180 81 57 b5 3c dc 5c 0f b6 04 bd 01 3c 14 0c c0 b9
       0.022136452 -2.1362712e-06 0.0079186 -0.00036630093
000190 46 4a 67 3a 6f d4 bd b7 7d 53 54 af 7a 57 a8 3c
       0.0008823018 -2.2629478e-05 -1.9310949e-10 0.020549525
0001a0 b6 b1 11 b4 d8 d8 a9 3c 82 18 cf ab 8c 10 26 35
       -1.3568828e-07 0.020733282 -1.4715037e-12 6.18639e-07
0001b0 04 0a 8a 3c d5 c1 5d bc c0 da bc a4 58 35 19 0f
       0.016850479 -0.013534983 -8.190258e-17 7.553756e-30
0001c0 61 03 00 00 8e 6e e8 3b 03 84 de 38 36 03 00 00
       1.212e-42 0.0070932573 0.00010610374 1.152e-42
0001d0 cb 79 85 20 c4 01 00 80 20 34 c5 3c 75 6a 43 33
       2.2611672e-19 -6.33e-43 0.024072707 4.5498798e-08
0001e0 f1 2d 63 3c df 11 44 26 fc bf 81 b0 85 50 c5 3c
       0.013865934 6.802538e-16 -9.440551e-10 0.024086246
0001f0 5a 02 00 00 9c a8 42 3c 34 ce 94 b1 60 4d c6 3c
       8.44e-43 0.01188102 -4.3308095e-09 0.024206817
000200 98 41 05 bb a7 31 7b 30 b3 a8 eb 3c 1d 6e 2a 3c
       -0.0020333286 9.138383e-10 0.028766965 0.01040223
000210 7a 98 14 3c d3 a1 8e 3c c4 31 05 06 57 1d b1 b9
       0.009069556 0.017411148 2.5051082e-35 -0.0003378193
000220 46 d2 81 b6 ef 9b fc 3b af 6e 03 af 00 65 9f 3c
       -3.8689786e-06 0.0077090184 -1.1953703e-10 0.01945734
000230 d3 2d a3 37 15 28 c3 3c 6c 69 9f b8 dc 47 5a 08
       1.9452453e-05 0.023822824 -7.601347e-05 6.568646e-34
000240 e1 d3 9e 3c 69 ce ed b0 ef 66 c8 38 77 21 90 0f
       0.019388141 -1.7302685e-09 9.555916e-05 1.4212386e-29
000250 3e 07 00 00 31 ca 8e 3c 75 02 02 bc 0c 06 00 00
       2.598e-42 0.017430397 -0.007935156 2.169e-42
000260 ca 46 29 bc 3a d2 1e bb b4 e6 ab a1 f8 b7 15 3c
       -0.010331819 -0.0024234192 -1.1648477e-18 0.0091381
000270 5c 04 00 80 ff 01 00 00 40 74 00 00 fa a1 78 3c
       -1.564e-42 7.16e-43 4.1703e-41 0.015175337
000280 9c ce 7a 3c a2 34 dd b9 92 d3 75 95 7a 0a 00 80
       0.015308049 -0.0004219162 -4.9644256e-26 -3.758e-42
000290 30 08 04 3a d0 04 00 00 88 8e 06 21 23 69 fa 3b
       0.00050366204 1.726e-42 4.5589605e-19 0.007641928
0002a0 2e 02 00 80 d3 8d b8 2e 79 37 9a 3c a5 12 8c 2a
       -7.82e-43 8.392544e-11 0.01882528 2.4881933e-13
0002b0 09 08 00 80 54 d9 69 3c 2d bf 1a 3b c4 db 71 34
       -2.882e-42 0.0142730065 0.0023612485 2.2524824e-07
0002c0 fe 9d e6 1e 3c 2e a8 3c c9 0a c7 36 33 21 62 b3
       2.4417541e-20 0.020529859 5.9319177e-06 -5.264992e-08
0002d0 63 b6 8d 3c 6a 99 be 94 1d 10 00 00 c9 03 00 80
       0.017298883 -1.9245608e-26 5.78e-42 -1.358e-42
0002e0 5c 3d 4f 3c d6 a6 ac b8 43 f2 14 3b 47 4f 6a 82
       0.012648907 -8.232675e-05 0.0022727407 -1.7214356e-37
0002f0 59 8c 64 33 0e 04 00 80 36 04 00 00 53 03 00 80
       5.3213032e-08 -1.455e-42 1.51e-42 -1.193e-42
000300 cd 05 00 00 b6 01 00 80 9a 84 67 39 60 17 11 b8
       2.081e-42 -6.14e-43 0.00022079275 -3.4592464e-05
000310 c4 00 00 80 c7 fd f5 3b a5 06 bc 3b 6d ba 2d 3b
       -2.75e-43 0.0075070593 0.005738097 0.0026508824
000320 5a e7 8a b5 20 01 00 80 52 ab 9f 3c fa 4d 55 3c
       -1.0349133e-06 -4.04e-43 0.019490872 0.013019079
000330 10 04 00 00 22 c2 39 bc 1c bf 0c 27 0a 03 00 80
       1.457e-42 -0.011337789 1.9532504e-15 -1.09e-42
000340 21 1d 20 2a 29 6c 28 39 b4 45 20 3b 76 9a a9 3c
       1.4220961e-13 0.00016062021 0.0024455609 0.020703536
000350 07 31 96 3b 5f 03 00 00 97 01 00 00 44 b5 02 b9
       0.0045834812 1.21e-42 5.7e-43 -0.00012465293
000360 4d 91 04 3c 71 49 15 bc b5 16 a0 b4 ed c5 04 3a
       0.008091283 -0.009111748 -2.9818844e-07 0.00050648936
000370 57 b7 32 3c a3 05 00 00 3d 20 13 bc 62 4d 49 b2
       0.010907969 2.022e-42 -0.008979854 -1.1717335e-08
000380 94 02 00 00 0a a7 fd 3b b7 e3 04 3c 69 bc 3d ae
       9.25e-43 0.00774086 0.008110932 -4.3140966e-11
000390 cc 02 00 00 5c 01 00 80 12 0b 2c 3c b4 6c 02 3c
       1.003e-42 -4.88e-43 0.010500686 0.007960487
0003a0 9b 10 86 3c cd 39 87 3c 72 d4 8f 3c 9e bc 37 3c
       0.01636534 0.016507054 0.017557357 0.011214403
0003b0 9c df 81 3c 50 db 93 05 e8 8c 50 3c cc 02 00 00
       0.015853696 1.3904376e-35 0.012728907 1.003e-42
0003c0 78 c4 14 a6 f8 7c 09 1e 18 00 00 00 5d 91 4b 3c
       -5.161408e-16 7.2785625e-21 3.4e-44 0.012424794
0003d0 74 03 00 00 c0 ef 32 3c bf a1 83 3c 3e 83 1e b7
       1.239e-42 0.010921419 0.016068337 -9.448091e-06
0003e0 84 99 c9 3b d7 26 86 b6 a5 70 a6 b9 fe 80 32 b4
       0.0061523337 -3.9980328e-06 -0.00031745914 -1.6624469e-07
0003f0 9e b7 dc b6 49 fa 7e 3c 2d a6 6d b9 0c 02 72 3c
       -6.577887e-06 0.015562602 -0.00022663987 0.014770996

ff_model.3.bias f4 [120]
000000 5c c4 08 3c b9 d1 a1 3c 4e b4 97 3b 6b 6f 09 3c
       0.008347597 0.019753324 0.0046296483 0.0083883805
000010 92 f8 fc b9 9d ba 49 3c 95 3d 13 b8 5a 3c ed 39
       -0.00048250385 0.0123125585 -3.5104884e-05 0.00045249128
000020 a3 6b 91 3a 86 0c 93 3c 18 c7 ab b8 36 c9 6e 39
       0.00110947 0.017950308 -8.1909995e-05 0.00022772406
000030 63 8d 17 b9 35 61 3b 3c 0f 60 46 3c 9f a9 e1 37
       -0.00014453153 0.01143675 0.012107863 2.6901076e-05
000040 54 4d 68 3c d0 a1 ba 39 a7 6e cc 3b 0b 40 02 b9
       0.014178593 0.00035597244 0.0062387767 -0.00012421624
000050 9d 5e 5d 3a a7 43 73 3c c8 b9 a5 3b 9d 79 56 b9
       0.00084445794 0.014847673 0.0050575472 -0.00020453935
000060 77 bd f1 3b fa 92 61 3b 29 64 80 3c ae ac 8e 3c
       0.0073773223 0.003441988 0.01567276 0.017416324
000070 69 e4 be 38 df 2c 58 3c af 9f ed 3b 02 a3 f1 3c
       9.102451e-05 0.013194292 0.007251702 0.029496673
000080 f9 06 f2 3b 76 f9 f4 b9 82 f1 ea b9 04 3c bb 39
       0.007386085 -0.0004672517 -0.00044811895 0.00035712135
000090 98 97 04 b9 32 15 11 3c 6c 9c ba b9 17 db 5c 3c
       -0.00012644974 0.008855151 -0.00035593228 0.013479969
0000a0 6a 8a b3 3c dd 4d 88 b9 86 76 e6 b7 25 27 2c 3c
       0.021916587 -0.00025997954 -2.7473328e-05 0.01050738
0000b0 8a 89 b2 b9 c1 e4 7a 3b 80 c2 0e 3c 79 52 5a 39
       -0.0003405328 0.003828332 0.008713365 0.00020820824
0000c0 45 a7 c4 3b d2 2e 89 b9 92 52 21 3c 33 50 df 3c
       0.0060013854 -0.0002616556 0.009846346 0.027259922
0000d0 12 9a c5 3a 35 d5 76 3c 5c e9 bc 38 6f c4 81 3a
       0.0015075824 0.015065481 9.008005e-05 0.0009900461
0000e0 9d 07 34 ba 6a 73 e4 3c d7 48 8e 3c f7 f0 3e 3c
       -0.00068675895 0.027887065 0.017368717 0.01165413
0000f0 fd f5 21 b8 05 a1 89 3c 01 11 47 b9 8c d7 02 39
       -3.8614486e-05 0.016800413 -0.00018984453 0.00012478064
000100 e3 ee a6 3b 62 0e 54 3c 1c 9a 47 3b bd 9a f4 b9
       0.0050943955 0.012942882 0.0030456847 -0.00046654596
000110 03 92 bc 3c a6 b4 5d 3c 9f 7e cf 3a 5c b1 69 b9
       0.023018843 0.0135318395 0.0015830583 -0.00022286683
000120 98 f2 1e 3c 4e 5d a3 3b 68 c1 cd 3c 82 57 99 3b
       0.009701394 0.004985488 0.025116637 0.004679621
000130 e0 a7 37 b9 0e 75 a8 3b fc 83 18 b8 41 8f 3f 3c
       -0.00017514778 0.005140907 -3.6362544e-05 0.011691869
000140 53 be a7 3c 2d a7 14 b9 df 50 da 38 b4 72 d5 3b
       0.020476496 -0.00014176658 0.000104101135 0.006513918
000150 dc 0b a2 3c 10 76 10 3b e4 7d 57 b9 1f bf 23 ba
       0.019781046 0.0022043027 -0.00020550896 -0.0006246436
000160 7e 5b 1b 3c 22 c3 c8 38 48 b9 4d 3c 0c 9e 14 ba
       0.009482263 9.5730895e-05 0.0125563815 -0.0005669303
000170 99 4f 4c ba 17 78 d8 b9 f0 65 07 3c 2a 31 87 3c
       -0.00077938434 -0.00041288204 0.00826405 0.016502935
000180 5b f6 4a 38 b6 0f 73 3c b5 6e d8 b9 d1 44 92 3b
       4.838999e-05 0.014835289 -0.00041281214 0.00446377
000190 00 0d b0 3b ca 67 ae 3c 31 e2 40 3a bf 98 78 3a
       0.0053726435 0.021289725 0.0007357924 0.000948321
0001a0 ef 4a 15 3c c6 b1 9f 3a 8a 2e 8a 3b c9 03 9c 3b
       0.009112104 0.0012183718 0.0042169737 0.0047611934
0001b0 6a ae b1 38 7d 41 d0 3b 69 39 b8 3a a7 59 d2 3b
       8.472505e-05 0.006355463 0.0014055195 0.006419379
0001c0 9e 12 29 3c 3e c0 33 3c ae f1 26 3c 94 49 a9 3c
       0.01031938 0.010971127 0.010189457 0.020664968
0001d0 db ee eb 3b be 09 ca 3b 9e 8e e4 3b 98 b1 cf 3c
       0.0072001047 0.006165712 0.006975009 0.025353238

ff_model.6.weight f4 [45, 120]
000000 bb d5 9e 3c d8 e2 eb 3b 58 f7 88 3c 4b e5 91 3c
       0.019389024 0.0071986727 0.016719505 0.01780953
000010 cc b3 a0 3c 2d cf 8e 3c 17 7e dc 39 68 75 89 3c
       0.019616984 0.017432773 0.00042055614 0.016779616
000020 44 78 a9 3c 6b 39 9f 3c 11 00 93 3c 0a 77 78 3c
       0.02068723 0.019436559 0.017944368 0.0151651
000030 49 71 76 3c ac e0 84 3c 27 15 b3 3c ea 27 93 3c
       0.015041658 0.016220413 0.021860672 0.017963368
000040 2a 45 5c 3c 6b aa 10 3c fc 7f b9 3c f9 e7 7b 3c
       0.013444224 0.008829693 0.022644036 0.015375131
000050 d4 ab a5 3c 19 24 80 3c 6c 20 aa 3c 1f 48 90 3c
       0.020223536 0.015642213 0.020767413 0.017612515
000060 27 0a 96 3c 4a c2 89 3c 08 b8 bc 3c 98 73 a5 3c
       0.018315388 0.016816277 0.023036972 0.020196721
000070 6b aa 9a 3c f1 6a 9a 3c dd 2b be 3c 3d 43 78 3c
       0.01888009 0.018849822 0.023214275 0.01515275
000080 31 06 c0 3c 76 98 8d 3c 7b e9 6b 3c d2 b2 9b 3c
       0.023440452 0.017284613 0.014398928 0.019006167
000090 e7 3b 84 3c 15 6c cf 3c 90 0d 9d 3c 9a a4 7a 3c
       0.016141845 0.025320092 0.019171506 0.015298033
0000a0 20 46 8b 3c 07 d2 7f 3c c2 cb e9 3c 9e 7b 8e 3c
       0.017001212 0.015614039 0.028539542 0.01739293
0000b0 b5 6c 81 3c 08 df ae 3c 04 ba 83 3c 08 74 8c 3c
       0.015798906 0.021346584 0.01607991 0.017145172
0000c0 9a 70 79 3c 58 9f 92 3c a5 0e 9a 3c 3f 02 6b 3c
       0.0152246 0.017898247 0.018805811 0.014343797
0000d0 8e e0 af 3c 47 73 8d 3c 6a 87 2c 3c 6d bc 46 3b
       0.02146938 0.017266883 0.010530332 0.0030324713
0000e0 8c f7 8f 3c 4c 5c 01 3d 61 49 24 3c 61 bb a6 3c
       0.017574094 0.03158216 0.0100272605 0.020353021
0000f0 48 45 99 3c b2 9a ce 3c af 2d 50 3c 8d d5 b8 3c
       0.018709794 0.025220249 0.012706204 0.022562766
000100 3e 5a 90 3c b6 66 4c 3c 6e f6 94 3c 85 e1 84 3c
       0.017621156 0.01247566 0.018183913 0.016220817
000110 af 9e c4 3c b5 d8 c0 3c b9 be 6d 3c d7 ee 8b 3c
       0.024001447 0.023540834 0.014510804 0.017081661
000120 9e 79 78 3c 94 45 bf 3c 69 6a 8b 3c 84 9d 9f 3c
       0.015165715 0.023348607 0.017018514 0.019484289
000130 fe 5e a3 3c bd 72 89 3c de ce a6 3c ed 92 d8 3c
       0.019942757 0.016778344 0.020362314 0.026437247
000140 29 7e a0 3c 43 04 79 3c 39 29 53 3c 37 7d 9e 3c
       0.019591408 0.01519877 0.012888246 0.019346816
000150 ff ed bd 3c 0d a3 8c 3c aa 54 98 3c d0 84 87 3c
       0.023184774 0.017167592 0.018595058 0.016542822
000160 34 83 a3 3c 63 5c 38 3c 5d 8c c8 3c 50 ad 84 3c
       0.019960023 0.011252495 0.024480993 0.016195923
000170 12 12 86 3c bc ea a5 3c 37 59 8f 3c 8d 1c 91 3c
       0.016366038 0.020253532 0.017498596 0.01771381
000180 c3 bd af 3c 85 3c 65 3c 90 dd a5 3c b0 53 4c 3c
       0.02145279 0.01399148 0.02024725 0.0124711245
000190 e7 8e a1 3c 7f 95 56 3c d1 ff 57 3c aa 2a a5 3c
       0.019721461 0.013097166 0.01318355 0.020161945
0001a0 a7 dc 69 3c c1 14 95 3c 52 24 a7 3c 90 d7 f5 3c
       0.014273799 0.018198373 0.020403061 0.030010015
0001b0 fe 31 8d 3c d5 be a1 3c ad 28 a7 3c f9 b0 a1 3c
       0.017235752 0.019744316 0.020405138 0.019737707
0001c0 84 1c b0 3c 0d 15 a4 3c 29 3e a4 3c 27 93 aa 3c
       0.021497972 0.020029569 0.020049172 0.02082212
0001d0 52 8b 81 3c 44 5b 97 3c 7f 4a ab 3c 53 d9 db 3c
       0.015813503 0.018476136 0.020909546 0.026837027
0001e0 e9 8b b3 3c 8f 59 8d 3c b7 49 94 3c a6 1b b0 3c
       0.0219173 0.017254619 0.018101556 0.021497559
0001f0 c1 55 af 3c 31 fa ba 3c 4b 8f bd 39 d2 21 c6 3c
       0.021403195 0.022824379 0.0003615565 0.024186049
000200 ca 62 a4 3c 66 ca ab 3c 80 f4 9f 3c 4c ed 8d 3c
       0.020066638 0.020970535 0.019525766 0.017325066
000210 7e bc 6d 3c 8e 99 b3 3c a5 bb b0 3c bd b8 ac 3c
       0.014510272 0.021923807 0.02157385 0.021084184
000220 d2 ad a6 3c 14 1c 19 3c a7 75 a2 3c 42 4c 8f 3c
       0.020346556 0.009345073 0.019831492 0.017492417
000230 4a 73 ba 3c 2c d0 b5 3c de 30 99 3c 57 52 87 3c
       0.022760052 0.02219399 0.01870006 0.016518755
000240 6f 82 a0 3c cb 99 9c 3c 86 60 af 3c 38 71 ad 3c
       0.019593446 0.019116303 0.02140833 0.021172151
000250 a1 89 b8 3c 83 79 ae 3c 99 31 a7 3c 4d d7 ad 3c
       0.022526564 0.021298176 0.020409392 0.021220827
000260 61 64 a5 3c c8 23 89 3c 44 23 82 3c 22 e7 ab 3c
       0.020189466 0.016740695 0.015885957 0.020984236
000270 a5 da 91 3c 69 b3 a4 3c 91 02 95 3c 4b 77 c3 3c
       0.017804453 0.02010508 0.0181897 0.023860594
000280 98 08 bd 3c 18 ed 8f 3c 8a 03 c4 3c 3e 83 ba 3c
       0.023075387 0.01756911 0.023927469 0.02276766
000290 b9 be 76 3c df 67 9e 3c 99 4c b3 3c 16 5a 82 3c
       0.01506012 0.019336639 0.02188711 0.015912097
0002a0 52 88 c4 3c 83 08 93 3c 97 ef 9d 3c cc 22 95 3c
       0.023990784 0.017948395 0.019279284 0.018205069
0002b0 63 b5 9a 3c 0f 27 a1 3c de 75 3a 3c 7a e9 6e 3b
       0.01888532 0.019671945 0.011380641 0.003645508
0002c0 c7 7e 8e 3c 9a fe ad 3c f7 92 af 3c 51 1a ad 3c
       0.017394437 0.021239568 0.021432383 0.021130713
0002d0 53 72 b8 3c 30 52 b3 3c c5 c9 5b 3c 98 ea b6 3c
       0.022515452 0.021889776 0.013414805 0.02232866
0002e0 86 3b 90 3c ac 55 94 3c 38 26 b4 3c 3c 98 98 3c
       0.017606508 0.018107258 0.02199088 0.018627279
0002f0 58 6a a1 3c 2c a1 a6 3c d1 e7 7e 3c b9 8e 8e 3c
       0.019704029 0.020340525 0.015558199 0.01740204
000300 f9 8e 93 3c 1b b1 a5 3c 85 83 96 3c 9a a4 a2 3c
       0.01801251 0.020226052 0.01837326 0.019853879
000310 32 47 9f 3c 05 28 9e 3c ca 1c 93 3c 0e 85 a8 3c
       0.019443128 0.019306192 0.017958064 0.020571258
000320 3a 90 99 3c cb e8 8a 3c 37 01 6d 3c 6e 05 af 3c
       0.01874553 0.016956707 0.014465622 0.021364894
000330 74 7c 88 3c 03 3c af 3c ca 63 9a 3c d6 61 90 3c
       0.016660906 0.02139092 0.018846411 0.017624777
000340 1c ff c1 3c f5 38 51 3c e9 30 d6 3c e5 d8 9b 3c
       0.023681216 0.012769927 0.026146369 0.019024322
000350 be 9f ac 3c 78 f5 ad 3c a5 8f c3 3c 32 29 9a 3c
       0.021072265 0.021235213 0.023872206 0.018818472
000360 dc 0a ae 3c 0c 10 ab 3c 4f 96 b3 3c 3c 62 8b 3c
       0.021245413 0.020881675 0.021922259 0.017014615
000370 2e 8d b0 3c c6 10 a6 3c 52 d7 80 3c 5e cf ac 3c
       0.021551695 0.02027167 0.015727673 0.021094974
000380 5c ed a1 3c ba 8b b0 3c 3a 94 ac 3c 9d 0f ad 3c
       0.019766502 0.021551002 0.021066774 0.021125609
000390 e3 1e 90 3c 04 d2 a3 3c 34 fb ba 3c 08 8f 8c 3c
       0.017592853 0.019997604 0.022824861 0.017158046
0003a0 17 21 b5 3c f7 2e a0 3c 84 dd c0 3c 7a 9f b8 3c
       0.022110505 0.019553645 0.023543127 0.022536982
0003b0 cd ba 8c 3c 55 25 be 3c ca a4 8c 3c 48 ee b4 3c
       0.017178917 0.02321116 0.017168421 0.022086278
0003c0 a9 f2 96 3c 41 1f 8f 3c 50 79 96 3c 6a 1a 95 3c
       0.018426256 0.017470958 0.018368393 0.018201072
0003d0 50 44 84 3c 8b 1e aa 3c 9f 18 0f 3a 8e 90 ad 3c
       0.016145855 0.020766517 0.0005458686 0.021187093
0003e0 ce 2c 92 3c f7 3b 90 3c 9d 72 93 3c eb b9 71 3c
       0.01784363 0.017606718 0.017998988 0.014753799
0003f0 b2 39 3e 3c 44 88 7a 3c a9 00 a5 3c 8e b2 8a 3c
       0.011610435 0.015291277 0.020141916 0.016930845

ff_model.6.bias f4 [45]
000000 17 4f 2c 3d d0 8d 53 3d 83 a5 6a 3d 76 36 f3 3c
       0.042067613 0.051648915 0.05728675 0.029689055
000010 95 82 3e 3d a9 21 43 3d c0 ed ab bb ca f2 79 3d
       0.04651125 0.047639523 -0.005246848 0.061022557
000020 f3 5f fb 3c fd a9 b1 3d 2b cf ad ba 14 b0 9d 3d
       0.0306854 0.08675001 -0.0013260593 0.076996
000030 38 5c 77 3d f7 67 75 3d 61 92 91 3d 70 78 75 3d
       0.06039068 0.0599136 0.07107998 0.05992931
000040 15 37 0f 3d 9f d8 8c 3d c3 47 64 bb 4b 86 77 3d
       0.03496464 0.06877255 -0.0034832812 0.060430806
000050 6f ab a4 3d 9c f7 30 3d fe 7c 0d 3d 8f 7c 19 ba
       0.08040511 0.04320489 0.03454303 -0.00058550475
000060 4c 2a 98 3d 29 23 c0 3d d1 7e a6 bb aa 45 28 3d
       0.074299425 0.09381706 -0.0050810357 0.04108206
000070 fd 18 46 ba d2 8b 87 bb 18 8b 91 3d a8 b4 a2 3d
       -0.0007556824 -0.004136541 0.07106608 0.07944614
000080 dc 14 86 3d 47 bc 96 3d 93 13 ad 3d af e7 c0 3d
       0.06546947 0.0736013 0.08450999 0.0941919
000090 af f7 7c 3d ea 2b 7d 3d 96 7a b1 bb 8b 0d 5d ba
       0.061759647 0.061809458 -0.0054162247 -0.0008432499
0000a0 99 35 98 3d 50 85 57 3d f4 ca 9b 3d 8c 19 8f 3d
       0.07432098 0.05261737 0.076070696 0.069872946
0000b0 68 6b 92 ba
       -0.0011170926

ff_model.9.weight f4 [2, 45]
000000 5f ef 22 3e 15 dd c2 bb 03 94 40 bd 38 ea 28 3d
       0.15911625 -0.005946765 -0.047016155 0.041238993
000010 43 0c 3e 3b e1 4e 08 3d 96 3c c0 bc 09 bd c8 3d
       0.0028999008 0.03327835 -0.02346639 0.098016806
000020 77 4c 8a 3d 08 db f0 bc 42 2d ef bc e6 99 dd 3d
       0.06752866 -0.029401317 -0.029196385 0.108203694
000030 f5 1c 80 3d f7 e6 1d 3e 07 7a f3 3c 79 c6 de 3d
       0.06255523 0.15420137 0.029721273 0.108776994
000040 68 b5 7f 3d 9b 52 06 3d f4 ce 6f bd 50 d2 f2 3d
       0.06242886 0.032793622 -0.058546975 0.1185652
000050 0a 17 5e 3d 0d 44 ee 3d 65 7f 2d bc 2f a6 8a 3c
       0.05422119 0.116340734 -0.010589455 0.016924946
000060 8d d3 4c 3d 15 a3 a0 3d a6 c7 7a bd 6c 62 67 3d
       0.050006438 0.078436054 -0.061225556 0.056490347
000070 6c 9d 0d bd cd 3d 65 bd 91 a2 67 3d fd b2 78 3d
       -0.034573957 -0.05596714 0.05655152 0.06071757
000080 23 e6 c0 3d f3 a7 5d bd e0 af 7f 3d 68 ce 98 3d
       0.09418895 -0.054115247 0.062423587 0.07461244
000090 c0 df c9 3d bc c5 05 3e 8e a5 13 bd 91 69 97 3c
       0.0985713 0.13063711 -0.036046557 0.018482955
0000a0 b2 ab 74 3d 69 5d 83 3c 3c 08 2e 3b cd 6e 1b 3e
       0.059734054 0.016035752 0.00265552 0.15178986
0000b0 56 4c a7 3c 5e ee 92 3c e9 56 1e be bb 00 3c be
       0.020422142 0.017935928 -0.15462841 -0.18359654
0000c0 71 1d 05 be a7 f9 15 be 6f 38 cb bd 2c a7 2b 3d
       -0.12999512 -0.14646016 -0.09922873 0.041907474
0000d0 58 6a 20 bd 56 63 cf bd ca 05 24 be 38 0a ef ba
       -0.039163917 -0.10126369 -0.16017833 -0.0018237298
0000e0 a3 f8 70 bc b9 1b 93 bd c8 36 cf 3c 1d 08 fd bd
       -0.014707717 -0.07183022 0.025294676 -0.12355063
0000f0 3f 4b 57 bd bc 6c ae bd 3d 1a c6 bd 60 a2 25 bc
       -0.052561995 -0.08516833 -0.09672973 -0.010109514
000100 62 09 45 bc 39 e6 98 bd 14 5d 4c bd 88 59 21 be
       -0.012026163 -0.074657865 -0.049893454 -0.1575681
000110 95 aa 0f 3d b1 df 90 bd d7 a7 39 bd 38 2b 6b 3c
       0.03507479 -0.07073916 -0.04532608 0.014353566
000120 c8 cf ba bd c1 1e 3a bc 43 4b 49 bb a2 86 d6 bd
       -0.091216624 -0.011359871 -0.0030715025 -0.10474898
000130 b1 63 9a bd 76 36 83 bd db ce 3b be a4 68 bd bd
       -0.07538546 -0.06406872 -0.18340628 -0.09248474
000140 db d6 93 bd 89 08 b5 bd 25 51 4a bc 90 8a 3e 3d
       -0.07218715 -0.088395186 -0.012348448 0.046518862
000150 42 d6 32 3d 16 4f 9a bd 88 18 e1 bd 58 b6 01 be
       0.043661363 -0.07534616 -0.10991007 -0.12667215
000160 72 ba 6a 3c 9d 9a 5c 3d
       0.014326679 0.05385839

ff_model.9.bias f4 [2]
000000 db 4b a6 3e f1 c6 6b be
       0.32479748 -0.23025109
