pip/Version12_7/HealtechServerDownload/BepiPred3_src/bp3/BP3Models/BP3C50IDFFNN/Fold1.pt (torch, 865935 bytes, 8 tensors)

ff_model.0.weight f4 [150, 1280]
0	0xbbd31592	-0.0064417804
1	0xbb7a5f51	-0.0038203786
2	0xbc127f10	-0.008941427
3	0xbbf79322	-0.0075553814
4	0xbaa73901	-0.0012758077
5	0x3c4e0b21	0.0125758955
6	0xbba0f47b	-0.004911957
7	0xbc40783e	-0.011747418
8	0x3c9a23ed	0.018815959
9	0xbbbb31e2	-0.0057127336
10	0x3b037fa2	0.0020065089
11	0xbb47e15a	-0.003049931
12	0xbaafbe11	-0.0013408085
13	0x3ab6c327	0.0013943658
14	0x3b5183b8	0.003196938
15	0xba8e61f2	-0.001086293
16	0xbbbafadb	-0.005706174
17	0x3b114b78	0.0022170227
18	0xbb5292ac	-0.003213088
19	0xbb22fc17	-0.0024869496
20	0x3c2cb41f	0.010540991
21	0x3c2aa695	0.010415693
22	0xbb22c756	-0.0024838052
23	0x3b5280e2	0.0032120277
24	0xbbab0ed0	-0.0052202716
25	0x3b867b70	0.0041040704
26	0xbaeca48b	-0.0018054409
27	0x3b30f81d	0.0027003356
28	0x3bb4b450	0.005514659
29	0x3bb51fd1	0.0055274745
30	0xbb39a0e7	-0.0028324665
31	0xbb9e354f	-0.004828132
32	0x3bb6061d	0.005554928
33	0xbbc4d313	-0.0060066073
34	0x3c43c40a	0.011948595
35	0x3a59fe32	0.0008315771
36	0x3c78b43a	0.015179688
37	0xbbfa1514	-0.0076319072
38	0x3b2d1ee7	0.0026416124
39	0x3bef266d	0.007298282
40	0x3b763ae2	0.0037571718
41	0x3bf2f9cc	0.007415032
42	0xb97a0646	-0.00023844195
43	0xb80ea09b	-3.4005014e-05
44	0x3a732e5b	0.0009276622
45	0x3b35cacf	0.0027739292
46	0xbb54fbfe	-0.0032498832
47	0xbbfb9334	-0.00767746
48	0xbc0abc6a	-0.008467773
49	0xbc0383d9	-0.00802704
50	0x3c0a1dd3	0.008429962
51	0x3b4d32e9	0.0031310862
52	0xbc0c0dcb	-0.00854821
53	0x3b815778	0.0039471947
54	0xbc073513	-0.0082524
55	0x3a8d45de	0.0010778268
56	0xbbc983fb	-0.0061497665
57	0xbb40c250	-0.0029412694
58	0x3bbf2290	0.0058329776
59	0xbbd1e82f	-0.0064058523
60	0x3af2fd21	0.0018538573
61	0x3ab25596	0.0013605829
62	0xbc1d7edb	-0.009612764
63	0xb9ab1e1d	-0.00032638098
64	0xba8e091f	-0.0010836459
65	0x3b45a044	0.003015534
66	0xb9987ed3	-0.0002908619
67	0x3b5a43c1	0.0033304545
68	0x3affb28e	0.001950817
69	0xb9906d04	-0.00027547043
70	0xba5b7ffc	-0.0008373258
71	0x3bb9aefc	0.0056666117
72	0x3b12d671	0.002240565
73	0x3acd112b	0.0015645375
74	0xbb4f5ab7	-0.0031639764
75	0x3c9a74ee	0.018854585
76	0x3b38dc04	0.0028207311
77	0xba242fa0	-0.00062632
78	0xbc0aefb6	-0.008480003
79	0x3b126911	0.0022340456
80	0xbc927f6d	-0.017883027
81	0xbb550cb5	-0.0032508795
82	0xbb45bf24	-0.0030173743
83	0xba00c146	-0.00049116125
84	0xbb98b54c	-0.004660284
85	0x3adc45a9	0.0016805428
86	0x3c15bc55	0.00913914
87	0x3b1f0e33	0.0024269938
88	0x3b6587df	0.0035023612
89	0xbb09e647	-0.0021041797
90	0xbc2756b0	-0.010213539
91	0xbbc14fd6	-0.0058994098
92	0xbb72807b	-0.003700285
93	0xbaab31ae	-0.001306107
94	0x3ab91ec6	0.0014123551
95	0xbb1e5f06	-0.0024165525
96	0xbc365a4a	-0.011129925
97	0x3bc19f42	0.0059088776
98	0xbb516066	-0.0031948327
99	0x3b85bcf7	0.0040813643
100	0x3bc03d65	0.005866694
101	0x3bd443f2	0.0064778263
102	0x3b5a7cff	0.0033338664
103	0x3b9431bc	0.0045225304
104	0x3b93f491	0.0045152386
105	0x3ae5bdf9	0.001752793
106	0x3b050ff0	0.002030369
107	0xbb70ebf0	-0.0036761723
108	0xbc1bc00b	-0.009506236
109	0xb98d96f4	-0.00027006085
110	0xbb46a864	-0.003031277
111	0xba68e95a	-0.000888487
112	0x38c946df	9.597628e-05
113	0xba754923	-0.00093569065
114	0x3b280458	0.0025637355
115	0xb882d8b7	-6.239249e-05
116	0xbbdf4cd7	-0.00681458
117	0xbbaf7beb	-0.0053553483
118	0x3a61e381	0.00086169696
119	0xbaaf541f	-0.001337651
120	0xbb2d959e	-0.0026486884
121	0xbb2fd403	-0.002682925
122	0x3682b047	3.8948233e-06
123	0x3abc7b78	0.0014380058
124	0x3b078cf2	0.0020683375
125	0xbab0f73a	-0.0013501414
126	0xb9a61df7	-0.00031684313
127	0xbb0bca41	-0.002133027
128	0xbc390101	-0.011291743
129	0xbb40cd53	-0.0029419258
130	0xbb89ebab	-0.004209002
131	0x3bd775d0	0.0065753236
132	0x3a56c26a	0.0008192422
133	0x3c108f69	0.008823254
134	0x3b9305af	0.0044867615
135	0xbc2cf444	-0.010556284
136	0x3b994ab5	0.004678095
137	0xbbb48b9a	-0.005509806
138	0x3c6f95c4	0.014623109
139	0xbae786a5	-0.0017664029
140	0x3b0e7924	0.0021739686
141	0xbb7366d6	-0.0037140152
142	0x3b5a2219	0.0033284484
143	0xbb8738d4	-0.0041266475
144	0xbc37b5b4	-0.011212755
145	0x3a963086	0.0011458553
146	0x3b6d1f5a	0.0036182017
147	0xb9c07b7e	-0.00036713103
148	0xbbe357a5	-0.0069379383
149	0xbafc97d5	-0.0019271324
150	0x3b8d17fd	0.004305838
151	0x3b977d2c	0.004623076
152	0x3b4d6c4d	0.003134507
153	0x3a6702e4	0.00088123814
154	0xbbcfc686	-0.0063408045
155	0xbbcb0506	-0.006195667
156	0x3c0b60ba	0.008506948
157	0xbc42728e	-0.011868132
158	0x3b3bcc4e	0.002865571
159	0x3b22d51b	0.002484626
160	0xbb1bcb26	-0.002377221
161	0x3c02d72f	0.007985874
162	0x3c194fa8	0.00935737
163	0x3b060493	0.0020449504
164	0x3a9aacdd	0.0011800785
165	0xba39dd1a	-0.00070901366
166	0xbab96832	-0.0014145433
167	0xbb40fc74	-0.0029447349
168	0xbab96c16	-0.0014146592
169	0xbbf46f16	-0.0074595315
170	0xbb88e141	-0.004177243
171	0x3b86d440	0.0041146576
172	0xbbde58e4	-0.006785499
173	0xbb35c524	-0.0027735913
174	0x3c3ffcb6	0.011717966
175	0xbacf3374	-0.0015808181
176	0x3aeadedc	0.00179192
177	0xbb6b5502	-0.0035908823
178	0x3c2df929	0.010618486
179	0x395b512f	0.00020915711
180	0x3b16595f	0.0022941453
181	0xbb8d26c5	-0.0043076
182	0xbb891c3a	-0.004184273
183	0x3c0ac9ff	0.008471011
184	0xbc0eea60	-0.008722872
185	0x3b249003	0.0025110252
186	0xbb6e5a32	-0.0036369679
187	0x3b154215	0.0022774984
188	0xbb89db76	-0.00420707
189	0x3b527c32	0.0032117483
190	0xbad4d449	-0.0016237582
191	0x3abf7d96	0.0014609571
192	0x3bb85203	0.005625011
193	0x3a304609	0.0006724303
194	0xbc115dae	-0.008872433
195	0x3c68ee63	0.014216992
196	0x3c069765	0.008214806
197	0x3c2bf778	0.010496013
198	0xbb808789	-0.003922407
199	0xba8fa58c	-0.0010959371
200	0xbb53eec5	-0.0032338363
201	0xbbcdbc15	-0.0062785246
202	0xbb44e56d	-0.0030043975
203	0x3bbeb805	0.0058202767
204	0x39e5ed99	0.00043855308
205	0x3ac1f691	0.0014798214
206	0xbb6c235c	-0.0036031818
207	0x3b0fb35b	0.0021926973
208	0x3b51d70f	0.0032019054
209	0x3c02e6d7	0.007989607
210	0xbc052517	-0.008126519
211	0x3bb70015	0.0055847266
212	0xbba4acc6	-0.005025479
213	0xbc09b0ca	-0.008403966
214	0xbaceda9e	-0.0015781706
215	0xbb72f07b	-0.0037069607
216	0xbbad332b	-0.0052856407
217	0x3b8452b2	0.0040381784
218	0xbbafcd6c	-0.0053650644
219	0x3c525eb0	0.012839958
220	0x3b6f3519	0.0036500155
221	0x3b10d943	0.0022102154
222	0x3ab617e1	0.0013892615
223	0xbbf31664	-0.0074184407
224	0x3bd16e4a	0.0063913213
225	0xbb20eb1b	-0.0024554196
226	0xbba6ff76	-0.0050963713
227	0xbbfaeb76	-0.0076574637
228	0xbc023acb	-0.007948588
229	0x3a92f3b3	0.0011211544
230	0xba966fdf	-0.0011477432
231	0x3996992f	0.0002872436
232	0x3c3ecd4a	0.011645624
233	0xbc08de85	-0.008353834
234	0x3c8605e1	0.016360225
235	0x3bf8e734	0.007595921
236	0x3c050ccb	0.008120726
237	0x3a0ba4e1	0.0005326998
238	0xbbe05caf	-0.0068469862
239	0xbb86b43c	-0.004110841
240	0xbb86a48a	-0.00410897
241	0xbb79a4d1	-0.0038092623
242	0x3bc45b76	0.0059923483
243	0x3b9e6cc2	0.0048347423
244	0x3b9cc22e	0.00478389
245	0x3ac77dea	0.001522002
246	0x3b8dfc31	0.004333042
247	0xbbef44c3	-0.007301898
248	0xbaa68339	-0.0012703902
249	0xbbccb9af	-0.006247721
250	0x3baec03e	0.0053329756
251	0x3be28902	0.0069133053
252	0xbb644c88	-0.0034835655
253	0x3bc3873a	0.005967048
254	0x3b85c488	0.0040822662
255	0xbbc358bc	-0.0059615057

ff_model.0.bias f4 [150]
0	0x3bcced32	0.006253862
1	0x3af84b64	0.0018943367
2	0x3a20f4a6	0.0006139971
3	0xba67f382	-0.0008848236
4	0x31d0d26f	6.0775203e-09
5	0xbae0a7bb	-0.0017139831
6	0x3c33de6a	0.010978321
7	0xbc1f313f	-0.009716331
8	0x3cd95597	0.02653007
9	0x3c9d7b1a	0.019223738
10	0xbaaa69e2	-0.0013001526
11	0xbb26eca1	-0.0025470632
12	0x3c3d3a4f	0.011549546
13	0x3cc6055a	0.024172474
14	0x3cb8aa75	0.022542218
15	0xafbb04be	-3.401847e-10
16	0x3b76097f	0.0037542281
17	0xbab7ca52	-0.0014022088
18	0xbb1ab8a6	-0.0023608594
19	0xbb5f985d	-0.0034117915
20	0x3cc58427	0.024110867
21	0x3cb9137b	0.022592297
22	0xbba3bf6d	-0.004997185
23	0x3ceef80a	0.029171009
24	0xbc228858	-0.009920202
25	0xbb366651	-0.0027831981
26	0x37ec71d3	2.8186396e-05
27	0x3cc5f2d3	0.02416364
28	0x3c130c30	0.008975074
29	0x3b7771fa	0.0037757144
30	0x3b3b18f5	0.002854881
31	0xafc39348	-3.5574943e-10
32	0x3bb03dab	0.005378445
33	0xbc709a53	-0.014685231
34	0x9ea42953	-1.7381267e-20
35	0x925d464d	-6.9821956e-28
36	0xb65554c6	-3.1788818e-06
37	0xbbb341cb	-0.0054704896
38	0x32e6eb52	2.6882535e-08
39	0xbba8f9e5	-0.005156743
40	0x3a320527	0.0006790929
41	0x3c8bd90c	0.01707127
42	0x3c7be6df	0.015374868
43	0xbb77b4c6	-0.0037796958
44	0xbb2e0291	-0.0026551823
45	0xbad22256	-0.0016031961
46	0x3b80877b	0.0039224005
47	0x3bfea812	0.0077715004
48	0x3ade2f62	0.0016951377
49	0xaba45fdb	-1.1679506e-12
50	0xb31a4d13	-3.5926018e-08
51	0xb37aad7f	-5.8365455e-08
52	0x3ad3586f	0.0016124378
53	0x3b3ddacd	0.0028969527
54	0xbc38d5a2	-0.011281403
55	0x3cabe564	0.020983405
56	0xbc1bcbfe	-0.009509085
57	0xbc231895	-0.009954591
58	0xa044c7dd	-1.6667975e-19
59	0xbb788226	-0.0037919371
60	0xbbde9041	-0.0067920987
61	0x3a029cbd	0.0004982462
62	0xbbeabeee	-0.007163874
63	0x3c2abe96	0.010421416
64	0xa26b0d54	-3.1855495e-18
65	0x3cae8de1	0.021307888
66	0xbbc74367	-0.006081033
67	0xa84a4ba5	-1.1229655e-14
68	0x3c63c52b	0.013901989
69	0xbab6d569	-0.0013949099
70	0x3c01b972	0.007917749
71	0x3c1d6dd2	0.009608703
72	0x3bf2625f	0.0073969807
73	0x3ba9433b	0.005165485
74	0x3bd87238	0.006605413
75	0xbbdc051a	-0.0067144753
76	0x3cb305ff	0.021853445
77	0x394b79db	0.00019404983
78	0x3a32892c	0.00068106013
79	0x3c3f052b	0.011658947
80	0x3b76e512	0.0037673158
81	0x3a97ec7c	0.0011590864
82	0xbc1479ff	-0.009062289
83	0x3bf93fa7	0.007606465
84	0x3cb60a1a	0.022221614
85	0x3c342c1b	0.010996844
86	0xa7e7216d	-6.415162e-15
87	0x3a385ea9	0.00070331484
88	0x3c65b611	0.014020459
89	0x3c396feb	0.011318187
90	0xbba2a65e	-0.00496368
91	0xbc3804fb	-0.011231656
92	0x3cc954a4	0.024576493
93	0x3c057b5f	0.00814709
94	0xbbe1a2a7	-0.0068858447
95	0xa8cd10bf	-2.2766834e-14
96	0x3c20205b	0.009773339
97	0x3c100080	0.008789182
98	0xbb1de81a	-0.0024094642
99	0xbbb6b1e0	-0.0055754036
100	0x3b6af62f	0.0035852303
101	0xa4de129b	-9.630867e-17
102	0xb8b4a95c	-8.6146145e-05
103	0x3ca9500c	0.020668052
104	0x3c5e1f9c	0.013557341
105	0x3bcd1316	0.0062583787
106	0x3c82b376	0.015954714
107	0x3c3af6d6	0.011411389
108	0x3c285266	0.010273552
109	0xbc85ec20	-0.016347945
110	0x3c6ce06e	0.014457805
111	0x3c7fb990	0.015608206
112	0xbc04c994	-0.008104701
113	0x288aebb0	1.5423291e-14
114	0xb0c664a4	-1.4435e-09
115	0xbb40f3c8	-0.002944218
116	0x3c358923	0.011080059
117	0x3cf1e12a	0.029526312
118	0xa85113f8	-1.1606161e-14
119	0x3b814255	0.003944675
120	0x3c2115b4	0.009831835
121	0x3ce3b39f	0.027795611
122	0x3bc272db	0.005934102
123	0x3ca28acc	0.019841574
124	0x3c105fea	0.00881193
125	0x3a8f2de0	0.0010923706
126	0x3c29a189	0.010353454
127	0xb3c709dd	-9.268454e-08
128	0x3ac414e0	0.0014959835
129	0x3cdd7454	0.027033009
130	0x3cadd528	0.021219805
131	0x29293d3f	3.757866e-14
132	0xbb81cbe3	-0.003961073
133	0x3bfc0248	0.0076907016
134	0x3c1d7302	0.0096099395
135	0xbc063934	-0.008192349
136	0x37a6791a	1.9845134e-05
137	0x3c3b4b01	0.011431457
138	0xbb049483	-0.0020230121
139	0x3b295458	0.0025837626
140	0x392660e7	0.00015867093
141	0x3c203cb9	0.009780102
142	0xb0835ff3	-9.558775e-10
143	0xbbfc272d	-0.0076951
144	0x330fce90	3.348265e-08
145	0x2bb1b61c	1.2627152e-12
146	0xbc07b0bd	-0.008281884
147	0x33b9c8f6	8.6512884e-08
148	0x3affa4b6	0.0019504044
149	0x3c942160	0.01808232

ff_model.3.weight f4 [120, 150]
0	0x3c662914	0.01404788
1	0x3c8c5757	0.01713149
2	0x3afb4aef	0.0019172112
3	0xbba44359	-0.0050129113
4	0xb120fe69	-2.342768e-09
5	0x39396319	0.00017679892
6	0x3c603e2d	0.013686699
7	0x3c62900a	0.013828287
8	0x3cc4b1db	0.02401059
9	0x3c863032	0.016380403
10	0x3c77f7e8	0.015134789
11	0x3c852193	0.016251361
12	0x3c82577d	0.015910858
13	0x3c8a49ff	0.016880987
14	0x3c7a2fb9	0.015270167
15	0x30319377	6.4601785e-10
16	0x3c209037	0.0098000085
17	0x3b0b6300	0.0021268725
18	0xbcb04cc5	-0.021520982
19	0x3c62d830	0.013845488
20	0x3c77f0ae	0.015133066
21	0x3c8331ee	0.01601502
22	0x3c6347d3	0.013872105
23	0x3c8ff9d3	0.01757518
24	0x3c550112	0.013000743
25	0x3c3955cc	0.0113119595
26	0x3beadaca	0.007167195
27	0x3c84e1c8	0.016220942
28	0x3c92e166	0.017929744
29	0x3c8eace9	0.017416434
30	0x3ca478ba	0.020077098
31	0x31e4d7e7	6.6602186e-09
32	0x3c5e8f53	0.013583976
33	0xbc8d1e8d	-0.017226482
34	0x1d23d4e1	2.1682926e-21
35	0x130bcb6a	1.7644557e-27
36	0x361ac58c	2.3062776e-06
37	0x3c6935c1	0.014234007
38	0xb2eaf5cc	-2.735296e-08
39	0x3c535258	0.01289805
40	0x3c679b01	0.014136077
41	0x3c93d728	0.01804693
42	0x3c97cf58	0.018531486
43	0x3c883950	0.016628891
44	0x3c6f8801	0.014619828
45	0xbc490809	-0.012269982
46	0x3c3349e7	0.010942913
47	0x3c85f109	0.016350286
48	0x3c4353df	0.011921852
49	0x2cbc215f	5.3469863e-12
50	0x3228b8cc	9.820905e-09
51	0x3536efb7	6.8149114e-07
52	0x3b4154ed	0.0029500083
53	0x3c72db04	0.014822725
54	0x3c9a6da7	0.018851114
55	0x3c770d96	0.015078923
56	0x3c80202c	0.01564034
57	0x3c4b1825	0.012395893
58	0x2057257d	1.8223612e-19
59	0x3c520db7	0.012820653
60	0x3c820812	0.015872989
61	0x3c41fdf5	0.011840333
62	0xbc62c567	-0.01384101
63	0x3c4bade4	0.0124315955
64	0xa320425f	-8.687672e-18
65	0x3c85f570	0.016352385
66	0x3c88e300	0.016709805
67	0x297e1ea0	5.6425893e-14
68	0x3c8687ed	0.016422236
69	0x3c2beae9	0.010493019
70	0x3c6892e9	0.014195182
71	0x3c3ea385	0.011635666
72	0x3c474e4b	0.012164663
73	0x3c6a7dde	0.014312236
74	0x3c4fc2e0	0.012680739
75	0x3c538081	0.012909056
76	0x3c6404e2	0.01391718
77	0x3aeb940c	0.0017973199
78	0x3c676340	0.014122784
79	0x3c4ec85c	0.012621012
80	0xbc9bf4a4	-0.019037552
81	0x3a7f8acb	0.000974816
82	0x3c821e7d	0.015883679
83	0x3c655381	0.01399696
84	0x3c7bd2ab	0.015370051
85	0x3c7a9d29	0.015296259
86	0xa538e28e	-1.6036216e-16
87	0x3c830ab9	0.015996324
88	0x3c75eab1	0.015009568
89	0x3c6f5d89	0.014609703
90	0x3c670e89	0.014102587
91	0x3c669f2b	0.014076035
92	0x3c871c1a	0.016492892
93	0x3c580fa7	0.013187326
94	0xbc568b8c	-0.013094794
95	0xa929ee7a	-3.7732384e-14
96	0x3c43b159	0.011944138
97	0x3c2416af	0.010015174
98	0xbc7ed0b2	-0.0155526865
99	0xb9d9c502	-0.00041536248
100	0x3c8a348b	0.016870758
101	0xa4d564d0	-9.254481e-17
102	0x3c4f9860	0.012670606
103	0x3c4e73bd	0.012600836
104	0x3c5f0a6b	0.013613324
105	0x3c57cee6	0.013171887
106	0x3c5b6f81	0.013393284
107	0x3c930618	0.017947242
108	0x3c72cb8b	0.014819036
109	0x3c617cf9	0.013762706
110	0x3c6f6f06	0.014613872
111	0x3c7fafff	0.015605926
112	0x3c52f89f	0.012876659
113	0xa91f8b80	-3.542609e-14
114	0x303f0c90	6.950325e-10
115	0x39ac67bc	0.00032883685
116	0x3c60f17a	0.0137294475
117	0x3c8cc108	0.017181888
118	0xa820ffbc	-8.937238e-15
119	0x3c208f94	0.009799857
120	0x3c757c5b	0.014983262
121	0x3cc93264	0.024560161
122	0x3c625150	0.013813332
123	0x3c829d23	0.01594407
124	0x3c9bb4d2	0.01900712
125	0x3c58a480	0.013222814
126	0x3c73ab7b	0.014872427
127	0xb3c927bf	-9.367022e-08
128	0x3c89337a	0.016748179
129	0x3c81393e	0.015774366
130	0x3c68ca8b	0.014208446
131	0x2b727a79	8.6145636e-13
132	0x3c7633e2	0.015027018
133	0x3c30ee23	0.010798964
134	0x3c6ea929	0.014566698
135	0x3c455251	0.012043552
136	0x3b800b60	0.003907606
137	0x3c6c14ff	0.014409303
138	0xbb31aa51	-0.0027109573
139	0x3b55d185	0.0032626104
140	0x39de2142	0.0004236792
141	0x3c974b87	0.018468631
142	0xae9333e4	-6.694004e-11
143	0xbc89e7ef	-0.016834227
144	0xb4628c96	-2.1099035e-07
145	0x2b7c36ab	8.960425e-13
146	0x3c9c00b9	0.019043313
147	0x3500d070	4.798703e-07
148	0x3c855174	0.016274191
149	0x3c9d69c9	0.019215481
150	0x3c3d3acb	0.011549662
151	0x3c8ee410	0.017442733
152	0xbbcab8c7	-0.006186578
153	0xb9f118a6	-0.00045985467
154	0xb1b7af80	-5.345953e-09
155	0xb9c0078d	-0.0003662672
156	0x3c2c35d0	0.010510877
157	0x3c506de8	0.012721516
158	0x3c913ce7	0.017729236
159	0x3c607431	0.013699577
160	0x3c8ab49f	0.01693183
161	0x3c82a345	0.015946994
162	0x3c3e21b0	0.011604711
163	0x3c5007df	0.012697189
164	0x3c3a172a	0.011358062
165	0xb015409e	-5.429771e-10
166	0x3c2ca3a5	0.010537063
167	0xbb60edda	-0.0034321458
168	0xbcb2f607	-0.02184583
169	0x3c475d26	0.012168204
170	0x3c89e1a4	0.016831227
171	0x3c5e6f08	0.013576277
172	0x3c5f892c	0.013643544
173	0x3c88ac54	0.016683735
174	0x3c3ce1b5	0.011528422
175	0x3c066b84	0.008204345
176	0x3c05f7df	0.008176773
177	0x3c83fcbb	0.016111722
178	0x3c86037e	0.016359087
179	0x3c6e2c79	0.01453697
180	0x3c958856	0.018253487
181	0xaf026327	-1.1858657e-10
182	0x3c36000b	0.011108409
183	0xbca907ca	-0.020633597
184	0x9de2aa71	-5.9997934e-21
185	0x94277037	-8.453476e-27
186	0xb481cc1d	-2.4176634e-07
187	0x3c3ceaec	0.011530619
188	0xb2efa078	-2.7896235e-08
189	0x3c455ade	0.01204559
190	0x3c63c06b	0.0139008565
191	0x3c898885	0.01678873
192	0x3c8278a4	0.015926667
193	0x3c535c61	0.012900443
194	0x3c51c1bb	0.012802537
195	0xbc8d9b77	-0.017286045
196	0x3c5e1cec	0.0135567
197	0x3c686e8e	0.014186515
198	0x3c3e11e6	0.011600947
199	0xad5e6edc	-1.2643855e-11
200	0xb164eca5	-3.3312884e-09
201	0xb5cfeaef	-1.5491077e-06
202	0xba926e22	-0.0011171738
203	0x3c18e56e	0.009332044
204	0x3c9803a4	0.018556423
205	0x3c3aa8d2	0.011392789
206	0x3c7bff7d	0.015380737
207	0x3c52f58b	0.012875925
208	0x203ce90e	1.6001331e-19
209	0x3c324d9a	0.0108827595
210	0x3c85bb2f	0.016324608
211	0x3c05222b	0.008125822
212	0xbc8aba97	-0.016934676
213	0x3c54db15	0.012991686
214	0xa3552ec9	-1.155666e-17
215	0x3c3a1c7d	0.011359331
216	0x3c8ea428	0.01741226
217	0x291ac677	3.436701e-14
218	0x3c8c1369	0.0170991
219	0x3c52947a	0.012852782
220	0x3c64e902	0.013971569
221	0x3c4e7cb6	0.012602976
222	0x3c3b2638	0.011422686
223	0x3c51300d	0.012767804
224	0x3c35e0e5	0.011100982
225	0x3c42a41c	0.011879947
226	0x3c5b8428	0.013398208
227	0xbb4b05a7	-0.003097871
228	0x3c4dcaed	0.012560588
229	0x3c3de1b9	0.011589461
230	0xbca77e0b	-0.020445844
231	0xbb902c75	-0.004399831
232	0x3c44a258	0.012001596
233	0x3c4732f9	0.012158149
234	0x3c5b86a1	0.013398797
235	0x3c3326a2	0.010934504
236	0x2718249b	2.1114081e-15
237	0x3c402de3	0.01172969
238	0x3c5f1c08	0.013617523
239	0x3c4b746e	0.012417896
240	0x3c46745b	0.012112702
241	0x3c5d9f58	0.01352676
242	0x3c6dce10	0.014514461
243	0x3c6096a8	0.013707794
244	0xbc8572b8	-0.016290054
245	0xa905b208	-2.968635e-14
246	0x3c116e24	0.008876357
247	0x3c471e6b	0.012153248
248	0xbc7ab202	-0.015301229
249	0x392fd6c2	0.00016769304
250	0x3c879388	0.01654984
251	0xa2cf48b1	-5.6184427e-18
252	0x3c76a88e	0.015054835
253	0x3c605b93	0.013693708
254	0x3c20e439	0.0098200375
255	0x3c4e748a	0.012601027

ff_model.3.bias f4 [120]
0	0x3ac3ec95	0.0014947826
1	0x3c1d4b59	0.009600484
2	0x3aee2ade	0.0018170734
3	0x3bbfcf07	0.005853537
4	0x3bf1c423	0.0073781176
5	0x3b86daeb	0.0041154525
6	0x3b04e3fe	0.0020277495
7	0x3bd3b19b	0.006460381
8	0xa3a885d4	-1.8271275e-17
9	0x3bc26ec6	0.0059336154
10	0x3b36e5f3	0.0027908057
11	0x3c2eca93	0.010668415
12	0x38cc148f	9.7313074e-05
13	0x3ba74397	0.005104493
14	0x3c8f40aa	0.017486889
15	0x3b55ef70	0.0032643937
16	0xba0213cd	-0.0004962057
17	0x3b821fd2	0.0039710784
18	0x8005cb21	-5.32046e-40
19	0x3b1fe552	0.002439816
20	0xba9b2805	-0.0011837488
21	0x3b80c269	0.0039294255
22	0x3c5dd4c8	0.013539501
23	0x3ac7a7bc	0.0015232484
24	0x3bb2c976	0.005456145
25	0x3c9147be	0.017734405
26	0x3aa7ac8a	0.001279251
27	0x3cc7f0e7	0.024406863
28	0x3be73eeb	0.007057061
29	0x3cafca22	0.02145869
30	0x9ecfe895	-2.2013171e-20
31	0x3b0d4148	0.0021553803
32	0x3b0a8e6a	0.0021142014
33	0xbadf7448	-0.0017048204
34	0x3c4be2bc	0.012444194
35	0x3bf8323f	0.007574349
36	0x3c153a34	0.009108115
37	0x3bf56217	0.0074885
38	0x3c7baa32	0.015360402
39	0x3c888000	0.016662598
40	0x3c9c51bf	0.019081948
41	0x970ca05e	-4.543885e-25
42	0x3b3be430	0.0028669946
43	0x3c1b7472	0.009488212
44	0x3a8bb723	0.0010659437
45	0x3cb05ed4	0.021529593
46	0x3c55b6de	0.013044087
47	0x3c07c500	0.008286715
48	0x3c43678e	0.011926545
49	0x3b1262ff	0.0022336838
50	0x3c75db68	0.015005924
51	0xaa65bd2c	-2.0404918e-13
52	0x3c14dbf1	0.009085641
53	0x3b19a894	0.0023446428
54	0x9bcc7449	-3.3824117e-22
55	0x39d3ee02	0.00040422386
56	0x3ba4fd08	0.0050350465
57	0x3c4d7ef6	0.012542477
58	0x3bc81a5c	0.006106658
59	0x3c60578a	0.013692746
60	0x3af4b393	0.001866924
61	0x3b13669b	0.0022491578
62	0x3bc92bbc	0.0061392467
63	0x3bb1380f	0.005408294
64	0x3cbd653f	0.023119567
65	0x3cb2ca35	0.021824935
66	0x3b9d6a5a	0.004803938
67	0xba8491e6	-0.0010114282
68	0x3a58e97a	0.0008274537
69	0x3adc0693	0.0016786627
70	0x3c8a176e	0.016856875
71	0x3b9ee054	0.0048485193
72	0x3bec7951	0.0072166105
73	0x3c9e7b6c	0.019345962
74	0x3b196b13	0.0023409768
75	0x3b9bd705	0.004755857
76	0x3c210c84	0.009829644
77	0x3bf60064	0.007507371
78	0x3b9acc05	0.004724028
79	0x3b425200	0.0029650927
80	0x3a4b8b13	0.0007764559
81	0x3bf92c48	0.0076041557
82	0x3c088a6e	0.008333785
83	0x3b89da43	0.004206927
84	0x3c79b28f	0.015240326
85	0x3c057175	0.008144726
86	0x3c2cdcf5	0.010550727
87	0xba898599	-0.0010492086
88	0x3bfb43c6	0.0076679913
89	0x3c4e3d00	0.012587786
90	0x3c3dd236	0.011585763
91	0x3ca9dfd7	0.020736618
92	0x3c185b4c	0.009299111
93	0x3c86aca5	0.016439745
94	0x3c7ff4fa	0.015622372
95	0x3b85fea6	0.0040891943
96	0xb5853cf5	-9.927013e-07
97	0x89c48ad2	-4.731583e-33
98	0x3c26e86d	0.010187251
99	0x3bc50700	0.0060127974
100	0x39c35879	0.00037259216
101	0x3c27a531	0.010232256
102	0x3b6d2dee	0.0036190706
103	0x3ab01373	0.0013433531
104	0x3b2c1a27	0.0026260705
105	0x3a6fe205	0.0009150806
106	0x3babb630	0.0052402243
107	0x3acb3ff4	0.001550673
108	0x38b5e4ad	8.673347e-05
109	0x3c50e7ec	0.012750607
110	0x3b578097	0.0032883042
111	0x3ab213fd	0.0013586279
112	0x3a838975	0.0010035472
113	0x3c025d8a	0.007956872
114	0x3b12cbda	0.0022399337
115	0x3c1788ec	0.009248953
116	0x3c3eeaed	0.01165269
117	0x3b6288d0	0.003456641
118	0x3cb03682	0.021510366
119	0x3be643f5	0.007027144

ff_model.6.weight f4 [45, 120]
0	0x3cfe20ae	0.031021442
1	0x3ce4c37a	0.027925242
2	0x3d021ad3	0.031763863
3	0x3d037c5d	0.032101024
4	0x3ce3c8b2	0.02780566
5	0x3d043d9a	0.03228531
6	0x3cf027e0	0.029315889
7	0x3cf21759	0.029552149
8	0x800002e1	-1.033e-42
9	0x3cf4156d	0.029795373
10	0x3d0ea032	0.034820743
11	0x3cf747b7	0.030185563
12	0x3cfa9779	0.030589806
13	0x3cf2467b	0.029574623
14	0x3cdb4b71	0.026769372
15	0x3d0b090a	0.033944167
16	0x3cfe86a1	0.031070055
17	0x3cff41b5	0.031159261
18	0x00005d91	3.3565e-41
19	0x3d013ab5	0.031550128
20	0x3d0150d7	0.031571236
21	0x3d062737	0.032752242
22	0x3d010fb6	0.031509124
23	0x3d044705	0.032294292
24	0x3cfbe2ee	0.030747857
25	0x3cc3cad3	0.023900425
26	0x3ced626c	0.028977595
27	0x3cc9ee1e	0.024649676
28	0x3ce989a4	0.028508015
29	0x3d03c3f3	0.032169294
30	0x1beb5055	3.8929402e-22
31	0x3d074b85	0.033031005
32	0x3cf9b9c6	0.030484091
33	0x3cf98639	0.03045951
34	0x3cdd89bf	0.027043222
35	0x3d06a8e0	0.032875896
36	0x3d01364b	0.03154592
37	0x3cef0b7a	0.029180277
38	0x3d007d3a	0.031369425
39	0x3ceee4d0	0.02916184
40	0x3ccd68a1	0.025074305
41	0x1233e2f5	5.6762187e-28
42	0x3cf6216a	0.03004523
43	0x3ccbecb0	0.024893135
44	0x3d0017ae	0.031272583
45	0x3ceafc27	0.028684689
46	0x3cf828d6	0.03029291
47	0x3cfdb7f3	0.030971503
48	0x3cdad67a	0.026713599
49	0x3d02bb85	0.031917114
50	0x3d0cd5dd	0.034383643
51	0x00000329	1.134e-42
52	0x3d0431b0	0.03227395
53	0x3cfab382	0.030603174
54	0x98607418	-2.9009934e-24
55	0x3cf9d18f	0.030495433
56	0x3cf0cdcd	0.029395008
57	0x3cff52d7	0.03116743
58	0x3ce018f3	0.027355647
59	0x3ce22f1f	0.02761036
60	0x3d034bbd	0.03205465
61	0x3d0645ff	0.032781597
62	0x3cde8458	0.027162716
63	0x3d00f320	0.031481862
64	0x3cb5865e	0.022158798
65	0x3cc5fe16	0.02416901
66	0x3ce4ebcd	0.02794447
67	0x3cffb4da	0.031214166
68	0x3ceebc70	0.029142588
69	0x3cff1a70	0.031140536
70	0x3cda6534	0.026659586
71	0x3cf7217d	0.030167336
72	0x3ceab978	0.028652892
73	0x3d069d42	0.032864816
74	0x3d0943db	0.033511978
75	0x3d0edbdb	0.03487764
76	0x3d01337e	0.031543247
77	0x3d06c1b9	0.032899592
78	0x3ce02476	0.027361136
79	0x3d06fa47	0.032953527
80	0x3cfcecf9	0.030874716
81	0x3cf7b776	0.030238848
82	0x3cf37047	0.029716624
83	0x3d032cb1	0.032025043
84	0x3cde89b8	0.027165279
85	0x3ceef84f	0.029171137
86	0x3ce31e1f	0.027724324
87	0x3ce1cfcb	0.027564904
88	0x3d04c019	0.03240976
89	0x3ceaf693	0.028682029
90	0x3ce18ff7	0.027534468
91	0x3ce177c8	0.027522936
92	0x3cebec82	0.0287993
93	0x3cd72110	0.026260883
94	0x3ce3a78a	0.02778985
95	0x3cf7c409	0.030244844
96	0x32df98e5	2.6030145e-08
97	0x0934981a	2.173823e-33
98	0x3cfa990f	0.030590562
99	0x3cf5406e	0.029937949
100	0x3cf99825	0.030468056
101	0x3ce28abc	0.027654044
102	0x3ceff94b	0.029293677
103	0x3d035dcb	0.03207187
104	0x3cf33a60	0.029690921
105	0x3cf82a4c	0.030293606
106	0x3ce542b5	0.02798591
107	0x3d0be4bf	0.034153696
108	0x3cffa866	0.031208228
109	0x3cc1b75b	0.023647001
110	0x3d14d528	0.036336094
111	0x3ceeb755	0.029140154
112	0x3d069d8e	0.0328651
113	0x3cea72bb	0.02861916
114	0x3d00fb5e	0.031489722
115	0x3ceaf420	0.028680861
116	0x3cf0b89e	0.029384907
117	0x3cc970b4	0.024589874
118	0x3ce5be49	0.028044837
119	0x3cf44491	0.029817851
120	0x000003b0	1.323e-42
121	0x80000e26	-5.076e-42
122	0x800000a1	-2.26e-43
123	0x8000025f	-8.5e-43
124	0x267f0b88	8.8486525e-16
125	0x8000000f	-2.1e-44
126	0x000001d3	6.54e-43
127	0x80000289	-9.1e-43
128	0x8000029b	-9.35e-43
129	0x23b7aaef	1.9913293e-17
130	0x80000267	-8.62e-43
131	0x00000365	1.218e-42
132	0x000001d5	6.57e-43
133	0x80000329	-1.134e-42
134	0x80000425	-1.487e-42
135	0x80000233	-7.89e-43
136	0x800003cb	-1.36e-42
137	0x000003d8	1.379e-42
138	0x000000a0	2.24e-43
139	0x000003a6	1.309e-42
140	0x8000008b	-1.95e-43
141	0x0000016a	5.07e-43
142	0x04003d30	1.5074424e-36
143	0x8000000d	-1.8e-44
144	0x80000295	-9.26e-43
145	0x800003be	-1.342e-42
146	0x8000030f	-1.097e-42
147	0x1f92ba6d	6.214182e-20
148	0x800003f8	-1.424e-42
149	0x000002ed	1.05e-42
150	0x00000129	4.16e-43
151	0x00000159	4.83e-43
152	0x80000446	-1.533e-42
153	0x00000137	4.36e-43
154	0x0fa99a5e	1.6724147e-29
155	0x000000d2	2.94e-43
156	0x0000014b	4.64e-43
157	0x000002cc	1.003e-42
158	0x0000010e	3.78e-43
159	0x0000033e	1.163e-42
160	0x00000344	1.171e-42
161	0x80000098	-2.13e-43
162	0x800003a4	-1.306e-42
163	0x8000021d	-7.58e-43
164	0x0000033b	1.159e-42
165	0x80000060	-1.35e-43
166	0x800000d2	-2.94e-43
167	0x800003b5	-1.33e-42
168	0x000000b1	2.48e-43
169	0x000001f6	7.03e-43
170	0x000000c4	2.75e-43
171	0x80000202	-7.2e-43
172	0x00000358	1.2e-42
173	0x000002df	1.03e-42
174	0x00000290	9.19e-43
175	0x8000013e	-4.46e-43
176	0x990bdc9e	-7.230685e-24
177	0x80000004	-6e-45
178	0x0000014e	4.68e-43
179	0x800002ca	-1e-42
180	0x00000315	1.106e-42
181	0x800000b5	-2.54e-43
182	0x80000284	-9.02e-43
183	0x000000cc	2.86e-43
184	0x00000019	3.5e-44
185	0x80000052	-1.15e-43
186	0x2786a48a	3.7370865e-15
187	0x80000049	-1.02e-43
188	0x80000320	-1.121e-42
189	0x80000249	-8.2e-43
190	0x0294bdcd	2.1855586e-37
191	0x00000215	7.47e-43
192	0x00000036	7.6e-44
193	0x26c285e6	1.3497747e-15
194	0x26c7d7ab	1.3866856e-15
195	0x00000053	1.16e-43
196	0x000002c5	9.94e-43
197	0x0000022f	7.83e-43
198	0x00000086	1.88e-43
199	0x800000bb	-2.62e-43
200	0x800003d0	-1.368e-42
201	0x80000354	-1.194e-42
202	0x00000219	7.52e-43
203	0x800002a2	-9.44e-43
204	0x80000387	-1.265e-42
205	0x80000280	-8.97e-43
206	0x000002ec	1.048e-42
207	0x0000001e	4.2e-44
208	0x80000015	-3e-44
209	0x00000048	1.01e-43
210	0x8000027c	-8.91e-43
211	0x00235cc5	3.247522e-39
212	0x0000025f	8.5e-43
213	0x80000056	-1.2e-43
214	0x80000175	-5.23e-43
215	0x800003a2	-1.303e-42
216	0x800004da	-1.74e-42
217	0x00000574	1.956e-42
218	0x000000ec	3.31e-43
219	0x800000e9	-3.27e-43
220	0x261585fa	5.187633e-16
221	0x80000153	-4.75e-43
222	0x88902263	-8.674769e-34
223	0x82196b5a	-1.1271473e-37
224	0x00000184	5.44e-43
225	0x00000228	7.74e-43
226	0x800003ac	-1.317e-42
227	0x000000e6	3.22e-43
228	0x8000025e	-8.49e-43
229	0x800003cc	-1.362e-42
230	0x80000366	-1.219e-42
231	0x000001e8	6.84e-43
232	0x000001a0	5.83e-43
233	0x00000006	8e-45
234	0x8000009d	-2.2e-43
235	0x00000258	8.41e-43
236	0x82677c07	-1.7006794e-37
237	0x00000137	4.36e-43
238	0x000001d8	6.61e-43
239	0x0000027a	8.88e-43
240	0x3ccf0cbc	0.025274627
241	0x3ccbbabf	0.02486932
242	0x3cd41b0a	0.0258918
243	0x3cce9adf	0.025220333
244	0x3ce55c93	0.027998244
245	0x3ce5616e	0.02800056
246	0x3ccf01bb	0.02526938
247	0x3cca17f6	0.024669629
248	0x8000040e	-1.455e-42
249	0x3cda54ae	0.026651707
250	0x3cd92762	0.026508037
251	0x3ce04693	0.027377402
252	0x3cc86113	0.024460351
253	0x3cbfe487	0.0234244
254	0x3cb9a698	0.022662446
255	0x3ce2210c	0.027603649

ff_model.6.bias f4 [45]
0	0x3b91d062	0.00444989
1	0xad376a5a	-1.04259604e-11
2	0x3d712e2c	0.058881924
3	0xb9dae0ae	-0.000417476
4	0xb81d76f2	-3.7542493e-05
5	0x3d078585	0.03308632
6	0x3d1383c6	0.03601434
7	0x3d683639	0.056692336
8	0x3d4138cb	0.047173303
9	0xb4104e09	-1.3439434e-07
10	0x3c646ff7	0.01394271
11	0x3d725bfa	0.059169747
12	0xbba5ffd7	-0.005065899
13	0x3d66e0bb	0.056366663
14	0x3d04f338	0.032458514
15	0x3d67df93	0.0566097
16	0x3cdb568f	0.026774673
17	0x3d2db497	0.042408552
18	0xb66bff35	-3.5166279e-06
19	0x3d1a69c5	0.037698526
20	0x3d21b943	0.03948332
21	0x3c31c089	0.010849127
22	0xb567661c	-8.6202795e-07
23	0x3cce455d	0.02517956
24	0x3ceead51	0.029135378
25	0x3cf79a40	0.03022492
26	0x3cd66a02	0.026173595
27	0x3d8df91d	0.0693228
28	0x3cb36e88	0.021903291
29	0x3d780f61	0.06056154
30	0x3b9a4244	0.0047076065
31	0x3d7e969b	0.062155347
32	0x3d463013	0.04838569
33	0x3c083ec8	0.0083157495
34	0xbb3d8aed	-0.0028921918
35	0x3d19c583	0.037541877
36	0xb73382df	-1.0699702e-05
37	0xba0c6a0e	-0.00053563796
38	0x3c8e9d95	0.017409125
39	0x3ca2d00d	0.019874597
40	0x3d633fec	0.055480883
41	0x3c50e613	0.0127501665
42	0x3d2e7e47	0.042600896
43	0x3d92fe0e	0.07177363
44	0x3ce2512c	0.027626596

ff_model.9.weight f4 [2, 45]
0	0x3db4f7df	0.0883634
1	0xb5985ca4	-1.1351844e-06
2	0x3c2dad5e	0.010600416
3	0x3e03ed65	0.12883528
4	0x3a55aa18	0.0008150651
5	0x3e392f30	0.18084407
6	0x3e1c39fd	0.15256496
7	0x3e1b595d	0.15170808
8	0x3d9a360f	0.07529842
9	0xafd9adda	-3.95956e-10
10	0x3e3b7ce5	0.18309362
11	0x3df6918b	0.12039479
12	0x3e3f7a1b	0.18698923
13	0x3da2a654	0.07941881
14	0x3db8b9e9	0.090198345
15	0x3e04fd48	0.12987244
16	0xbd14d897	-0.03633937
17	0x3e1ebf56	0.15502676
18	0xb97740c9	-0.0002357989
19	0x3e32cfdf	0.17462109
20	0x3d994475	0.0748376
21	0x3e379450	0.1792767
22	0xb3006031	-2.9889808e-08
23	0x3e403fd9	0.18774356
24	0x3d9d0a9b	0.076680385
25	0x3e1421bd	0.14465995
26	0xbd11e53d	-0.03561901
27	0x3db4c74c	0.08827075
28	0xbd053582	-0.032521732
29	0x3dce43e0	0.1007154
30	0x3e05b596	0.13057551
31	0x3d98fcca	0.07470091
32	0x3df863cc	0.1212841
33	0x3e101cf5	0.14073546
34	0x3e2ad3cf	0.16682361
35	0xbd44f1c6	-0.048082136
36	0xb505d704	-4.985925e-07
37	0x3e26d0b2	0.16290548
38	0xbc40fad2	-0.01177855
39	0xbce083fc	-0.027406685
40	0x3dcef75a	0.10105772
41	0xbc9be6fb	-0.019031039
42	0xbd69549e	-0.056965463
43	0x3e0c16f4	0.13680631
44	0x3e276a49	0.16349138
45	0xbe5102bd	-0.20411201
46	0xb26863e6	-1.3526892e-08
47	0xbe62c262	-0.22144464
48	0xbe528e8c	-0.2056219
49	0x3b59a008	0.0033206958
50	0xbd97e455	-0.07416598
51	0xbdfafa4d	-0.12254772
52	0xbe0b9ec9	-0.1363479
53	0xbe2b4944	-0.16727167
54	0x30b62b40	1.3254535e-09
55	0xbdcbea7e	-0.09956835
56	0xbded1e7f	-0.11578082
57	0xbe296d93	-0.16545705
58	0xbe3605ea	-0.17775694
59	0xbe39270d	-0.18081303
60	0xbdeb0957	-0.11476391
61	0x3d23bbc4	0.03997399
62	0xbe213cdd	-0.15745874
63	0xb7f0dc99	-2.8712953e-05
64	0xbda00395	-0.07813183
65	0xbe34cb11	-0.17655589
66	0xbdd54842	-0.10414173
67	0x349bca00	2.9017974e-07
68	0xbdb378ac	-0.08763251
69	0xbe4239a5	-0.18967302
70	0xbdd3ff03	-0.10351374
71	0x3d1c616f	0.038178857
72	0xbe10829a	-0.1411232
73	0x3cf6ddce	0.030135062
74	0xbe0c37ac	-0.13693112
75	0xbe240935	-0.16019137
76	0xbe373ad5	-0.17893536
77	0xbe0bd37d	-0.13654895
78	0xbe11db80	-0.14243889
79	0xbe362ff8	-0.17791736
80	0x3d62793f	0.05529141
81	0x36bd9cdd	5.6509e-06
82	0xbe31451a	-0.17311516
83	0x3d14bf66	0.036315344
84	0x3ce8e57a	0.028429735
85	0xbe177ba0	-0.14793253
86	0x3c89bbd0	0.016813189
87	0x3d6e9971	0.058251802
88	0xbdbd8035	-0.09252969
89	0xbddde8ba	-0.10835405

ff_model.9.bias f4 [2]
0	0x3e6ce633	0.23134689
1	0xbb7eab84	-0.0038859555
