pip/Version12_7/HealtechServerDownload/BepiPred3_src/bp3/BP3Models/BP3C50IDFFNN/Fold2.pt (torch, 865935 bytes, 8 tensors)

ff_model.0.weight f4 [150, 1280]
00000000: 878e 2abb ff38 713a 86a8 1bbc b42b 74b9
00000010: 9979 af3b b222 13bc 08ea cdbb e944 50bc
00000020: 9191 713c a506 50bc 2ad7 ad39 7a00 40bb
00000030: 7ccb e5ba 8392 87ba 001b 203b e76d 24bc
00000040: 031f a6bb e99f f0bb df72 44bb cec4 9abb
00000050: 1ebb 473c 6aa2 4a3c ff2f a83b 680a cd3b
00000060: 99a2 23bb 4630 613c aef8 44bb 2f98 753b
00000070: c63a d43b ec1c 133b 7fa0 b03b 7341 17bc
00000080: 7a97 053c b8ac da3a c099 bd3b da5c bfb9
00000090: e7e5 5c3c 4be7 46bc ea25 5bba c7e8 9f3b
000000a0: 3465 0fba d267 cd3b df66 3e3c 4f0a 4a3b
000000b0: 77a6 01bc 79cf 023c cbcc 883b fc64 13bc
000000c0: 2e31 38bc a5e1 06bc 83df 053c d7d8 83ba
000000d0: bb5d e8bb b5fa 75bb 73f7 573b 4d1d fd3b
000000e0: c954 2dbc 279b e0bb 41ed cabb c495 bab9
000000f0: 6593 29bb f03f 3f3b 1c9b bebb 0503 bbb8
00000100: 0ac4 3f3b 90ce ca3b f78f feb8 0945 1eba
00000110: ce22 1eb9 8d8d 823b 5695 25bb 943b fa3b
00000120: 89de 853a 0a6b 20ba 549f b7bb d84a 843c
00000130: 3302 8dbb 87ba d835 f79e 813b ee83 a93a
00000140: cabc a0bb 8510 64bc da36 c2bb 6907 df3a
00000150: 80ae a1bb fd12 063c 384d 883c c8e0 a3bb
00000160: be2d 603b fe96 4c38 30a3 bdbb 2faf 11bc
00000170: bbf1 a9bb 6526 13bb 8458 0d3a a6c9 3dbb
00000180: c5b4 0bbc a565 d23b f7f9 173b 7caf e6bb
00000190: 75fa b23b 2141 37bb 35fb 6abb 6fc8 ed3b
000001a0: 5615 dc3b 6ce9 3bbc 0c06 91b7 a643 e1bb
000001b0: 45fe 08bc e0bc 013c 8909 82bb 1f98 373a
000001c0: 45d4 3fbb 137b 3c3a cd34 4a39 bbe5 60bb
000001d0: 5b02 bf3b 1760 573a 3d3a 6cbb 13f0 483b
000001e0: fa0d 11bc e0c5 92bb 4868 b1bb cbca 773b
000001f0: 7226 9e3b e121 98ba 7009 1dba a7e8 ccbb
00000200: d096 e9ba e38e 94ba d53b 473b 7347 073c
00000210: a9e3 f0ba f19a ec3b 207c 9dbb dce0 c4bb
00000220: ce81 2b3a 094b 63bc 6312 333c 2c5d 1d3a
00000230: 0c44 0eb9 e53b 14bc 302b 9bba 37bd ff3b
00000240: 9fea 27bc 3379 573b 4527 383b 4c9b 2a3b
00000250: db41 1fbc 5b53 8e3a 9292 f03b 049f e33a
00000260: 3c7e 853b d373 113a a832 21ba 598f 943b
00000270: 8439 5f3b 61fc 96bc 3418 b63a 0738 a03a
00000280: f224 323b eeb1 8a3b da37 d03b 871e ca3a
00000290: 44d1 243b ed65 8abb 2feb f83b f11d d6ba
000002a0: d522 733c 0eb8 3e3b 5962 a7bb fd68 ef3b
000002b0: aba9 0fbc eabb 143b 343c 9e3b 730a 1abb
000002c0: c2c6 d6bb c490 2fbc 09cc 8b3a 7e8b c63b
000002d0: ea5d 9c3b 03ae 23bb 2039 ddb9 c145 bc39
000002e0: ceb0 94bb c6e1 8d3b d4dc 24ba 1b52 05bc
000002f0: 9b88 62bb cc9e 343b af63 33bb 5a30 f33b
00000300: f2ea 933c fd74 dfb9 5a32 06bc 3e9a 0c3c
00000310: 8f3d 593b dc68 d93b 9daa a23b 9e2c 073b
00000320: dfc4 c5bb b177 e6bb 04a5 33bc 88b8 293c
00000330: a396 e03a 8840 893b ee00 83bb 30e4 da3b
00000340: 9dab 76bb a756 70bb 056f 5abc 6cef 903b
00000350: d227 4db9 4ed2 5fba 45b8 6aba 8530 803b
00000360: 8253 213b 460b 49ba af0a b43b 23c0 fa3b
00000370: 5772 dd3a bd60 a7b9 9591 57ba 5a54 e1bb
00000380: 77d4 cb3a e627 bbbb ef22 0ebc dbde 67bb
00000390: 9e32 abbb db02 923b 9bdc 5abb a313 fc3b
000003a0: e42f 473c 8b95 d2bb b617 183d 0334 e3bb
000003b0: 800d 1a3c 91ee bab8 5e95 48bc e84a 50bc
000003c0: 6b1b a8bb adf8 e9bb 660f 543c 896c 9c3b
000003d0: b43c 693b 0f9e a53b 6ddb 19bc 90fb 773b
000003e0: 5a09 2fbb dca8 b73a fffd 6cba b2ef de3b
000003f0: 14b7 84bb 1998 473c 0308 b83a d5f3 c3bb
-0.0026024894 0.00092019135 -0.009500628 -0.00023285934 0.0053550717 -0.00898044 -0.006284002 -0.012711742
0.014744178 -0.012696897 0.0003315744 -0.002929716 -0.0017531957 -0.0010343347 0.0024430156 -0.010035968
-0.005069615 -0.0073432815 -0.0029975695 -0.004723168 0.012190608 0.012367824 0.0051326747 0.006257344
-0.0024968742 0.013744419 -0.0030055451 0.0037474742 0.006476733 0.0022447659 0.0053902264 -0.009231913
0.008153791 0.0016683554 0.0057861507 -0.0003649954 0.013482547 -0.0121401055 -0.00083598366 0.004880044
-0.00054700975 0.00626848 0.011621206 0.0030828898 -0.0079132235 0.007984036 0.004174804 -0.0089962445
-0.011242194 -0.008232509 0.008170965 -0.001005913 -0.0070912517 -0.0037533466 0.0032953888 0.00772444
-0.010579296 -0.006854433 -0.0061928337 -0.0003558827 -0.0025875208 0.0029182397 -0.0058168303 -8.917417e-05
0.0029261135 0.006189175 -0.00012138479 -0.0006037509 -0.0001508102 0.0039841593 -0.0025266013 0.007636497
0.0010213415 -0.00061194657 -0.00560371 0.01614897 -0.0043032407 1.6147541e-06 0.0039557177 0.0012932995
-0.004905318 -0.013919954 -0.005926949 0.0017015758 -0.004934132 0.008183238 0.016638383 -0.0050011612
0.0034206952 4.8778013e-05 -0.0057872757 -0.008891865 -0.005186287 -0.0022453305 0.0005391913 -0.0028959303
-0.0085269855 0.0064208084 0.0023189762 -0.0070399623 0.0054619857 -0.0027962404 -0.0035855297 0.0072565596
0.0067164106 -0.011469226 -1.7288163e-05 -0.0068745194 -0.008361404 0.007918566 -0.003968422 0.0007003564
-0.002927081 0.00071899703 0.00019283891 -0.0034316618 0.005829138 0.00082159176 -0.0036045455 0.0030660674
-0.00885343 -0.004479155 -0.0054140426 0.0037810083 0.0048263604 -0.0011606776 -0.0005990481 -0.0062533203
-0.0017821435 -0.0011334087 0.0030400653 0.008256781 -0.0018378395 0.007220619 -0.0048060566 -0.0060082506
0.0006542475 -0.01387287 0.010929677 0.00060029584 -0.00013567525 -0.009047483 -0.0011838432 0.0078045386
-0.010248809 0.0032878637 0.0028099578 0.0026032506 -0.009720291 0.0010858582 0.0073416913 0.0017366116
0.004073886 0.000554857 -0.0006149211 0.00453369 0.0034061382 -0.01843089 0.0013892711 0.0012223729
0.0027182666 0.0042326367 0.0063543143 0.0015420475 0.0025149146 -0.0042235763 0.0075963954 -0.0016335828
0.014839848 0.0029101404 -0.0051081595 0.0073062168 -0.008768479 0.0022695013 0.004828954 -0.0023504763
-0.0065544555 -0.010715667 0.0010665666 0.0060591092 0.0047719376 -0.0024975545 -0.00042194966 0.00035910125
-0.0045376783 0.004329893 -0.00062890095 -0.008137251 -0.0034566286 0.002756047 -0.0027372648 0.0074215354
0.018056367 -0.00042621038 -0.008190716 0.008581696 0.0033148264 0.0066348147 0.0049641863 0.002062596
-0.0060354318 -0.0070333113 -0.010964636 0.010358937 0.0017134737 0.004188601 -0.0039979136 0.006680034
-0.003763891 -0.0036672743 -0.013332133 0.0044230726 -0.00019565158 -0.0008538113 -0.000895385 0.003912034
0.0024616425 -0.00076692214 0.0054944376 0.007652299 0.0016895038 -0.00031924798 -0.00082232925 -0.0068765106
0.001555099 -0.0057115434 -0.008675321 -0.0035380635 -0.00522454 0.004455907 -0.0033395651 0.0076927706
0.012157414 -0.0064265183 0.037131988 -0.0069336905 0.009402633 -8.9136076e-05 -0.012242643 -0.012713172
-0.0051302216 -0.00714024 0.012943124 0.0047736806 0.003558916 0.0050542424 -0.009390694 0.0037839152
-0.0026708455 0.0014012116 -0.0009040534 0.0068034763 -0.004050145 0.012182259 0.0014040474 -0.005979995

ff_model.0.bias f4 [150]
00000000: 4b05 ac3c e713 ec36 8d77 003d d7b5 3ebb
00000010: 8c12 90ba 924c a7ba 5967 703c 3bcb fd3c
00000020: 9306 003c cacb b43c fce6 5f3b c73b b13c
00000030: d609 c53b 5650 6ebb 4c7f f03b 2b6b 813a
00000040: c915 e63c 5554 35b8 f442 c6ba ccfa b13c
00000050: 47bc a838 8cf5 b03a 2e3f 313b 8479 55bc
00000060: 41dd 89bb 11c8 b43c 5b60 a83c 0061 553c
00000070: 73a6 cdb7 75bc 043d 93db 503c d098 a0ba
00000080: 6d41 a43b ad0e b3ba 16f2 d03c ff43 0cbc
00000090: 83a6 9e3c e5ae e83c 89c6 f2bb 2bdc 963c
000000a0: 9857 4d3b 90d7 853c e4b5 69bc 9ee9 e637
000000b0: a75f 903c 83dc d53c 6d8c 033c cd3c d43c
000000c0: 4eed 113c 2366 60ba bf2b 213c aa39 eabb
000000d0: 259e d13c f221 883c 75f8 a53c c2ba 8abc
000000e0: 4930 07bc bcbf 973c ba98 043b b5a4 efbb
000000f0: 15c9 bf3c b2ce 4f3b 9b92 da39 4d72 4b3c
00000100: 33d5 2f3c 9a8f 0d3c b262 a63c f61f 1db7
00000110: b44f 38bb 212d e83a f81e 9b3c 430e 6fb8
00000120: 9187 983b 9e57 78bc 2e7a 34bb e1be 02bc
00000130: d550 563a 5e38 f63c 7071 bb3b 058b f7bb
00000140: c3ee 2a3c 0813 00b7 ba71 8eba 86d6 5bbc
00000150: a996 d93b 20e2 33bb 33b3 9c3b d255 933c
00000160: 420b 143d c40f 0c3d 1c1a b93c 2c88 d939
00000170: 262d 6339 d777 94b9 c829 8abc 7235 00bc
00000180: 155e 163c f96c 6e3b 4924 0b39 ca23 8cbb
00000190: 1737 843c f0e2 a337 f2d3 5c3b d479 aeb9
000001a0: f88c 0d3d bca7 cb39 3fb8 673c ba97 b9bb
000001b0: 8edd 5abb b524 b1bb ad32 bc3b b5bf 083d
000001c0: 0b1f 8838 b1b7 7dba 4aa0 903c 4ffd c13c
000001d0: 0516 30b7 12a9 7f3c aa67 0932 88d3 ef3b
000001e0: 10d9 35bc b23a 8a3c 0934 20bc 8e3c ee3b
000001f0: ea10 29bc f028 e73c c28a a93b 64f4 d7b7
00000200: 6349 ee3a fe7f 853c 691e 96bc 5c38 903c
00000210: 5ca4 17bb 08de e636 7e62 953c 31c9 943c
00000220: 4999 ad39 921c f03c e605 3cbb c623 eeb5
00000230: 1998 a13b aa85 ffb8 c4eb 1938 1714 05bb
00000240: 3589 7739 128d 4dbc aa57 ebbb 3003 053c
00000250: 4b6b 25b8 fe22 823c
0.020998618 7.035665e-06 0.031364013 -0.0029100084 -0.0010991856 -0.0012763909 0.0146730775 0.030980697
0.007814067 0.02206983 0.0034164777 0.02163495 0.0060131354 -0.0036363802 0.0073393937 0.0009873857
0.02808656 -4.3232303e-05 -0.0015126155 0.021726035 8.045934e-05 0.0013500913 0.0027045715 -0.01302946
-0.0042072837 0.022068055 0.020553758 0.013023615 -2.4515413e-05 0.03240629 0.012747663 -0.0012252573
0.005012682 -0.001366099 0.02550606 -0.008561133 0.019366508 0.028403709 -0.007408921 0.018415531
0.0031332728 0.01633814 -0.0142645575 2.7526923e-05 0.017623736 0.026106125 0.008029086 0.025907898
0.0089066755 -0.00085601414 0.00983709 -0.0071479874 0.025588105 0.016617749 0.020260075 -0.016934756
-0.008251258 0.018524043 0.0020232634 -0.007313336 0.023411313 0.0031708893 0.0004168943 0.012417388
0.010731983 0.008640194 0.020310733 -9.365371e-06 -0.0028123679 0.0017713645 0.018935665 -5.6995323e-05
0.0046548326 -0.015157608 -0.0027538645 -0.007980079 0.0008175497 0.030056175 0.00572031 -0.007554414
0.010432902 -7.633826e-06 -0.0010867633 -0.013417846 0.0066402745 -0.0027448013 0.0047821044 0.017985258
0.03614355 0.034194723 0.022595458 0.0004149092 0.00021665226 -0.00028318047 -0.016865626 -0.007825242
0.009177704 0.003638087 0.0001326959 -0.0042767273 0.01613955 1.953679e-05 0.0033695665 -0.00033278635
0.034558266 0.0003884415 0.014143049 -0.005663839 -0.0033396217 -0.005405987 0.0057433457 0.03338595
6.4907676e-05 -0.0009678556 0.017654557 0.023680357 -1.0495544e-05 0.015604274 7.99802e-09 0.0073189177
-0.011099115 0.016873691 -0.009778031 0.0072704023 -0.010318974 0.028217763 0.005174012 -2.57438e-05
0.001817983 0.016296383 -0.018325048 0.017605 -0.0023138737 6.880382e-06 0.018235441 0.018162342
0.00033111338 0.029310498 -0.002869004 -1.7742793e-06 0.0049314615 -0.000121842444 3.6697616e-05 -0.0020306164
0.00023606869 -0.012545841 -0.007182081 0.008118436 -3.943899e-05 0.015885826

ff_model.3.weight f4 [120, 150]
00000000: 7659 99bb eceb e93a 6eec 493b f8ad 12bc
00000010: 6b62 8f3c 4624 3c38 11db 8c3c da0f ce3c
00000020: 475f 29bc a9f4 ac3c 6eb6 28b9 8f91 043d
00000030: 54e8 a23c a860 0b3a bea1 ad3c 50bb 183c
00000040: 86f7 5e3c b5ce 0d3b 166b 893c a390 ea3c
00000050: 3202 7638 414b 5fba 41aa 5b38 c91c a53b
00000060: ad0b c13a 7f9f f33c 75ca 183b 5e9d ebbb
00000070: c7d2 26ba 7ce1 e5bb 0050 8d3c 4fcf d3ba
00000080: 590e fd3c 336a 133c bd30 943c 40c6 823c
00000090: e6eb 3f3b 118f e2bb 1ce1 92bc a336 de3c
000000a0: 9953 343c 4373 173b 2255 613c 1d6a 3ab9
000000b0: 87bc c93c c473 623c 1b09 2d3c 2a85 4f3c
000000c0: 759c f23b 0a94 063b c4a4 923c 5c7a 543c
000000d0: 5253 1d3c 97d4 723c a6ce 433c 8593 0c3d
000000e0: 96bd c0bb df1a 393c fd01 f33b 8f25 653c
000000f0: a0b3 923c fbab f43b d1d5 1539 2a69 053c
00000100: ab55 973c c47f a4ba 035a 7e3c 3063 2038
00000110: 2b00 193a 0431 4fbb 7f23 e23c d3b2 1438
00000120: a913 523b 0559 0a3c af9b 013d a2b6 75bc
00000130: 05c9 0b38 5263 e23c 007f 3ebb cb88 a8b9
00000140: 2612 30bb 0524 a5b4 6dad 913c 486a 7d3c
00000150: 5d46 2ebc b67a 233b 60a6 493c ff30 403c
00000160: 4fe1 b93b 0cba d63b 236d 863c 1d78 4338
00000170: d3c8 e438 b503 c53a d7d6 fe3c 8b36 25bc
00000180: 0cfb 083b 9dab d03c 750d 3338 1843 8f3c
00000190: 18b6 873c e54a 3e38 6a76 6d3b 333e 06b9
000001a0: db38 1f3c 430e eabb 4be1 10bc 1459 45ba
000001b0: 5d43 08bc 5d48 b43c 31fd 1637 aefd 0a3d
000001c0: 7c94 1b38 b882 23ba 73c0 95bb 2050 53ba
000001d0: c9b9 8c3c 1e40 d23b c263 2d37 35d4 21bc
000001e0: 90db 9a3c 88ce 9abb 672a 683c d881 d43c
000001f0: 8b59 a83c e34a 913c ae62 bc3b 1d28 d736
00000200: 9719 ad3c ec85 113c 9fdb 12bb 0772 1d3c
00000210: 3317 773a 970e 5f38 13ac f7bb e32c 2a3c
00000220: bd98 bebb 739b db3c a7ca 903b 9700 3e3a
00000230: 3665 cf38 2dd8 e637 6d80 4a3a 5ad1 6f38
00000240: 0b9d b7b7 fba1 eabb 3a14 2dba 02d3 983c
00000250: f840 d839 f153 ab3c e603 f83c 4f63 32b7
00000260: 2d48 903c 07ae d63c 8ef3 a03b b450 4a38
00000270: 991f a43c 0f1a 2b3c 80f5 39bc d24b debc
00000280: 7e73 b839 6f5b a83c 0097 933b ca70 8237
00000290: c771 373c f382 c53c 73e1 0d3d 6f33 d739
000002a0: 40f2 c73c 38b7 023d 8056 2338 023c 13bb
000002b0: 5747 2c39 bade e5bb ffa4 0b39 f89d 243c
000002c0: 6bba 923c 3da7 d53c 0607 98b9 6476 67bc
000002d0: 045d e03c 9aec 42bc a182 84bc d97c 9b3c
000002e0: 5aea 283d eca7 4f3a 9866 42bc aa03 f9bb
000002f0: f881 373d 0129 9c3c 6472 0d3c 2fd8 003d
00000300: 395f 0f3d 0b6c c5b6 91e2 973b 346c 553d
00000310: 2829 c63c 11b3 543c dc1d b23b b273 193b
00000320: af18 8b3c 2c89 1c3d 0c3b 953c e3a3 e23c
00000330: 2c36 a93c cc60 493d 73c7 5abb 914f d2ba
00000340: ec2d bf3b 7da8 953c 4074 d43c 9859 c43c
00000350: 8d9c 8f38 de53 0c3c 509a 8f3c 35f1 2b3d
00000360: 27b3 283c f382 7bb9 4e11 d43c b221 a6bc
00000370: e58f 8ebb 1725 3a38 02bf cd3a c40f aa3c
00000380: cada 713d f9ed 6c3d ff73 b3b8 80fa f13c
00000390: 84e8 903b df4d 903a 264a c235 bb9f d3b9
000003a0: 641e 893b 55ac ed3b e248 8bbb 81c8 053a
000003b0: 3dcb c3bc 4b74 993b 4fc1 953c b8a1 263c
000003c0: 1eef cc3a 3677 a7b9 74c1 083b cdf0 4f38
000003d0: f1dd 49bc 9d91 b2ba 1109 99bb 7b06 9b3a
000003e0: eda7 0632 909c bd3c a852 333d 6a3a 2938
000003f0: f548 3a3b 307e 9438 2d52 813c 470d a5bb
-0.004679854 0.00178468 0.003081109 -0.00895261 0.017502984 4.4856475e-05 0.017194303 0.025154043
-0.010337657 0.021112757 -0.00016089689 0.032365378 0.019886173 0.0005316832 0.021195289 0.0093220025
0.013608819 0.00216381 0.016774695 0.028633421 5.8653015e-05 -0.00085179886 5.237223e-05 0.005038832
0.0014728211 0.02973914 0.0023314033 -0.0071903905 -0.0006363806 -0.007015405 0.017250061 -0.0016159805
0.03089063 0.008997488 0.018089646 0.015963674 0.0029284894 -0.0069140275 -0.017929606 0.027125662
0.011006259 0.0023109473 0.013753207 -0.00017777873 0.02462603 0.013821546 0.010561253 0.012666026
0.007403905 0.0020535016 0.017900832 0.012968626 0.009602385 0.014821193 0.011951124 0.034320373
-0.0058819754 0.0112979105 0.0074160085 0.013986005 0.017907917 0.0074667907 0.000142894 0.008142749
0.018473467 -0.0012550284 0.01552439 3.823935e-05 0.0005836512 -0.003161491 0.027604816 3.5452493e-05
0.0032055175 0.0084440755 0.031642612 -0.014997156 3.3327397e-05 0.02763525 -0.0029067397 -0.00032145376
-0.0026866286 -3.0759853e-07 0.017782891 0.015467234 -0.010636893 0.0024944968 0.012307733 0.011730432
0.005672611 0.0065529402 0.016409462 4.6603487e-05 0.000109092936 0.0015031012 0.031108303 -0.010083805
0.0020901589 0.025472457 4.268946e-05 0.017488047 0.016566321 4.536928e-05 0.003623391 -0.00012802407
0.009718145 -0.0071428134 -0.0088427765 -0.0007528227 -0.008316842 0.022007162 8.999647e-06 0.033933334
3.7093167e-05 -0.0006237435 -0.004570061 -0.0008060951 0.017178433 0.006416335 1.033483e-05 -0.009877254
0.018903524 -0.0047243275 0.014170266 0.02594082 0.02055051 0.017735904 0.005749068 6.412169e-06
0.021130366 0.008882027 -0.0022408736 0.009609706 0.0009425759 5.318093e-05 -0.0075583546 0.010386678
-0.0058165477 0.026807522 0.0044186893 0.00072480127 9.889381e-05 2.7518801e-05 0.00077248254 5.7177014e-05
-2.1888429e-05 -0.007160423 -0.000660244 0.018655304 0.00041247136 0.02091405 0.030275296 -1.0632749e-05
0.017612541 0.02620603 0.0049118465 4.8235714e-05 0.020034598 0.010443225 -0.011350036 -0.027135763
0.00035181263 0.020551411 0.0045040846 1.554973e-05 0.01119656 0.024110293 0.034638833 0.00041046317
0.024407506 0.031913012 3.8942788e-05 -0.0022466187 0.00016429774 -0.0070150765 0.00013317539 0.010047428
0.017911157 0.026080722 -0.00028996932 -0.014127348 0.027388103 -0.0118972305 -0.01617557 0.01898043
0.04123912 0.00079214456 -0.011865281 -0.0075993137 0.044801682 0.019062521 0.00863323 0.03145617
0.03500292 -5.8836354e-06 0.004635163 0.052105144 0.024189547 0.012982146 0.0054356884 0.0023414907
0.016979543 0.038216755 0.018216632 0.027666038 0.020655714 0.04916458 -0.003338304 -0.0016045441
0.0058343317 0.018268818 0.025934339 0.023968503 6.847931e-05 0.008564917 0.017529637 0.04197808
0.0102966195 -0.00023986008 0.025887158 -0.020279739 -0.0043506497 4.43804e-05 0.0015697184 0.02075947
0.059046544 0.057844136 -8.556991e-05 0.029538393 0.0044222493 0.0011009536 1.4475706e-06 -0.00040364065
0.004184531 0.0072532096 -0.0042506317 0.0005103425 -0.023900623 0.0046830527 0.018280653 0.010170393
0.0015635227 -0.0003194154 0.002086726 4.957691e-05 -0.012320981 -0.0013623718 -0.0046702703 0.0011827493
7.8380085e-09 0.023145944 0.04378 4.0347142e-05 0.0028424833 7.080694e-05 0.015786255 -0.005036983

ff_model.3.bias f4 [120]
00000000: 92a9 063d 72b7 5cbc 5189 22bd e358 9e3c
00000010: 8e9f 083c 0013 2fbc c85f 3e3d 03f2 81bc
00000020: facd d9bc f59c 9f3c 723b b8bc 71e4 f0bc
00000030: c3ee 323d f28e 313d 8114 543d 9806 933d
00000040: 0eb0 783d 9a71 5f3d daab 02bd 1f20 123d
00000050: 3f53 093b e538 883d 1264 2d3d a7ed 62bc
00000060: 70fb cdbb 93a9 6a3d af56 a53d 1951 4fbc
00000070: 9dbd 1ebc 0f79 e83b c068 d4bc 3996 d9bb
00000080: c777 82bc cf85 0a3d 0c98 283c 6775 9eba
00000090: e5c3 1fbc 5f5f d63c b7e3 1ebc e38b 76bc
000000a0: 4628 4cbc bb2e 653c 2477 a83d 4097 d73b
000000b0: 8cc4 993b b952 bebb 7d89 af3c 1224 b2bc
000000c0: 84fd 98bc d70d 193d f776 06bd aff5 8bbc
000000d0: ead9 103d fb66 6a3d 9781 513c a627 d53b
000000e0: 61bd b2bc 4aa4 273d 50f6 4e3d 18dd 4b3d
000000f0: 0784 043d c3f0 913d 6934 793d bd86 923d
00000100: 0bcb 1f3c f618 623c 6ce3 fe3b d1f1 b6bc
00000110: 8c53 573d 0fb1 4c3d 3e18 583d 57d7 3abc
00000120: cf81 6dbc ff58 513c 6931 97ba c674 e73c
00000130: e8d8 793c 085b e63c d70e 423d de62 983c
00000140: 10f1 d43c 9f4e 86bc 5e13 43bc 64e6 a23d
00000150: a8ae 92bc 59c0 5dbc cfe4 bc3c 1cc9 963c
00000160: 7b0f 903c f256 be3b 2cfb adba a37a ffbc
00000170: 3a94 773d 3fe7 3c3d 3ae0 bbbc 8519 3b3c
00000180: c78b 313b 0154 a63a e15b 4e3d 2dea 12bb
00000190: c995 d03c 095d c23c a41c 16bc 732a 383b
000001a0: 1075 503d ac45 2ebd 14a5 bfbb e6ec 6cbc
000001b0: 27c9 db3b d88d f1bc 9b73 08bd 29d8 123d
000001c0: 2a55 a3bb a03f ccbb d031 c3bc 9566 4f3d
000001d0: 0e21 7bbc 71a5 32bb c631 883d 777b 5a3c
0.03287656 -0.013471471 -0.039681736 0.019329494 0.008338822 -0.010685682 0.046478063 -0.01586247
-0.026587475 0.019484023 -0.022489283 -0.029405804 0.043684732 0.043349214 0.051777367 0.07178992
0.060714774 0.0545517 -0.03190217 0.035675164 0.002095416 0.06651477 0.042331763 -0.013850606
-0.006286077 0.057290625 0.08073174 -0.0126536125 -0.009688762 0.0070945094 -0.025928855 -0.0066402224
-0.015926255 0.033819016 0.010290157 -0.0012089432 -0.009751295 0.026168523 -0.009697846 -0.015048
-0.012460774 0.013988192 0.08225849 0.0065793097 0.0046926197 -0.005808201 0.021427864 -0.021745715
-0.018675573 0.037366714 -0.032828297 -0.017084925 0.03536407 0.057227116 0.012787244 0.0065049706
-0.021818819 0.040928163 0.05052787 0.0497714 0.032352474 0.07126 0.060840998 0.071546055
0.009752999 0.013799896 0.0077785756 -0.022332104 0.05256991 0.049973544 0.052757494 -0.01140388
-0.014496281 0.012777566 -0.0011535111 0.028253924 0.015249468 0.028119579 0.047377434 0.018601831
0.025993854 -0.016394911 -0.011906473 0.079541 -0.017905548 -0.013534629 0.023058323 0.018406443
0.017585507 0.0058087045 -0.0013273708 -0.031186407 0.060444094 0.04611897 -0.022934068 0.011419659
0.002709137 0.001268983 0.05038059 -0.0022417412 0.025462048 0.023726003 -0.009162102 0.0028101474
0.05089289 -0.042546913 -0.0058485363 -0.014460778 0.006707329 -0.029486582 -0.033313375 0.035850678
-0.0049845176 -0.0062331706 -0.023827463 0.05063494 -0.015327705 -0.0027259255 0.066501185 0.0133351

ff_model.6.weight f4 [45, 120]
00000000: 1ac5 fa3b 9062 e23c b97d 0d3d d8bc c63c
00000010: 33a2 a93c c082 c53c 2fa8 7e3c 714c c43c
00000020: c265 d23c 3e55 7d3c a6bd 1c39 251a 323c
00000030: 5bc5 993c 371a 253d c5c7 3a3d 3cf3 ba3c
00000040: 8bdb cb3c 92cf 3e3c f71b ecb7 f0b4 c03b
00000050: d3d4 243c 7e99 cd3c e6d0 ea3c 2b5e e13c
00000060: cc1c c63c 9cc7 c73c a0bc 213d 3062 84ba
00000070: 4b6b d73c 7d6d 9e3c f1b1 c03c 2d79 eb3c
00000080: a2da a33c a3b0 0a3d b798 963b 642f 63bb
00000090: 253b 433a 8090 8c3c 5c8f 993c c9b6 0b3d
000000a0: 236a c53c ebc5 183c 16ad 013d cc81 e03c
000000b0: e302 a33b 5eba e03c 067b cd3c 6f11 a53c
000000c0: 0d1a 0f3b 2154 843c e7bc a13c 7fd7 ed3c
000000d0: 6f96 ce3c 81f8 553d 2b41 9a3c 6ad8 a83c
000000e0: f7b5 f63b 022f a93c df30 e53c f6d9 633c
000000f0: 25e2 793c 9f2d 0a3d a512 a13c 206f 083c
00000100: 169d 843c b5f6 b43c 56a4 8d3b cfa7 b339
00000110: 7f1c 6d3b e568 0b3c 8ed2 9f3b 3ec5 303d
00000120: 84e6 213c 476f c23c 6322 d23c 821d 533c
00000130: 98eb a33c 58d2 2c3c 2935 d33c c1b0 bd3c
00000140: 94b3 8d3c ba2c bb3c 3e4a 703a de0f 233d
00000150: 4f1a b33c 13a8 f638 f8d7 c23c ac5b 293d
00000160: 4050 b13b 21f5 473c c358 cb3c edc3 0e3c
00000170: 2f08 d93c e0b6 963c 9d1d 1f3d eac1 053c
00000180: 3813 d93c 233a d63c 48e3 abbb f742 f33b
00000190: ce7c df3c babb 783b 7561 bf3c b999 e53b
000001a0: 2001 3a3d ccfd c43c 6f13 d83c a310 5a39
000001b0: 82e0 b53c 8888 dd3c 419a 353d 532a 753c
000001c0: c7fa 9b3c c678 7e3b 83be a33c abbf b03b
000001d0: a2c5 b13c 8018 0139 9d14 d93b 4129 7d3c
000001e0: abc3 033d 1c72 9e3c d401 8a3c c3ed 7a3d
000001f0: 92bb f93c 50b1 ec3c 6634 ae3b cace 8bbb
00000200: 3517 6abc d873 883d 60bc 7139 3faf 983c
00000210: 3e87 71bc 38b8 1d3d 2275 a4bc d4ef 42bc
00000220: 975f f23c 9159 763c af76 0a3a 5361 2a3c
00000230: d00b a7bc d06e 633d 505b c83c 1ad6 423d
00000240: 1d19 363c 5855 083d 8a0c 7c3c 288f 9d39
00000250: ca25 63bc e323 1f3d 8576 3e3b 5a6b b63c
00000260: 488d 5d3c 8a04 8dbc cac1 f83b 8868 2f3a
00000270: 25fd c83a a2f6 3c3d 92bc 9e3c 8e54 2d3d
00000280: eda0 db3c 5acf f73b 62f1 2c3d 3583 173d
00000290: b3f6 aeba 563e ec3c 0296 d03c 3db9 c43b
000002a0: 672e d03a 81e4 c53c af1b 2f3c 68f9 203d
000002b0: ac4d 253c 0ce0 a3bc 98b5 7e3c e7e4 1b3d
000002c0: 62e7 643d 2b25 e93c 66eb c43c 9c3c 893c
000002d0: 8d08 c23b cef3 893d 250e 6ebc 3897 423d
000002e0: f916 223d 035a 033d 01c6 e63b b043 923a
000002f0: 340c fabb a166 733d 9c23 633c 34be 813d
00000300: fa11 123d bde8 843c ad62 103d a94a 173c
00000310: e435 143d ab88 123d 7286 303d 033a db3c
00000320: 2946 73bc f096 913c 4e10 933d 25b0 6d3d
00000330: b534 31bc 9ec6 163a 985d dd3c 6ed8 11bc
00000340: 60a0 993b 30d3 773c 1de2 893d a555 563b
00000350: c531 903d 4848 eb3c b1d0 f83c 2574 bf3b
00000360: 00ff 053d 6650 973d 592a e33b 75c7 073c
00000370: d03a 053c a9d4 b43b 77bf 173d 92af 9d3b
00000380: 7cba 523d 8c0f 083d 22ce f93c 737c 293d
00000390: 529c dc3b dffd 283c 7249 7d3d f99a 6a3c
000003a0: 3b81 0d3d 549c 943b a5d3 933d 1582 313c
000003b0: af72 b93c 718f 8eb7 efde ea3c bba2 9f3c
000003c0: 5050 bdba 6981 cabb 19b4 d4bb 10e5 b0bb
000003d0: 0be1 93bb 1c86 bcbb 70a8 0ebb 21f4 8bbb
000003e0: ad5d f0bb 3e67 3a3a 63a5 4739 b588 78bb
000003f0: 1d26 24bc dc14 1fbc 95b6 a53c 55ec 3b3b
0.007652891 0.027634889 0.034543727 0.02425997 0.020707225 0.024110198 0.015543028 0.023962231
0.025683288 0.015462218 0.00014947969 0.010870491 0.018770864 0.040308204 0.04560067 0.022821061
0.02488496 0.011646168 -2.8146414e-05 0.0058809444 0.010060507 0.025097605 0.028664064 0.027510723
0.024183653 0.024387173 0.039486527 -0.0010100063 0.026296278 0.019339317 0.02352235 0.028744305
0.020001713 0.03385986 0.0045958417 -0.0034665698 0.0007447473 0.017158747 0.018745117 0.034109864
0.024098461 0.009324531 0.03165921 0.027405642 0.0049747094 0.027432617 0.025083076 0.020149915
0.0021835596 0.016153397 0.019743396 0.02903342 0.025218217 0.052238945 0.018829903 0.020611007
0.007529016 0.020652298 0.027977405 0.013906946 0.015251671 0.033734914 0.01966221 0.0083272755
0.016188186 0.022090295 0.004322569 0.00034266568 0.0036180315 0.0085088955 0.004877395 0.043156855
0.009881619 0.023734702 0.025651162 0.012885453 0.0200098 0.010548197 0.025782185 0.023155572
0.017297544 0.022848476 0.00091663364 0.039810054 0.02186313 0.000117615 0.023784623 0.04134719
0.005411178 0.012204439 0.024822598 0.0087137045 0.02649316 0.018397748 0.0388466 0.0081639085
0.026498422 0.026150769 -0.0052456 0.0074237543 0.027281191 0.003795369 0.0233619 0.0070068506
0.04541123 0.024046801 0.026376454 0.00020796298 0.02220178 0.027042642 0.04433656 0.014963704
0.019040478 0.003882931 0.019988304 0.0053939424 0.021700684 0.00012311526 0.0066247717 0.01545173
0.032169025 0.019341521 0.016846575 0.061261903 0.030484948 0.028893143 0.005316305 -0.0042665945
-0.01428776 0.066627204 0.00023053726 0.018638251 -0.014741717 0.038505763 -0.020075385 -0.011898
0.029586596 0.015036003 0.00052819675 0.01039918 -0.020391375 0.0555256 0.024457604 0.047567464
0.011114386 0.033284515 0.015383849 0.00030052033 -0.01386399 0.038852584 0.0029062342 0.022267986
0.013522454 -0.017214078 0.007591461 0.00066912966 0.0015334232 0.046133645 0.019377027 0.042316966
0.026810134 0.00756256 0.042222388 0.036990363 -0.0013348669 0.028838318 0.025462154 0.0060035274
0.001588297 0.02415681 0.010687753 0.039300352 0.010089319 -0.020004295 0.015546225 0.038060095
0.055884726 0.028460106 0.024038028 0.016752534 0.0059214295 0.06735955 -0.0145297395 0.047507495
0.03957269 0.032068264 0.007042647 0.0011159088 -0.0076308493 0.059424046 0.01386347 0.063351065
0.035661675 0.01622426 0.035250355 0.009234109 0.036184207 0.035774868 0.043096967 0.02676106
-0.01484827 0.017772168 0.07180844 0.058029313 -0.010815789 0.0005751642 0.027022168 -0.0089016985
0.0046883076 0.015126035 0.06732581 0.0032704857 0.07040743 0.02872099 0.03037295 0.005842703
0.03271389 0.07388382 0.0069325385 0.0082873 0.008131698 0.005518515 0.03704783 0.0048121894
0.051447377 0.03321795 0.0304938 0.04137845 0.006732502 0.010314434 0.06183762 0.014319175
0.034547072 0.0045352373 0.07218102 0.010834237 0.022637693 -1.6994514e-05 0.028670756 0.019486776
-0.0014443491 -0.0061799777 -0.006491196 -0.0053984 -0.004512911 -0.005753292 -0.0021767877 -0.004271046
-0.007335386 0.0007110721 0.0001903973 -0.003792328 -0.010018853 -0.009709563 0.020228663 0.00286748

ff_model.6.bias f4 [45]
00000000: 3893 ab3d 9c47 233d c259 fe3c 54a9 cf3b
00000010: 39eb cbbc ef7a c1bc 3f40 8f3d 0685 253c
00000020: 80e1 c53b 1250 403d d265 d1bc 5170 3a3d
00000030: ffbb 55bd 96a5 d43c 8b13 623d 8732 9939
00000040: 0955 cdbc f0d0 b53d 7a7a 173d 23c1 4cbd
00000050: 5ddd 323d 1dec 19bd 4bcb 46bd fcb7 0e3d
00000060: d7b1 963d 1c2d aabc a1e7 963d c030 993d
00000070: 36b4 413d a9af 32bc a148 acbc a4c2 2d3d
00000080: 990f f639 ea61 3f3d 0b9f 973c c796 663b
00000090: adb3 88bd 5824 693c 9a49 a03d 3873 91bc
000000a0: 3014 383d c965 ba3d 13c5 b63d ac87 ecbb
000000b0: 15f2 683d
0.08377689 0.039863214 0.03104866 0.006337324 -0.024892436 -0.02361819 0.06994676 0.010102516
0.0060388446 0.04695136 -0.025561247 0.04551727 -0.05218124 0.025957864 0.05519442 0.0002922008
-0.025064962 0.08877742 0.036982037 -0.049988877 0.04366814 -0.03757869 -0.04853372 0.03484343
0.07358139 -0.020773463 0.073683985 0.074800014 0.047291003 -0.010906138 -0.021030726 0.042421952
0.00046932398 0.046724238 0.018508455 0.0035185085 -0.066748954 0.014229856 0.078265384 -0.017755136
0.044941127 0.09101445 0.08924308 -0.007218322 0.056871492

ff_model.9.weight f4 [2, 45]
00000000: cd6b 69bd 52ec 393d 2bad abbc 13bc cc3d
00000010: 84f8 403d 6cad 033e 82db 233d dfe7 53bd
00000020: 9ed0 c3bd 314b 5abd c5e3 bdbb 1c50 663c
00000030: 387a a1bd 4532 bcbd f5cb d63d 0286 173e
00000040: aaf8 fc3d ca5d 213c 9e3b 45ba b7d5 1e3e
00000050: eff2 5cbd 4f1f df3c 3372 993d f65e adbd
00000060: 5e68 273d 5d3f 0f3e 5e36 cf3d 8454 223e
00000070: 1161 d6bc 764e a1bd 41d0 56bd bcc1 aebd
00000080: 4736 833c 9e15 ae3d 2909 f33d 8d09 093d
00000090: 32bf 56bd dfd9 6c3d 8464 bc3d c744 003e
000000a0: 61a2 db3d 74bb 99bc 5292 223d dc15 ba3d
000000b0: 9284 b1bd 4b50 1cbe ccaa a4bd b06d a63a
000000c0: 5f81 bdbd f15e 2bbe 707d 1bbe 79ff a8bd
000000d0: 4585 d03c 68f6 5bbd 06a0 36bd b619 933d
000000e0: f0a0 cb3d 02f5 173d 669c 8e3d 9cb5 fcbd
000000f0: b680 d2bc 4dbc b0bc 8976 c0bd 271b e3bd
00000100: 5795 82bd 3500 7a3d 9006 823d f5f0 bbbd
00000110: 6499 823d d006 0fbe 4918 81bc 1925 49bd
00000120: ed4c 243d db37 18be 603c fe3c f0e2 04bd
00000130: 66c7 ffbc 11db ad3d 49c5 f43b 3470 6fbd
00000140: 76c5 eebd a41d ef3c 0057 ecbd 1a5e cfbd
00000150: 7dc7 b1bd 068f a3bd db45 efbd 4b63 9fbd
00000160: f24e cfbd 5fc3 743c
-0.056987572 0.04539139 -0.020956596 0.0999681 0.047112003 0.12859124 0.04000426 -0.0517348
-0.09561275 -0.053294364 -0.0057949745 0.0140571855 -0.078846395 -0.09189276 0.104881205 0.14797214
0.123521164 0.009849021 -0.0007523837 0.15511213 -0.053942617 0.027236609 0.07492485 -0.08465378
0.040871017 0.13989015 0.101177916 0.15852553 -0.026169332 -0.07876293 -0.0524447 -0.08533046
0.016017092 0.08500217 0.118669815 0.033456374 -0.05242843 0.057824966 0.09198859 0.12526236
0.10724331 -0.018766142 0.039690323 0.090862006 -0.08667864 -0.15265004 -0.080403894 0.0012697484
-0.09253191 -0.16735436 -0.1518457 -0.082518525 0.025454173 -0.05370179 -0.044586204 0.07182638
0.09942806 0.037098892 0.069634244 -0.12339327 -0.02569614 -0.021574164 -0.09397609 -0.11089163
-0.063761406 0.061035354 0.06348908 -0.09176818 0.06376913 -0.13967443 -0.01575865 -0.049107645
0.040112425 -0.14865057 0.031034648 -0.032442987 -0.03122301 0.08489049 0.0074698073 -0.058456615
-0.116587564 0.029188938 -0.115400314 -0.1012537 -0.086806275 -0.07986264 -0.11683246 -0.077826105
-0.101224795 0.014939158

ff_model.9.bias f4 [2]
00000000: 7ba2 3b3e 3f0e 18be
0.183237 -0.14849184
