pip_packaging/Version12/BP3/bp3/BP3Models/BP3C50IDSeqLenFFNN/Fold3.pt (torch, 866575 bytes, 8 tensors)

ff_model.0.weight f4 [150, 1281]
-1.226e-42 -1.586e-42 -4.29e-43 -9.57e-43 -1.379e-42 1.064e-42 1.638e-42 -1.087e-42
-1.5e-42 1.43e-43 -1.574e-42 1.58e-42 -2.54e-43 1.401e-42 1.49e-42 5.41e-43
5.7e-43 1.38e-42 -7.8e-43 -1.394e-42 2.14e-43 5.8e-43 -8.2e-43 6.68e-43
-1.85e-43 -8.91e-43 1.551e-42 9.5e-44 -7.16e-43 1.52e-42 1.258e-42 1.257e-42
-3.36e-43 -1.321e-42 -1.072e-42 -3.15e-43 1.39e-43 1.49e-42 1.261e-42 -4.97e-43
-6.99e-43 -1.635e-42 -1.355e-42 -2.13e-43 -6.61e-43 -1.05e-43 5.6e-44 -1.4e-42
-8.9e-43 5.24e-43 1.522e-42 -8.41e-43 -1.477e-42 8.28e-43 5.34e-43 8.62e-43
-4.46e-43 -2.23e-43 -2.56e-43 -4.3e-43 -5.18e-43 -4.92e-43 6.77e-43 -8.18e-43
-1.411e-42 9.15e-43 4.25e-43 1.195e-42 -3.98e-43 -2.4e-44 1.434e-42 5.96e-43
1.543e-42 7.3e-44 -1.299e-42 2.48e-43 -3.22e-43 -4.22e-43 -1.474e-42 -1.18e-43
-7.76e-43 -1.562e-42 -8.44e-43 9.4e-43 8.41e-43 -8.88e-43 7.76e-43 7.97e-43
-6.32e-43 1.75e-43 -1.526e-42 6.26e-43 -6.68e-43 3.1e-43 -1.414e-42 1.456e-42
-3.35e-43 -1.579e-42 9.43e-43 -5.79e-43 1.47e-42 -6.05e-43 -1.275e-42 -3.98e-43
-1.164e-42 5.72e-43 3.5e-43 1.35e-43 -1.38e-42 6.71e-43 1.338e-42 1.655e-42
1.602e-42 -4e-44 1.384e-42 -8.34e-43 2.19e-43 -3.5e-44 -9.8e-44 -6.1e-43
1.93e-43 5.06e-43 -4.74e-43 -5.32e-43 6.67e-43 -2.98e-43 1.113e-42 -3.53e-43
1.551e-42 1.658e-42 1.359e-42 -8.06e-43 4.96e-43 -3.81e-43 9.94e-43 2.27e-43
-1.354e-42 4.01e-43 1.544e-42 9.1e-43 -8.72e-43 1.449e-42 -8.21e-43 1.624e-42
1.136e-42 1.215e-42 -3.6e-43 -1.351e-42 1.555e-42 2.91e-43 -3.6e-44 4.01e-43
-4.53e-43 -2.34e-43 1.275e-42 -7e-45 -5.18e-43 -1.651e-42 3.85e-43 -1.3e-43
-4e-44 -9.19e-43 -3e-44 1.57e-42 -1.32e-42 1.35e-42 -1.553e-42 1.47e-42
-1.162e-42 3.22e-43 -1.321e-42 2.66e-43 -1.337e-42 5.3e-43 -4.19e-43 3.98e-43
8.4e-44 6.53e-43 1.484e-42 5e-44 9.99e-43 1.122e-42 -1.363e-42 -5.11e-43
-1.204e-42 -3.92e-43 -1.258e-42 -8.8e-44 9.92e-43 1.244e-42 -3.8e-43 -1.442e-42
-1.04e-43 1.054e-42 6.15e-43 1.408e-42 7.58e-43 1.218e-42 -1.247e-42 5.69e-43
-3.3e-43 1.513e-42 -8.95e-43 3.45e-43 7.62e-43 -1.467e-42 -1.157e-42 4.09e-43
1.88e-43 2.66e-43 -9.4e-44 3.42e-43 1.341e-42 -7.37e-43 -1.46e-42 7.33e-43
-8.73e-43 5.27e-43 -1.64e-42 1.592e-42 -7e-43 1.525e-42 -7.16e-43 -1.107e-42
1.5e-42 5.7e-43 3.04e-43 1.37e-42 -9.98e-43 -8.07e-43 1.041e-42 -5.9e-44
1.316e-42 -1.425e-42 1.2397933e-07 5.6e-44 1.152e-42 -1.386e-42 7.7e-44 -4.5e-44
-1.532e-42 6.59e-43 -5.54e-43 -1.174e-42 2.63e-43 -1.452e-42 9.95e-43 -1.012e-42
4.6e-44 -1.23e-43 -6.28e-43 1.285e-42 -3.5e-44 -1.122e-42 -1.286e-42 -1.387e-42
00000000: 6b03 0080 6c04 0080 3201 0080 ab02 0080
00000010: d803 0080 f702 0000 9104 0000 0803 0080
00000020: 2e04 0080 6600 0000 6304 0080 6804 0000
00000030: b500 0080 e803 0000 2704 0000 8201 0000
00000040: 9701 0000 d903 0000 2d02 0080 e303 0080
00000050: 9900 0000 9e01 0000 4902 0080 dd01 0000
00000060: 8400 0080 7c02 0080 5304 0000 4400 0000
00000070: ff01 0080 3d04 0000 8203 0000 8103 0000
00000080: f000 0080 af03 0080 fd02 0080 e100 0080
00000090: 6300 0000 2704 0000 8403 0000 6301 0080
000000a0: f301 0080 8f04 0080 c703 0080 9800 0080
000000b0: d801 0080 4b00 0080 2800 0000 e703 0080
000000c0: 7b02 0080 7601 0000 3e04 0000 5802 0080
000000d0: 1e04 0080 4f02 0000 7d01 0000 6702 0000
000000e0: 3e01 0080 9f00 0080 b700 0080 3301 0080
000000f0: 7201 0080 5f01 0080 e301 0000 4802 0080
00000100: ef03 0080 8d02 0000 2f01 0000 5503 0000
00000110: 1c01 0080 1100 0080 ff03 0000 a901 0000
00000120: 4d04 0000 3400 0000 9f03 0080 b100 0000
00000130: e600 0080 2d01 0080 1c04 0080 5400 0080
00000140: 2a02 0080 5b04 0080 5a02 0080 9f02 0000
00000150: 5802 0000 7a02 0080 2a02 0000 3902 0000
00000160: c301 0080 7d00 0000 4104 0080 bf01 0000
00000170: dd01 0080 dd00 0000 f103 0080 0f04 0000
00000180: ef00 0080 6704 0080 a102 0000 9d01 0080
00000190: 1904 0000 b001 0080 8e03 0080 1c01 0080
000001a0: 3f03 0080 9801 0000 fa00 0000 6000 0000
000001b0: d903 0080 df01 0000 bb03 0000 9d04 0000
000001c0: 7704 0000 1d00 0080 dc03 0000 5302 0080
000001d0: 9c00 0000 1900 0080 4600 0080 b301 0080
000001e0: 8a00 0000 6901 0000 5201 0080 7c01 0080
000001f0: dc01 0000 d500 0080 1a03 0000 fc00 0080
00000200: 5304 0000 9f04 0000 ca03 0000 3f02 0080
00000210: 6201 0000 1001 0080 c502 0000 a200 0000
00000220: c603 0080 1e01 0000 4e04 0000 8902 0000
00000230: 6e02 0080 0a04 0000 4a02 0080 8704 0000
00000240: 2b03 0000 6303 0000 0101 0080 c403 0080
00000250: 5604 0000 d000 0000 1a00 0080 1e01 0000
00000260: 4301 0080 a700 0080 8e03 0000 0500 0080
00000270: 7201 0080 9a04 0080 1301 0000 5d00 0080
00000280: 1d00 0080 9002 0080 1500 0080 6004 0000
00000290: ae03 0080 c303 0000 5404 0080 1904 0000
000002a0: 3d03 0080 e600 0000 af03 0080 be00 0000
000002b0: ba03 0080 7a01 0000 2b01 0080 1c01 0000
000002c0: 3c00 0000 d201 0000 2304 0000 2400 0000
000002d0: c902 0000 2103 0000 cd03 0080 6d01 0080
000002e0: 5b03 0080 1801 0080 8203 0080 3f00 0080
000002f0: c402 0000 7803 0000 0f01 0080 0504 0080
00000300: 4a00 0080 f002 0000 b701 0000 ed03 0000
00000310: 1d02 0000 6503 0000 7a03 0080 9601 0000
00000320: eb00 0080 3804 0000 7f02 0080 f600 0000
00000330: 2002 0000 1704 0080 3a03 0080 2401 0000
00000340: 8600 0000 be00 0000 4300 0080 f400 0000
00000350: bd03 0000 0e02 0080 1204 0080 0b02 0000
00000360: 6f02 0080 7801 0000 9204 0080 7004 0000
00000370: f401 0080 4004 0000 ff01 0080 1603 0080
00000380: 2e04 0000 9701 0000 d900 0000 d203 0000
00000390: c802 0080 4002 0080 e702 0000 2a00 0080
000003a0: ab03 0000 f903 0080 2e1f 0534 2800 0000
000003b0: 3603 0000 dd03 0080 3700 0000 2000 0080
000003c0: 4504 0080 d601 0000 8b01 0080 4603 0080
000003d0: bc00 0000 0c04 0080 c602 0000 d202 0080
000003e0: 2100 0000 5800 0080 c001 0080 9503 0000
000003f0: 1900 0080 2103 0080 9603 0080 de03 0080

ff_model.0.bias f4 [150]
1.17965644e-23 8e-44 -2.633e-42 -4.065856e-32 0.018503286 0.013041756 -2.7e-44 3.22e-43
-1.41e-42 -1.401e-42 0.007742286 -4.0262273e-37 -9.35e-43 4.43e-42 0.012767412 7.31e-43
-6.2309238e-09 3.398802e-10 2.71e-42 9.2e-43 -7.41e-43 0.01789688 0.028366582 0.013122337
5.405e-42 1.375e-42 -1.30845e-40 7.4843723e-13 -4.0673334e-07 -1.64e-43 0.003996992 0.008114217
0.018238699 1.02e-43 0.008737153 0.019164855 9.585e-42 0.011269236 -1.918e-42 0.015259707
-9.95e-43 -2.1054296e-15 2.047e-42 0.023867723 2.929e-42 -1.347e-42 0.02323128 0.012845613
-4.965176e-13 2.2837819e-12 0.014067464 0.022853917 -1.082e-42 3.035e-42 2.8920735e-09 3.122e-42
-1.236e-42 -1.35e-43 -2.3470863e-17 0.014720369 4.62e-43 0.021973161 -0.007674141 0.019765072
0.004837 0.012085512 0.0019455148 -5.75962e-28 -0.010314415 0.01205207 -3.91e-43 -0.00038605946
2.68e-42 0.014359336 -1.3984887e-19 1.073526e-39 1.1404429e-06 -1.656e-42 0.021309333 -0.0007471827
3.914e-42 0.013261604 1.376e-42 0.011584455 -2.561252e-11 -6.362927e-13 2.1415866e-20 -1.1410534e-10
-3.14e-43 -8.79e-43 4.592046e-31 1.67e-43 7.38e-43 0.02193708 -6.7433486e-37 -7.45322e-24
-7.48e-43 3.6758338e-36 1.708e-42 0.010018365 0.01426601 1.211e-42 0.019391295 1.403e-42
0.027195612 0.007722816 -4.08e-43 -2.09e-42 0.003348072 1.29e-42 -7.888601e-10 2.263e-42
-1.11e-42 4.5731707e-30 -1.582e-42 0.01677476 -0.0012408922 6.855843e-06 -3.048e-42 0.019575942
0.01661802 1.4372464e-10 4.13e-43 6.8867974e-13 4.149e-42 -8.185745e-14 4.935e-42 0.011329243
0.0143772485 0.006171419 -1.3724385e-22 0.010119988 0.0032133227 -2.627e-42 -1.32e-42 -1.9192294e-18
0.01994854 0.007752577 4.85e-43 0.0076959515 0.00080451474 -1.333e-42 0.015194192 -4.722e-42
-1.1308094e-12 0.017805018 -4.47e-43 -3.294e-42 -1.278e-42 0.018820599
00000000: c22d 6419 3900 0000 5707 0080 7f1c 538b
00000010: 3494 973c 17ad 553c 1300 0080 e600 0000
00000020: ee03 0080 e803 0080 01b3 fd3b 6301 0983
00000030: 9b02 0080 590c 0000 682e 513c 0a02 0000
00000040: c917 d6b1 e3d9 ba2f 8e07 0000 9102 0000
00000050: 1102 0080 7a9c 923c 0961 e83c 12ff 563c
00000060: 110f 0000 d503 0000 be6c 0180 96aa 522b
00000070: 015d dab4 7500 0080 33f9 823b 7ef1 043c
00000080: 5369 953c 4900 0000 4726 0f3c 9dff 9c3c
00000090: b81a 0000 9aa2 383c 5905 0080 da03 7a3c
000000a0: c602 0080 52b6 17a7 b505 0000 3e86 c33c
000000b0: 2a08 0000 c103 0080 864f be3c 6876 523c
000000c0: ddc1 0bab f5b4 202c 387b 663c 2338 bb3c
000000d0: 0403 0080 7608 0000 e5bd 4631 b408 0000
000000e0: 7203 0080 6000 0080 027b d8a3 b42d 713c
000000f0: 4a01 0000 0f01 b43c 5c77 fbbb 5cea a13c
00000100: b27f 9e3b 5002 463c a500 ff3a 9787 3692
00000110: cbfd 28bc 0c76 453c 1701 0080 0668 cab9
00000120: 7907 0000 6c43 6b3c ba1a 25a0 8eb0 0b00
00000130: 5211 9935 9e04 0080 e990 ae3c 95de 43ba
00000140: e90a 0000 3347 593c d603 0000 bacc 3d3c
00000150: 454a e1ad b919 33ab 6344 ca1e 99eb faae
00000160: e000 0080 7302 0080 3a05 150d 7700 0000
00000170: 0f02 0000 64b5 b33c da76 6583 8f2a 1099
00000180: 1602 0080 495a 9c04 c304 0000 1224 243c
00000190: fcbb 693c 6003 0000 7eda 9e3c e903 0000
000001a0: 55c9 de3c ad0f fd3b 2301 0080 d305 0080
000001b0: 546b 5b3b 9903 0000 18d7 58b0 4f06 0000
000001c0: 1803 0080 8582 b90e 6904 0080 396b 893c
000001d0: 6fa5 a2ba 3e0b e636 7f08 0080 ba5d a03c
000001e0: 8422 883c e406 1e2f 2701 0000 9bd8 412b
000001f0: 910b 0000 9b53 b8a9 c20d 0000 4a9e 393c
00000200: 8d8e 6b3c 9d39 ca3b eaea 259b 4ece 253c
00000210: 9c96 523b 5307 0080 ae03 0080 389d 0da2
00000220: 1f6b a33c 5409 fe3b 5a01 0000 522e fc3b
00000230: 12e6 523a b703 0080 0ff1 783c 2a0d 0080
00000240: b425 9fab d4db 913c 3f01 0080 2f09 0080
00000250: 9003 0080 a82d 9a3c

ff_model.3.weight f4 [120, 150]
-2.9838688e-17 4.4935037e-22 2.427e-42 -7.989375e-32 0.013109778 0.008004216 1.103e-42 -7.289685e-39
9.3e-43 4.807261e-15 0.004307071 5.883074e-37 1.2453443e-13 2.129e-42 0.009595085 6.0965966e-25
-1.8285445e-07 4.672118e-10 2.4e-43 2.085e-42 9.47e-43 0.010456917 0.01982634 0.01630171
-1.085e-42 1.13e-42 -7.7e-43 -4.7356706e-15 -1.7696753e-07 1.749e-42 0.00015871016 0.005924488
0.013407428 1.263e-42 0.0066843894 0.01878195 -1.058e-42 0.0048094667 -1.618e-42 0.011981524
-1.603e-42 -5.8518393e-16 5.91e-43 0.019972784 2.333e-42 -3.87e-43 0.012264317 0.011386001
-2.1784379e-06 -2.85874e-13 0.015342554 0.017564174 6.24e-43 -1.65e-42 -9.612855e-11 -1.761e-42
-1.094e-42 2.514e-42 6.904012e-12 0.00909007 -1.6163673e-23 -0.014924361 -0.00026294787 0.01470824
0.003866425 0.0122766 -0.0001161894 -1.4980221e-21 -0.0003060486 0.011577845 9.65e-43 -0.0010577525
1.609e-42 0.017509574 -1.061177e-29 -3.0837e-41 3.4666382e-14 1.442e-42 0.013285215 -0.0014245663
-1.509e-42 0.0115872035 -1.125e-42 0.01049861 -6.150269e-08 -1.4715818e-07 8.371246e-21 5.8499134e-12
7.8e-44 -3.2247892e-23 1.0428583e-29 -5.68e-43 4.365e-42 0.014398527 -1.9079092e-21 1.10792307e-16
-5.717e-42 -7.782095e-36 2.66e-43 0.010914136 0.008677828 -8.167075e-31 0.017078614 -4.5361855e-22
0.019751621 0.0103576705 -9.482125e-18 -2.483e-42 0.0036367504 -1.198e-42 -2.7130833e-08 -3.548e-42
-6.830019e-17 2.7142705e-29 6.6e-44 0.012437599 -0.00021508892 -8.780678e-06 -1.812e-42 0.015235316
0.017319899 6.609366e-11 -1.641e-42 -1.2773998e-11 1.627e-42 1.2481717e-06 1.911e-42 0.00541193
0.011340666 0.0066692317 -7.43e-43 0.007373461 0.0021711118 1.586e-42 9.814861e-19 1.7e-44
0.021211283 0.0025812879 1.002e-42 0.008799202 0.000948411 -4.222202e-24 0.007840436 1.638e-42
-1.5481804e-08 0.01742379 -6.564858e-10 -1.799e-42 3.46e-43 0.015475316 3.4173053e-14 8.04e-43
-1.05e-42 -3.0593722e-31 0.014972037 0.008741391 2.58e-43 -1.4494e-41 -6.56e-43 -1.5221473e-28
0.008860245 3.5339297e-37 6.880735e-30 7.44e-43 0.013524625 -3.84e-43 2.461198e-08 -6.511496e-24
-2.604e-42 1.396e-42 -2.242e-42 0.012480001 0.022440935 0.018591478 1.331e-42 1.138e-42
-7.1e-43 1.1537696e-23 -4.084146e-07 1.152e-42 9.079437e-05 0.0060085366 0.016116275 -1.316e-42
0.006725825 0.021351157 1.57e-43 0.006775711 -1.778e-42 0.010756769 1.958e-42 -9.477687e-16
-2.074e-42 0.019711964 -4.46e-42 8.21e-43 0.015684888 0.01281343 -6.318294e-07 1.6869503e-14
0.013864786 0.016862584 1.145e-42 -2.08e-42 -6.635713e-10 1.497e-42 5.97e-43 -9.67e-43
4.462049e-09 0.013157983 4.3973584e-27 -0.011882855 -3.6222584e-06 0.016678715 0.0065759905 0.010927726
0.000104589475 1.5859555e-27 -0.0001517939 0.010368577 1.5e-44 0.0027409336 7.89e-43 0.019363342
-6.2092706e-25 8.180998e-39 1.9895955e-17 -2.16e-43 0.015334837 0.0017946144 -1.501e-42 0.010744729
4.79e-43 0.011201284 1.2309952e-09 -2.3799352e-08 3.3003308e-20 1.917035e-11 2.808e-42 5.8858443e-15
1.8249853e-29 6.59e-43 -1.551e-42 0.018696688 1.76594e-39 4.2484755e-13 -1.893e-42 -2.1358545e-36
1.823e-42 0.014006425 0.01330371 7.508544e-39 0.01881233 -2.4755328e-35 0.020620594 0.008804415
00000000: 4e9b 09a4 cdce 071c c406 0000 816a cf8b
00000010: 65ca 563c 1d24 033c 1303 0000 ad60 4f80
00000020: 9802 0000 2833 ad27 5522 8d3b cd30 4803
00000030: 9b36 0c2a ef05 0000 b434 1d3c 37ae 3c17
00000040: a656 44b4 1c6d 0030 ab00 0000 d005 0000
00000050: a402 0000 7d53 2b3c d96a a23c 2a8b 853c
00000060: 0603 0080 2603 0000 2502 0080 da9e aaa7
00000070: 7704 3eb4 e004 0000 6f6b 2639 3522 c23b
00000080: d4aa 5b3c 8503 0000 b908 db3b 9bdc 993c
00000090: f302 0080 bb98 9d3b 8304 0080 274e 443c
000000a0: 7804 0080 f4aa 28a6 a601 0000 f79d a33c
000000b0: 8106 0000 1401 0080 46f0 483c 598c 3a3c
000000c0: 4731 12b6 c9ee a0aa 565f 7b3c bee2 8f3c
000000d0: bd01 0000 9904 0080 9063 d3ae e904 0080
000000e0: 0d03 0080 0207 0000 d0e9 f22c 84ee 143c
000000f0: 5153 9c99 4f85 74bc 44dc 89b9 d4fa 703c
00000100: d963 7d3b cb23 493c b6aa f3b8 ec5f e29c
00000110: 2675 a0b9 00b1 3d3c b102 0000 49a4 8aba
00000120: 7c04 0000 3d70 8f3c 763b 578f f655 0080
00000130: 9e1f 1c29 0504 0000 3baa 593c 83b8 baba
00000140: 3504 0080 41d8 3d3c 2303 0080 5d02 2c3c
00000150: 7613 84b3 8802 1eb4 dd20 1e1e 56d3 cd2c
00000160: 3800 0000 f5f0 1b9a 4c84 530f 9501 0080
00000170: 2b0c 0000 cde7 6b3c 5528 109d 3c78 ff24
00000180: f00f 0080 c181 2585 be00 0000 34d1 323c
00000190: 732d 0e3c b484 848d 73e8 8b3c 0919 099c
000001a0: 27ce a13c 38b3 293c 12ea 2ea3 ec06 0080
000001b0: 8c56 6e3b 5703 0080 550d e9b2 e409 0080
000001c0: 517d 9da4 3fa1 0910 2f00 0000 12c7 4b3c
000001d0: 7e89 61b9 ba50 13b7 0d05 0080 8c9d 793c
000001e0: 76e2 8d3c 6c57 912e 9304 0080 f9b8 60ad
000001f0: 8904 0000 da86 a735 5405 0000 8f56 b13b
00000200: 33ce 393c 9289 da3b 1202 0080 139d f13b
00000210: 3649 0e3b 6c04 0000 7fd7 9021 0c00 0000
00000220: 49c3 ad3c d32a 293b cb02 0000 872a 103c
00000230: c99e 783a aa56 a398 2c75 003c 9104 0000
00000240: d9fc 84b2 56bc 8e3c 1574 34b0 0405 0080
00000250: f700 0000 2e8c 7d3c d9e6 1929 3e02 0000
00000260: ed02 0080 8a90 c68c 464d 753c 0d38 0f3c
00000270: b800 0000 6728 0080 d401 0080 81f4 4091
00000280: 902a 113c bd81 f002 d28e 0b0f 1302 0000
00000290: 6496 5d3c 1201 0080 516a d332 bce6 fb98
000002a0: 4207 0080 e403 0000 4006 0080 eb78 4c3c
000002b0: 0dd6 b73c 284d 983c b603 0000 2c03 0000
000002c0: fb01 0080 e72b 5f19 1344 dbb4 3603 0000
000002d0: db68 be38 42e3 c43b 4706 843c ab03 0080
000002e0: 4f64 dc3b 9fe8 ae3c 7000 0000 c906 de3b
000002f0: f504 0080 293d 303c 7505 0000 7e96 88a6
00000300: c805 0080 fc7a a13c 6f0c 0080 4a02 0000
00000310: 987d 803c 6cef 513c fc9a 29b5 6df2 9728
00000320: 2129 633c 6723 8a3c 3103 0000 cc05 0080
00000330: ae66 36b0 2c04 0000 aa01 0000 b202 0080
00000340: 9950 9931 9594 573c 8332 ae13 4eb0 42bc
00000350: ed15 73b6 cda1 883c 687b d73b 340a 333c
00000360: 0c57 db38 004e fb12 dd2a 1fb9 f7e0 293c
00000370: 0b00 0000 3ca1 333b 3302 0000 df9f 9e3c
00000380: e92a 4097 4b15 5900 ff81 b723 9a00 0080
00000390: f83e 7b3c 4439 eb3a 2f04 0080 a90a 303c
000003a0: 5601 0000 9785 373c cb2f a930 546f ccb2
000003b0: 8dda 1b1f ca9f a82d d407 0000 550f d427
000003c0: 5413 b90f d601 0000 5304 0080 cc29 993c
000003d0: b93a 1300 fc2a ef2a 4705 0080 cbb2 3584
000003e0: 1505 0000 347b 653c cef7 593c c4c2 5100
000003f0: 511c 9a3c 359f 0386 85ec a83c 6540 103c

ff_model.3.bias f4 [120]
2.0881735e-05 9.58542e-05 6.143941e-06 0.00014489154 0.000103541526 -3.1625383e-05 1.8726576e-05 -5.2809904e-05
0.00016066492 0.0002533779 -0.000296328 0.00029387276 0.00016431806 7.6603144e-05 -4.5565437e-05 9.636487e-05
0.00046726933 -0.00035920338 -0.0003881268 0.0044484846 0.0007518267 6.609938e-05 -0.00032224954 0.0028005373
0.0018020478 1.4439249e-05 -0.00025804678 -9.940403e-05 -0.00012686015 -0.00022128316 0.0011666493 0.00028653524
-5.1749783e-05 0.0010809822 4.659615e-05 -0.00022335464 -0.00016077892 -0.00018655651 -1.1777861e-09 -6.79881e-05
-0.00013507956 -0.00025781084 3.1626554e-05 -0.0001594423 -8.7863526e-05 5.919822e-05 -0.00013701989 9.427091e-05
0.0007113866 0.00014660874 0.0056650494 0.0008324607 0.0005349157 9.0107475e-05 5.213399e-05 0.0004797241
-7.3239455e-05 -0.00017844919 9.349551e-05 -0.00020020921 -4.4225773e-05 -8.771977e-05 -0.0002327384 -2.9297913e-05
2.1824702e-05 -0.00022973232 -1.8182704e-05 0.0001440125 -2.3613035e-05 0.00750137 -9.208985e-05 -0.0002630097
-1.24007e-06 4.4403656e-05 -0.0003893676 0.00024017044 -0.00069535937 -9.681841e-05 -0.00019437294 -1.2768551e-05
-2.3127628e-05 -0.00014208925 0.00011476677 0.00020597903 0.0006177622 -6.1469735e-05 -0.00028819908 0.00017265324
-0.00041838994 0.00015935814 -0.00027526432 -0.0002650415 -6.353034e-05 0.00020228034 0.003239018 -0.00018444567
0.0006039503 -0.00017311335 -7.319995e-05 0.0029857203 0.00019187633 -0.0003512168 -0.00011483547 0.0024172692
0.009888644 -0.00016384663 8.42034e-05 -0.0002283825 -0.00058093906 0.0046110866 0.00010119384 -0.000102896054
0.00012551971 -0.00054752146 0.0006042292 0.00010758401 9.867119e-05 0.00019033262 0.0003043748 -9.070828e-05
00000000: 2f2b af37 5505 c938 0d28 ce36 07ee 1739
00000010: 6f24 d938 7fa5 04b8 0417 9d37 3480 5db8
00000020: 2978 2839 ced7 8439 795c 9bb9 ef12 9a39
00000030: cb4c 2c39 00a6 a038 841d 3fb8 7f17 ca38
00000040: d4fb f439 7653 bcb9 7f7d cbb9 98c4 913b
00000050: 3c16 453a d69e 8a38 9af3 a8b9 3889 373b
00000060: b132 ec3a 1a40 7237 744a 87b9 2277 d0b8
00000070: c305 05b9 3f08 68b9 41ea 983a 1c3a 9639
00000080: e80d 59b8 beaf 8d3a 3c70 4338 4e34 6ab9
00000090: c396 28b9 629e 43b9 aadf a1b0 d594 8eb8
000000a0: 25a4 0db9 c92a 87b9 c1a6 0438 f72f 27b9
000000b0: 5f43 b8b8 9b4b 7838 ffac 0fb9 4fb3 c538
000000c0: 597c 3a3a fcba 1939 e1a1 b93b 7e39 5a3a
000000d0: 9639 0c3a 15f8 bc38 72aa 5a38 7b83 fb39
000000e0: 2298 99b8 171e 3bb9 0513 c438 40ef 51b9
000000f0: 107f 39b8 31f6 b7b8 3d0b 74b9 cac4 f5b7
00000100: 3114 b737 4de4 70b9 0f87 98b7 1002 1739
00000110: 9b14 c6b7 0dce f53b 5d20 c1b8 90e4 89b9
00000120: 7b70 a6b5 103e 3a38 0924 ccb9 43d6 7b39
00000130: c748 36ba fd0a cbb8 97d0 4bb9 8238 56b7
00000140: 3402 c2b7 cbfd 14b9 f1ae f038 13fc 5739
00000150: 52f1 213a 50e9 80b8 6d19 97b9 400a 3539
00000160: 595b dbb9 6019 2739 5a51 90b9 45f5 8ab9
00000170: 973b 85b8 371b 5439 b445 543b c267 41b9
00000180: 6b52 1e3a c385 35b9 ed82 99b8 13ac 433b
00000190: 6932 4939 8523 b8b9 d3d3 f0b8 0c6b 1e3b
000001a0: fb03 223c 3fce 2bb9 5b96 b038 f679 6fb9
000001b0: 294a 18ba 9918 973b 0738 d438 e6c9 d7b8
000001c0: f19d 0339 8b87 0fba 2365 1e3a ba9e e138
000001d0: b1ed ce38 0694 4739 7e94 9f39 a33a beb8

ff_model.6.weight f4 [45, 120]
0.017040677 0.020722251 0.012390721 0.020333648 0.024078902 0.022929152 0.015822498 0.017302072
0.021902533 0.0144911045 0.022183372 0.0018905565 0.020923499 0.023235153 0.020149987 0.020736177
0.01995093 0.01776609 0.017917082 0.020386785 0.021310257 -2.7484324e-05 0.01975851 0.013364663
0.019744964 0.018817268 0.021545919 0.019386083 0.023522502 0.023888294 0.016919736 0.021086253
0.023880357 0.019649811 0.02176433 0.021830937 0.019905822 0.015851067 -1.0567892e-18 0.018740397
0.02440052 0.018507425 0.018066935 0.019152429 0.019360254 0.020201718 0.021381788 0.023979045
0.022627728 0.024842652 0.010228505 0.022722607 0.02015935 0.020784875 0.01991001 0.01960293
0.021972768 0.018497203 0.02481172 0.024725389 0.020182634 0.025163997 0.016847465 0.019635888
0.024825683 0.013318339 0.011474061 0.022157796 0.015096336 0.017689768 0.020472256 0.021318901
0.020245431 0.020098858 0.017825654 0.011591573 0.019411113 0.022316135 0.019165255 0.019023418
0.020576056 0.01677192 0.024305413 0.014664424 0.022190562 0.022750188 0.019090625 0.019957082
0.019835131 0.025590459 0.018562092 0.019102236 0.022152485 0.026366843 0.021312803 0.015915418
0.023623835 0.012884995 0.023962049 0.01868814 0.022274125 0.022056518 0.021079177 0.01870211
-0.0033185773 0.017513612 0.017270105 0.022786252 0.021672167 0.013617371 0.020964922 0.019728273
0.016903289 0.012014342 0.022866761 0.024727017 0.022352042 0.02201626 0.026266826 0.0063294116
-4.138934e-06 -1.5680058e-06 -3.3677687e-05 1.320267e-05 -2.0149146e-05 -3.8010647e-05 -1.7644e-05 1.5345171e-05
-5.7438006e-05 0.00023538717 3.3532204e-05 2.576725e-06 -7.264014e-05 -3.529065e-05 6.990458e-06 -3.0271445e-05
-4.050653e-05 1.23702675e-05 -1.6628917e-05 3.021008e-08 -3.2623695e-05 -1.576128e-09 -1.0104052e-05 -3.453063e-05
-3.5431138e-05 9.354447e-06 -1.5165339e-05 1.9090548e-05 3.1326276e-06 -2.6565145e-05 -5.782512e-05 -2.0524999e-07
1.555351e-05 -4.7772326e-05 -2.9029678e-05 -4.084013e-05 -4.4071016e-06 -2.8786888e-05 1.7553842e-36 -7.0604954e-05
1.7681617e-05 -1.9768655e-05 -6.423843e-05 -3.2850814e-05 -1.94801e-05 -1.3623314e-05 -1.1375723e-05 2.6935827e-06
-2.1080432e-05 -2.8528753e-05 8.923764e-06 -1.8300478e-05 -5.0863688e-05 1.893844e-05 -3.515782e-05 -5.0011473e-05
-4.2254607e-07 -3.5389738e-05 -1.2848958e-05 -1.1083684e-05 3.337493e-05 -2.923102e-05 -4.9410948e-05 -5.8068174e-05
-4.5381854e-05 -1.1614139e-05 -2.5154997e-05 -3.4012784e-05 -2.2630693e-05 -2.6506332e-05 -2.6378548e-05 -3.5531497e-07
-5.03562e-05 4.6632962e-05 -2.4305007e-06 2.5015841e-05 -9.334133e-07 -4.182766e-05 -5.7776538e-06 -2.9978608e-05
-1.4245447e-05 -6.251853e-05 -7.735902e-05 5.266009e-06 -3.2420583e-05 -4.4641343e-05 -2.076061e-05 -3.498327e-05
-5.9036232e-05 -4.4950466e-05 -1.8050276e-05 2.6024398e-05 5.2021896e-05 -8.081932e-05 -5.630175e-05 -6.447622e-05
-2.5486597e-05 -2.3025124e-05 -2.3530356e-05 -3.4798184e-05 -1.000092e-05 -5.707053e-05 -4.2958647e-05 -2.0093557e-05
-6.0984445e-07 -2.3296137e-05 -1.6183047e-05 -2.6085934e-05 1.6861975e-05 -4.190937e-05 1.2755472e-06 -1.923582e-05
1.9814483e-06 -2.7497837e-05 -7.841533e-05 -9.707552e-06 1.1199108e-05 2.8582517e-05 -4.9652823e-05 1.4402302e-05
0.019851327 0.019443799 0.018983027 0.02016079 0.022051139 0.021541964 0.018789893 0.020315912
0.019843366 0.015700461 0.022646643 0.0034330876 0.026112044 0.02286269 0.022113295 0.022169463
00000000: e498 8b3c b6c1 a93c 7302 4b3c c092 a63c
00000010: 1e41 c53c ebd5 bb3c 2f9e 813c 13bd 8d3c
00000020: f16c b33c 196c 6d3c e7b9 b53c 8dcc f73a
00000030: c267 ab3c a657 be3c 9611 a53c eade a93c
00000040: 2270 a33c 318a 913c d8c6 923c 3002 a73c
00000050: d992 ae3c 238e e6b7 99dc a13c 76f7 5a3c
00000060: 31c0 a13c ac26 9a3c 1181 b03c 90cf 9e3c
00000070: 43b2 c03c 62b1 c33c 429b 8a3c 14bd ac3c
00000080: bda0 c33c a4f8 a03c 1c4b b23c cbd6 b23c
00000090: 8911 a33c 19da 813c 5ef4 9ba1 7685 993c
000000a0: 99e3 c73c e29c 973c 1c01 943c 8ee5 9c3c
000000b0: 6599 9e3c 137e a53c dc28 af3c b46f c43c
000000c0: c95d b93c d182 cb3c 7695 273c c324 ba3c
000000d0: 3925 a53c 0b45 aa3c 511a a33c 5396 a03c
000000e0: 3c00 b43c 7287 973c f341 cb3c e68c ca3c
000000f0: 0d56 a53c ba24 ce3c b203 8a3c 71db a03c
00000100: 3b5f cb3c 2a35 5a3c b3fd 3b3c 4484 b53c
00000110: 9f56 773c 22ea 903c 6fb5 a73c faa4 ae3c
00000120: bfd9 a53c 5ca6 a43c 1b07 923c 95ea 3d3c
00000130: 0e04 9f3c 54d0 b63c 7400 9d3c 00d7 9b3c
00000140: 1e8f a83c 4465 893c 251c c73c 0d43 703c
00000150: fbc8 b53c 9a5e ba3c f163 9c3c 097d a33c
00000160: 497d a23c 15a3 d13c 870f 983c 4b7c 9c3c
00000170: 2179 b53c 47ff d73c 3098 ae3c 0d61 823c
00000180: c686 c13c 961b 533c 0f4c c43c df17 993c
00000190: 3a78 b63c dfaf b43c 3dae ac3c 2b35 993c
000001a0: 7d7c 59bb b578 8f3c 097a 8d3c 3caa ba3c
000001b0: d489 b13c 651b 5f3c a1be ab3c 309d a13c
000001c0: c478 8a3c cdd7 443c 1353 bb3c 5090 ca3c
000001d0: a11b b73c 725b b43c 872d d73c f466 cf3b
000001e0: 2ce1 8ab6 4574 d2b5 2441 0db8 0981 5d37
000001f0: f605 a9b7 9f6d 1fb8 3402 94b7 81b9 8037
00000200: 97e9 70b8 43d2 7639 eea4 0c38 cceb 2c36
00000210: 6156 98b8 0c05 14b8 948f ea36 6fef fdb7
00000220: 8ee5 29b8 e589 4f37 547e 8bb7 56c0 0133
00000230: 6dd5 08b8 139f d8b0 9384 29b7 fbd4 10b8
00000240: e59b 14b8 0bf1 1c37 a36e 7eb7 a424 a037
00000250: 223a 5236 37d8 deb7 4089 72b8 b062 5cb4
00000260: e978 8237 255f 48b8 c284 f3b7 c14b 2bb8
00000270: b7e0 93b6 5f7b f1b7 e254 1504 bf11 94b8
00000280: fc52 9437 ddd4 a5b7 bfb7 86b8 4bc9 09b8
00000290: 3269 a3b7 b08f 64b7 5cda 3eb7 66c3 3436
000002a0: e2d5 b0b7 0851 efb7 46b7 1537 fa83 99b7
000002b0: 7856 55b8 fddd 9e37 6c76 13b8 69c3 51b8
000002c0: 4ada e2b4 716f 14b8 db91 57b7 0ff4 39b7
000002d0: 0ffc 0b38 2335 f5b7 9a3e 4fb8 3a8e 73b8
000002e0: 6558 3eb8 59da 42b7 f203 d3b7 f3a8 0eb8
000002f0: 0bd7 bdb7 ea59 deb7 8047 ddb7 1ec2 beb4
00000300: 8f35 53b8 c397 4338 af1b 23b6 1cd9 d137
00000310: ac8f 7ab5 1c70 2fb8 abdd c1b6 927a fbb7
00000320: bbff 6eb7 611c 83b8 cf3b a2b8 acb2 b036
00000330: 56fb 07b8 473d 3bb8 1227 aeb7 00bb 12b8
00000340: ac9d 77b8 3289 3cb8 ac6a 97b7 f84e da37
00000350: 1632 5a38 8b7d a9b8 8b25 6cb8 6837 87b8
00000360: 0dcc d5b7 1426 c1b7 0e63 c5b7 44f4 11b8
00000370: a0c9 27b7 045f 6fb8 7f2e 34b8 968e a8b7
00000380: 31b4 23b5 136c c3b7 d4c0 87b7 1ed3 dab7
00000390: d172 8d37 d8c7 2fb8 7833 ab35 9c5c a1b7
000003a0: 06f9 0436 28ab e6b7 e972 a4b8 9edd 22b7
000003b0: cde3 3b37 7dc4 ef37 5042 50b8 6ba1 7137
000003c0: 409f a23c 9a48 9f3c 4b82 9b3c 3e28 a53c
000003d0: 97a4 b43c c678 b03c 43ed 993c 8e6d a63c
000003e0: 8e8e a23c 419e 803c 7485 b93c a7fd 603b
000003f0: ede8 d53c 894a bb3c f126 b53c bc9c b53c

ff_model.6.bias f4 [45]
0.06495628 -0.00035701136 0.024565812 -1.739715e-05 0.08376642 -9.301104e-05 -1.8202065e-05 -5.0604704e-05
-0.0013446675 0.04367254 0.061090816 0.046273954 1.5977521e-06 0.020860586 0.039333522 -2.0037432e-06
0.033350617 0.052264903 0.0038887528 0.030437578 0.071528226 -2.0426882e-09 2.8941855e-05 0.052425917
0.0547266 0.019836966 0.06347304 0.052362736 -7.7608296e-05 0.033044916 -1.0138107e-05 -8.498649e-08
-0.00023433864 -3.0088642e-05 0.04897363 -3.4020883e-07 -2.326666e-06 0.015081528 -7.624378e-05 0.048744164
0.06407611 0.0019998746 -0.00025976967 0.051945787 0.05951887
00000000: cc07 853d 412d bbb9 3e3e c93c 18f0 91b7
00000010: bb8d ab3d ec0e c3b8 a3b0 98b7 6340 54b8
00000020: 8e3f b0ba fae1 323d 5d3a 7a3d c289 3d3d
00000030: 5872 d635 d2e3 aa3c 301c 213d 0c78 06b6
00000040: a89a 083d b913 563d 72da 7e3b 3a58 f93c
00000050: 647d 923d 5a5f 0cb1 29c8 f237 8fbc 563d
00000060: 0029 603d 2281 a23c 27fe 813d 4f7a 563d
00000070: a3c1 a2b8 1b5a 073d d716 2ab7 d181 b6b3
00000080: cdb8 75b9 de66 fcb7 9398 483d f2a5 b6b4
00000090: d123 1cb6 8318 773c 11e5 9fb8 f6a7 473d
000000a0: 563a 833d 5410 033b b231 88b9 1bc5 543d
000000b0: 0fca 733d

ff_model.9.weight f4 [2, 45]
0.08895076 -0.0060175993 0.12982512 0.008843295 0.12256402 -0.0042907773 -0.01063672 -0.0031868992
-0.06460764 0.09187852 0.067268364 0.115033865 8.4026476e-07 0.1471578 0.14806242 -6.2719795e-05
0.12374984 0.1723442 -0.004178014 0.09626274 0.03608555 -1.8091208e-06 0.00016124743 0.12419983
0.102114014 0.059523337 0.019763026 0.094295256 0.00014472511 0.16165316 -3.929612e-05 -0.0030754895
-0.00016997595 0.0056350897 0.1803299 -0.00064931496 0.00024458257 0.14057606 -0.009841902 0.12449824
0.14621954 0.1410232 0.008950471 0.13321815 0.07641101 -0.11876227 0.0052420907 -0.09287337
0.021244645 -0.05273635 0.022025308 0.0063029374 0.020050544 0.0029319627 -0.13399224 -0.138816
-0.08897485 -4.8266465e-08 -0.10413839 -0.06971428 0.00019689016 -0.11980218 -0.033558484 0.0046407674
-0.12524922 -0.14962605 5.68485e-07 0.00019449848 -0.09760024 -0.096753635 -0.16070057 -0.16900457
-0.10269844 0.012262303 -0.049829 0.004475707 0.0021724917 0.0125224 0.006879758 -0.018788172
-0.00038999357 0.0034429778 -0.09260358 0.0044635045 -0.10125506 -0.04235484 -0.11430844 0.036209367
-0.06321664 -0.13049044
00000000: d12b b63d 482f c5bb e0f0 043e 78e3 103c
00000010: d802 fb3d a699 8cbb a345 2ebc 4cdb 50bb
00000020: 0351 84bd ce2a bc3d ffc3 893d e096 eb3d
00000030: 8e8e 6135 89b0 163e ad9d 173e 6f88 83b8
00000040: 8e70 fd3d ff7a 303e b9e7 88bb 6625 c53d
00000050: 71ce 133d ebd0 f2b5 8714 2939 7b5c fe3d
00000060: 2721 d13d bece 733d 12e6 a13c df1d c13d
00000070: 5ac1 1739 6888 253e e3d1 24b8 278e 49bb
00000080: 923b 32b9 8fa6 b83b 67a8 383e ca36 2aba
00000090: 513b 8039 2cf3 0f3e ee3f 21bc eff8 fe3d
000000a0: 93ba 153e 6368 103e ffa4 123c 576a 083e
000000b0: 607d 9c3d a239 f3bd d8c5 ab3b 6534 bebd
000000c0: 4009 ae3c 1202 58bd 6b6e b43c df88 ce3b
000000d0: 0a41 a43c 2c26 403b 4335 09be c825 0ebe
000000e0: 7238 b6bd 8a4d 4fb3 8246 d5bd 5cc6 8ebd
000000f0: 4d74 4e39 d85a f5bd 9f74 09bd 9411 983b
00000100: 5541 00be 9237 19be fe99 1835 4af2 4b39
00000110: a2e2 c7bd c526 c6bd b18e 24be 890f 2dbe
00000120: 8f53 d2bd d4e7 483c 7e19 4cbd f4a8 923b
00000130: 5d60 0e3b c12a 4d3c 986f e13b a7e9 99bc
00000140: 0d78 ccb9 95a3 613b f2a6 bdbd 9742 923b
00000150: d05e cfbd 457c 2dbd 8b1a eabd 4650 143d
00000160: ba77 81bd 499f 05be

ff_model.9.bias f4 [2]
0.37215376 -0.3139474
00000000: f08a be3e b7bd a0be
