pip_packaging/Version12/BP3/bp3/BP3Models/BP3C50IDSeqLenFFNN/Fold4.pt (torch, 866575 bytes, 8 tensors)

ff_model.0.weight f4 [150, 1281]
0	0x800000aa	-2.38e-43
1	0x80000401	-1.436e-42
2	0x8000030a	-1.09e-42
3	0x00000111	3.83e-43
4	0x80000060	-1.35e-43
5	0x00000350	1.188e-42
6	0x800002b9	-9.77e-43
7	0x80000318	-1.11e-42
8	0x800000fe	-3.56e-43
9	0x00000068	1.46e-43
10	0x800000f6	-3.45e-43
11	0x80000003	-4e-45
12	0x00000321	1.122e-42
13	0x000003d9	1.38e-42
14	0x800000ed	-3.32e-43
15	0x00000234	7.9e-43
16	0x000003e1	1.391e-42
17	0x00000199	5.73e-43
18	0x800003a4	-1.306e-42
19	0x800001dc	-6.67e-43
20	0x000001da	6.64e-43
21	0x800002c3	-9.91e-43
22	0x0000003f	8.8e-44
23	0x000002f0	1.054e-42
24	0x800002f8	-1.065e-42
25	0x800000d0	-2.91e-43
26	0x00000253	8.34e-43
27	0x000000f1	3.38e-43
28	0x800001a3	-5.87e-43
29	0x80000032	-7e-44
30	0x00000327	1.131e-42
31	0x000003ef	1.411e-42
32	0x80000388	-1.267e-42
33	0x00000206	7.26e-43
34	0x8000023e	-8.04e-43
35	0x0000036a	1.225e-42
36	0x0000026c	8.69e-43
37	0x0000025e	8.49e-43
38	0x000000e9	3.27e-43
39	0x8000001f	-4.3e-44
40	0x0000037c	1.25e-42
41	0x80000210	-7.4e-43
42	0x00000244	8.13e-43
43	0x00000018	3.4e-44
44	0x00000142	4.51e-43
45	0x800000cb	-2.84e-43
46	0x000003b4	1.328e-42
47	0x800002ef	-1.052e-42
48	0x000003eb	1.406e-42
49	0x800003d9	-1.38e-42
50	0x00000020	4.5e-44
51	0x00000113	3.85e-43
52	0x800001a0	-5.83e-43
53	0x800002f3	-1.058e-42
54	0x00000225	7.7e-43
55	0x8000016f	-5.14e-43
56	0x0000002a	5.9e-44
57	0x800003ce	-1.365e-42
58	0x8000022a	-7.76e-43
59	0x8000036b	-1.226e-42
60	0x000001be	6.25e-43
61	0x800003e4	-1.396e-42
62	0x000003fc	1.43e-42
63	0x80000407	-1.445e-42
64	0x80000037	-7.7e-44
65	0x000000de	3.11e-43
66	0x80000391	-1.28e-42
67	0x80000037	-7.7e-44
68	0x80000303	-1.08e-42
69	0x000003f7	1.422e-42
70	0x0000001d	4e-44
71	0x000000c7	2.79e-43
72	0x000002bb	9.8e-43
73	0x80000091	-2.03e-43
74	0x000003da	1.382e-42
75	0x80000371	-1.235e-42
76	0x80000406	-1.443e-42
77	0x000001f0	6.95e-43
78	0x800003bd	-1.341e-42
79	0x80000271	-8.76e-43
80	0x000002af	9.63e-43
81	0x8000007c	-1.74e-43
82	0x00000274	8.8e-43
83	0x00000064	1.4e-43
84	0x8000036c	-1.228e-42
85	0x8000029a	-9.33e-43
86	0x800001a8	-5.94e-43
87	0x800003a6	-1.309e-42
88	0x000003ae	1.32e-42
89	0x00000260	8.52e-43
90	0x80000236	-7.93e-43
91	0x00000168	5.04e-43
92	0x80000203	-7.22e-43
93	0x0000005a	1.26e-43
94	0x800001a4	-5.89e-43
95	0x8000015a	-4.85e-43
96	0x0000039c	1.295e-42
97	0x80000042	-9.2e-44
98	0x00000295	9.26e-43
99	0x800003c7	-1.355e-42
100	0x0000025e	8.49e-43
101	0x8000013b	-4.41e-43
102	0x00000271	8.76e-43
103	0x00000012	2.5e-44
104	0x00000087	1.89e-43
105	0x00000273	8.79e-43
106	0x00000011	2.4e-44
107	0x0000028d	9.15e-43
108	0x000003a5	1.307e-42
109	0x0000018a	5.52e-43
110	0x00000358	1.2e-42
111	0x000001b0	6.05e-43
112	0x0000025a	8.44e-43
113	0x80000130	-4.26e-43
114	0x0000024e	8.27e-43
115	0x0000034a	1.18e-42
116	0x000001a4	5.89e-43
117	0x800000b5	-2.54e-43
118	0x800000da	-3.05e-43
119	0x800001f4	-7e-43
120	0x0000000f	2.1e-44
121	0x00000444	1.53e-42
122	0x000003b8	1.334e-42
123	0x80000346	-1.174e-42
124	0x000002a7	9.51e-43
125	0x80000112	-3.84e-43
126	0x80000093	-2.06e-43
127	0x00000409	1.448e-42
128	0x80000242	-8.1e-43
129	0x000002ee	1.051e-42
130	0x80000078	-1.68e-43
131	0x80000146	-4.57e-43
132	0x000000f5	3.43e-43
133	0x000002a7	9.51e-43
134	0x000003db	1.383e-42
135	0x0000005a	1.26e-43
136	0x000003bc	1.34e-42
137	0x00000376	1.242e-42
138	0x00000313	1.103e-42
139	0x8000015c	-4.88e-43
140	0x00000097	2.12e-43
141	0x80000179	-5.28e-43
142	0x800002dd	-1.027e-42
143	0x0000031d	1.117e-42
144	0x0000004b	1.05e-43
145	0x800003c1	-1.347e-42
146	0x8000040f	-1.456e-42
147	0x0000020f	7.38e-43
148	0x8000002e	-6.4e-44
149	0x000001a2	5.86e-43
150	0x000003e4	1.396e-42
151	0x000001fe	7.15e-43
152	0x800000bc	-2.63e-43
153	0x00000228	7.74e-43
154	0x0000034b	1.181e-42
155	0x00000127	4.13e-43
156	0x00000058	1.23e-43
157	0x8000012f	-4.25e-43
158	0x800001d6	-6.59e-43
159	0x000002a6	9.5e-43
160	0x000003d4	1.373e-42
161	0x00000326	1.13e-42
162	0x000000ad	2.42e-43
163	0x80000151	-4.72e-43
164	0x80000402	-1.438e-42
165	0x0000022e	7.82e-43
166	0x80000055	-1.19e-43
167	0x80000062	-1.37e-43
168	0x000001b3	6.1e-43
169	0x000002b5	9.71e-43
170	0x80000063	-1.39e-43
171	0x800000eb	-3.3e-43
172	0x00000391	1.28e-42
173	0x00000196	5.69e-43
174	0x0000030c	1.093e-42
175	0x00000310	1.099e-42
176	0x800002bb	-9.8e-43
177	0x8000040c	-1.452e-42
178	0x000000b0	2.47e-43
179	0x8000040f	-1.456e-42
180	0x8000004b	-1.05e-43
181	0x80000265	-8.59e-43
182	0x80000229	-7.75e-43
183	0x800002fd	-1.072e-42
184	0x80000380	-1.256e-42
185	0x0000033b	1.159e-42
186	0x800003e8	-1.401e-42
187	0x8000017b	-5.31e-43
188	0x800003f6	-1.421e-42
189	0x000003d0	1.368e-42
190	0x8000037f	-1.254e-42
191	0x80000018	-3.4e-44
192	0x800003d0	-1.368e-42
193	0x800001e1	-6.74e-43
194	0x80000287	-9.07e-43
195	0x0000000c	1.7e-44
196	0x000001f8	7.06e-43
197	0x800002ed	-1.05e-42
198	0x000003b6	1.331e-42
199	0x000003e6	1.398e-42
200	0x000001b9	6.18e-43
201	0x000001c9	6.4e-43
202	0x0000036b	1.226e-42
203	0x0000024d	8.25e-43
204	0x8000015d	-4.89e-43
205	0x80000312	-1.101e-42
206	0x800002d9	-1.022e-42
207	0x800002a4	-9.47e-43
208	0x80000365	-1.218e-42
209	0x0000008f	2e-43
210	0x000000e2	3.17e-43
211	0x80000107	-3.69e-43
212	0x0000013b	4.41e-43
213	0x800002cd	-1.005e-42
214	0x000002d6	1.017e-42
215	0x0000032a	1.135e-42
216	0x00000084	1.85e-43
217	0x80000017	-3.2e-44
218	0x000003fc	1.43e-42
219	0x0000000a	1.4e-44
220	0x800003e8	-1.401e-42
221	0x000001c8	6.39e-43
222	0x000000f5	3.43e-43
223	0x80000102	-3.62e-43
224	0x0000013a	4.4e-43
225	0x80000207	-7.27e-43
226	0x00000397	1.288e-42
227	0x8000001c	-3.9e-44
228	0x00000307	1.086e-42
229	0x800001dc	-6.67e-43
230	0x8000023e	-8.04e-43
231	0x80000250	-8.3e-43
232	0x80000331	-1.145e-42
233	0x00000325	1.128e-42
234	0x3629f03b	2.5322795e-06
235	0x80000390	-1.278e-42
236	0x800002ec	-1.048e-42
237	0x800003cd	-1.363e-42
238	0x80000194	-5.66e-43
239	0x00000032	7e-44
240	0x00000192	5.63e-43
241	0x80000249	-8.2e-43
242	0x0000030d	1.094e-42
243	0x000003b4	1.328e-42
244	0x000001e9	6.85e-43
245	0x000003b7	1.333e-42
246	0x8000012d	-4.22e-43
247	0x80000064	-1.4e-43
248	0x80000374	-1.239e-42
249	0x80000387	-1.265e-42
250	0x80000032	-7e-44
251	0x000001cd	6.46e-43
252	0x8000015b	-4.86e-43
253	0x0000035d	1.207e-42
254	0x00000065	1.42e-43
255	0x800001db	-6.66e-43

ff_model.0.bias f4 [150]
0	0xaccbc634	-5.791612e-12
1	0x800007f9	-2.86e-42
2	0x80115afe	-1.593845e-39
3	0x3c9ca4c6	0.019121539
4	0x3bb05422	0.005381123
5	0x3ca1a1a2	0.019730393
6	0x80000112	-3.84e-43
7	0x3cd7d294	0.026345529
8	0x3bf9533c	0.0076087993
9	0x000001f3	6.99e-43
10	0x80000207	-7.27e-43
11	0x80000239	-7.97e-43
12	0x3c94fd75	0.018187264
13	0x80000770	-2.668e-42
14	0x800002a9	-9.54e-43
15	0x80000197	-5.7e-43
16	0x3831e80b	4.2416195e-05
17	0x3a34c5dd	0.0006895939
18	0x17f4d025	1.58206735e-24
19	0xbc9ff4f8	-0.01952599
20	0x3c38be40	0.011275828
21	0x80000586	-1.981e-42
22	0x3ad57d97	0.0016288039
23	0x3be1a325	0.0068859034
24	0xa9015274	-2.871527e-14
25	0xb8de7beb	-0.000106088664
26	0x301c6366	5.6893723e-10
27	0x3b95c607	0.004570726
28	0x3ccee574	0.025255896
29	0x0df5385b	1.5112858e-30
30	0xa14f3dea	-7.021627e-19
31	0x3d1c209e	0.038117044
32	0x3c1e0ea9	0.00964705
33	0x3cf94220	0.030427039
34	0x3c7d7a7f	0.0154711
35	0x3ba13b09	0.0049203676
36	0x39d85aa0	0.0004126625
37	0x000003bb	1.338e-42
38	0xb50a977b	-5.162944e-07
39	0xba77aaaf	-0.0009447736
40	0x2aa96743	3.0092083e-13
41	0xaf53e483	-1.9271522e-10
42	0xa5ded70c	-3.8656583e-16
43	0x3c9271d6	0.017876547
44	0x80000434	-1.508e-42
45	0x3c76857b	0.015046473
46	0x3c375961	0.011190743
47	0x3c9e78ea	0.019344766
48	0x3c7dbea8	0.0154873505
49	0x3cb1db85	0.02171112
50	0xb7ce71f4	-2.4610177e-05
51	0xb5e89392	-1.7328296e-06
52	0x3c846636	0.01616202
53	0x000001cc	6.45e-43
54	0xa597f19b	-2.6358043e-16
55	0x3caa3d78	0.020781264
56	0x00000459	1.56e-42
57	0xb8489610	-4.7823472e-05
58	0x0000013d	4.44e-43
59	0xba9ac11f	-0.0011806822
60	0x9c3c7181	-6.235068e-22
61	0x3c8dbd25	0.017302105
62	0x3ca900ac	0.020630203
63	0x3c3041d4	0.010757882
64	0x2c436bbe	2.7770976e-12
65	0x1ff964fe	1.0562268e-19
66	0x3d221917	0.03957471
67	0xa16f9e39	-8.1185756e-19
68	0x1d2ac1f4	2.2599584e-21
69	0x3c9ee24b	0.019395014
70	0x3c72cf64	0.014819954
71	0x3c6eb9ec	0.014570694
72	0x3c2ee116	0.010673782
73	0x3cb9e5aa	0.02269252
74	0x3c587392	0.013211148
75	0x382eeb80	4.170416e-05
76	0x000001cb	6.43e-43
77	0x3cc4b0cf	0.02401009
78	0xb5203a4b	-5.968947e-07
79	0x3c5bb2e8	0.013409354
80	0x3cd3781a	0.025814105
81	0x800001ee	-6.92e-43
82	0xa682b80d	-9.070449e-16
83	0xb76b1748	-1.4012512e-05
84	0x80000709	-2.524e-42
85	0xa044db8c	-1.6674488e-19
86	0xbb99928f	-0.0046866606
87	0x3beb7520	0.0071855932
88	0x3c1403c9	0.009034106
89	0xbb1b6024	-0.0023708427
90	0x3cb81494	0.02247075
91	0xb8364bc7	-4.3462755e-05
92	0x3cab4cd4	0.020910658
93	0x00000607	2.162e-42
94	0x000000fc	3.53e-43
95	0x3cd23aec	0.025662862
96	0x000005be	2.06e-42
97	0x000004f3	1.775e-42
98	0x3b88bd14	0.0041729305
99	0x3c2333cd	0.009961081
100	0x3cd79c3d	0.026319617
101	0x3c12158d	0.008916271
102	0x8000009e	-2.21e-43
103	0x80001065	-5.881e-42
104	0x3ac959d1	0.001536185
105	0x3acaf548	0.0015484476
106	0x3c0ec42f	0.008713766
107	0xaf430964	-1.7738483e-10
108	0x9583bf18	-5.321197e-26
109	0x3a390ac4	0.0007058794
110	0x80000028	-5.6e-44
111	0x3c92fc8c	0.01794269
112	0xba053b2e	-0.0005082366
113	0xa91f9fd2	-3.5443714e-14
114	0x3c09655e	0.008385984
115	0x29bc94ee	8.374712e-14
116	0x3894f88d	7.103486e-05
117	0xb5c13483	-1.4394903e-06
118	0x00000624	2.203e-42
119	0x3c7deb60	0.015498012
120	0xb8b6702e	-8.6993314e-05
121	0x3cbe52ee	0.023232903
122	0x3c2673df	0.010159462
123	0x80000581	-1.974e-42
124	0x3b99c255	0.0046923556
125	0x3c7f198a	0.015570054
126	0x80000558	-1.917e-42
127	0x800000c4	-2.75e-43
128	0x3bceeef4	0.0063151065
129	0x3cc11288	0.023568407
130	0xb9994a16	-0.00029237632
131	0xbabb4a8a	-0.0014289182
132	0x3bc25fd0	0.005931832
133	0x3c86720a	0.0164118
134	0x3be9856c	0.007126501
135	0x3ce5b15a	0.02803867
136	0x0000002c	6.2e-44
137	0x000003dd	1.386e-42
138	0xaee9b054	-1.06269354e-10
139	0xb6baaeec	-5.5635956e-06
140	0x3a9dddff	0.0012044309
141	0x000003ce	1.365e-42
142	0x0000045f	1.568e-42
143	0x000002c5	9.94e-43
144	0x3c72227c	0.0147787295
145	0x9cac2921	-1.1392637e-21
146	0x3bd66a17	0.0065434086
147	0x000003ab	1.316e-42
148	0x800002e2	-1.034e-42
149	0x3c8c03a7	0.017091585

ff_model.3.weight f4 [120, 150]
0	0xb8670053	-5.5074994e-05
1	0x22462169	2.685169e-18
2	0x80f0efc2	-2.2126528e-38
3	0x3bb1d1d1	0.0054266234
4	0x3cf20838	0.029544935
5	0x3b69c33d	0.003566935
6	0x105724ef	4.2429726e-29
7	0x3b3f4e91	0.0029191116
8	0x3c05ded8	0.008170806
9	0x00000023	4.9e-44
10	0x1cee6371	1.5775224e-21
11	0x80000002	-3e-45
12	0x3b859591	0.0040766676
13	0x000002af	9.63e-43
14	0x000000e9	3.27e-43
15	0x00000135	4.33e-43
16	0x3a87ec1e	0.0010370051
17	0xbb85234a	-0.0040630447
18	0x80000198	-5.72e-43
19	0x3b8d3c4f	0.004310168
20	0x3b5642ff	0.0032693741
21	0x1582c90a	5.2823766e-26
22	0xba8a5d42	-0.0010556357
23	0x3c3ff4ba	0.011716062
24	0xa7e597de	-6.3724923e-15
25	0xbbd7df8d	-0.0065879286
26	0x35acd66f	1.2877407e-06
27	0x3cbda19a	0.023148347
28	0x3b1e086c	0.0024113907
29	0x10888470	5.3846594e-29
30	0x324142d8	1.1249277e-08
31	0x3aab6742	0.0013077038
32	0xbb588984	-0.003304095
33	0x3b573209	0.003283622
34	0xbba4ffed	-0.0050353915
35	0xbba547dc	-0.0050439667
36	0x3c91179b	0.017711451
37	0x17b4bc46	1.1679754e-24
38	0x2c927262	4.1622686e-12
39	0x3c24d28a	0.010059962
40	0xa930d027	-3.9260394e-14
41	0xb540064c	-7.1534737e-07
42	0xa7c19c2a	-5.3737574e-15
43	0xba96b4fa	-0.0011498027
44	0x80000433	-1.506e-42
45	0x3c78280e	0.0151462685
46	0x3ac7dcc0	0.0015248284
47	0x3b90fba4	0.004424529
48	0x3c1d8518	0.009614252
49	0x3c668804	0.014070515
50	0xbbdd26cc	-0.0067490097
51	0x3ce1d323	0.027566498
52	0xbb538b15	-0.0032278944
53	0x800001f1	-6.96e-43
54	0x26fa38b3	1.7362603e-15
55	0x3b14db82	0.0022713845
56	0x9bbee6d1	-3.1582025e-22
57	0xbc13c8d3	-0.009020048
58	0x135af9d1	2.7638637e-27
59	0xba143c9e	-0.00056547846
60	0x06946bf1	5.583002e-35
61	0x3bc34057	0.0059585976
62	0xbb5a62a0	-0.0033322945
63	0x3c8e87ab	0.017398676
64	0x36a65aaa	4.95774e-06
65	0x02ee2fb7	3.4998344e-37
66	0x3b150e06	0.0022743954
67	0xa3197af3	-8.320182e-18
68	0xaab77762	-3.2590169e-13
69	0x3cafb613	0.021449124
70	0xbb903613	-0.0044009774
71	0x3b18fceb	0.002334411
72	0x3b282f04	0.002566279
73	0xbc8efab8	-0.017453536
74	0x39280a4d	0.00016025566
75	0xbc807cd2	-0.015684519
76	0x000003ca	1.359e-42
77	0x3b793bdb	0.0038030061
78	0xb39b4aea	-7.231377e-08
79	0x3cd62fe5	0.026145885
80	0x3b52ad2e	0.003214668
81	0x8000036f	-1.232e-42
82	0x02e89625	3.4175515e-37
83	0xbb9ccc2e	-0.0047850823
84	0x0738a9d3	1.3892528e-34
85	0x1f74eaf0	5.1863346e-20
86	0xbb4bf700	-0.0031122565
87	0x3c72e0fe	0.01482415
88	0x3838c807	4.405531e-05
89	0x3c91a605	0.01777936
90	0xbc433e93	-0.011916774
91	0x3b1a8601	0.0023578408
92	0xbc082e92	-0.0083118845
93	0x000001b8	6.17e-43
94	0x174aeeac	6.5570966e-25
95	0xb907c61a	-0.00012948402
96	0x801d36a7	-2.682835e-39
97	0x80000236	-7.93e-43
98	0xbca316f1	-0.0199084
99	0x3bb2bb81	0.005454481
100	0x3c57b582	0.013165833
101	0xbc37c116	-0.011215469
102	0x000004c4	1.71e-42
103	0xa0291478	-1.4321629e-19
104	0xbcbbe98c	-0.022938512
105	0x3c85d8bf	0.016338704
106	0xbc1d8172	-0.009613382
107	0xb4877363	-2.5229664e-07
108	0x28dcef84	2.452878e-14
109	0xbc853524	-0.016260691
110	0x000002f6	1.062e-42
111	0xbc08d1ad	-0.008350772
112	0xbc053669	-0.008130648
113	0x3208c888	7.961837e-09
114	0x3cebaa0e	0.028767612
115	0x29954450	6.6287796e-14
116	0x3c292578	0.010323875
117	0xb4a2555b	-3.0236956e-07
118	0x03190071	4.4963166e-37
119	0x3b0cb4f6	0.0021470166
120	0xbcc6a53d	-0.024248714
121	0x3b971e08	0.0046117343
122	0x3c81a107	0.015823854
123	0x9e9fa6df	-1.6903796e-20
124	0x3a814912	0.0009863696
125	0xbb692297	-0.0035573596
126	0x9ceff852	-1.5879883e-21
127	0x0000039f	1.299e-42
128	0x3a71a398	0.0009217798
129	0x3b3ec3d2	0.0029108417
130	0xb4182ff4	-1.4173548e-07
131	0xba04b870	-0.0005062884
132	0xbc037f53	-0.008025962
133	0x3cefcae5	0.029271552
134	0xbb22379e	-0.0024752389
135	0x3b56489f	0.0032697094
136	0x2ae290b3	4.024607e-13
137	0x01084444	2.5028233e-38
138	0xa80594b2	-7.415226e-15
139	0xbbb06873	-0.005383545
140	0x3c87d94d	0.01658311
141	0xabd45ef3	-1.508986e-12
142	0x8b0e9887	-2.7462954e-32
143	0x00025c00	2.16674e-40
144	0xbb9830e3	-0.0046444996
145	0x32c26c08	2.26337e-08
146	0xbc8f4dd9	-0.017493175
147	0x85880352	-1.2790598e-35
148	0x8000004a	-1.04e-43
149	0xbb6ee049	-0.0036449602
150	0xb88a7d08	-6.603642e-05
151	0x1855fcdc	2.7657266e-24
152	0x12c801c3	1.2622209e-27
153	0xbb6364e9	-0.0034697598
154	0x3c845233	0.016152477
155	0xba8e34be	-0.0010849459
156	0x000001a9	5.96e-43
157	0x3ac89edc	0.0015306133
158	0x3ccbd5d0	0.024882227
159	0x80000e71	-5.18e-42
160	0x8000026a	-8.66e-43
161	0x000002db	1.024e-42
162	0x39bdad89	0.00036178183
163	0x0000033f	1.164e-42
164	0x143a24b6	9.39784e-27
165	0x16960678	2.423789e-25
166	0x39e08eff	0.0004283115
167	0xbbb8ad74	-0.0056359116
168	0x94c43062	-1.9810026e-26
169	0xbbd55719	-0.006510627
170	0xbc76899c	-0.015047457
171	0x9a813765	-5.3442644e-23
172	0x3cca070f	0.024661569
173	0x3c1b1227	0.009464777
174	0xa787377d	-3.7530188e-15
175	0x3cade2fb	0.021226397
176	0xb2d58738	-2.4857954e-08
177	0xbb34d182	-0.0027590697
178	0xba57205d	-0.00082064216
179	0x0f294c1c	8.3470014e-30
180	0x3493a819	2.750319e-07
181	0xba48f42f	-0.0007665781
182	0x39f019da	0.00045795628
183	0x3b14ace0	0.002268605
184	0xbc3c54eb	-0.011494855
185	0xbc17405a	-0.009231651
186	0xbb8c1d08	-0.0042759217
187	0x2083d23f	2.2331392e-19
188	0xac0b1ecb	-1.9770182e-12
189	0xbb99e412	-0.0046963776
190	0x299be7f9	6.9236236e-14
191	0x35cb55d3	1.5149657e-06
192	0xa836d5c5	-1.0149383e-14
193	0x3bb2f13c	0.0054608863
194	0x00000248	8.18e-43
195	0xbc0d3359	-0.008618199
196	0x3accd065	0.0015626071
197	0xbb851596	-0.004061411
198	0xbc31b091	-0.010845319
199	0xbbf07403	-0.0073380484
200	0xbc14b630	-0.00907664
201	0x3c5fcb3a	0.013659293
202	0x3bffafec	0.007802954
203	0x00000393	1.282e-42
204	0x27ffe7e0	7.1028117e-15
205	0x3a972fa7	0.0011534587
206	0x1c077314	4.481649e-22
207	0xbca96d4b	-0.020681998
208	0x8000022f	-7.83e-43
209	0xba42e2a4	-0.0007434285
210	0x05c0a51d	1.8116246e-35
211	0x3c458b0e	0.012057079
212	0x3b0d3726	0.0021547764
213	0xbc3ab2db	-0.0113951815
214	0xb8134ac1	-3.511715e-05
215	0x80da51ea	-2.0049523e-38
216	0xbbd6aa08	-0.006551031
217	0x1d8b7a9f	3.691978e-21
218	0x1dc69a4d	5.2569707e-21
219	0x3cb0e0b6	0.021591526
220	0x3c207dd5	0.009795626
221	0xbb042d65	-0.0020168659
222	0x3a57d4f0	0.0008233329
223	0x3c6812bb	0.014164622
224	0xbb1cd96c	-0.0023933304
225	0x39ac1592	0.00032822468
226	0x1fda61a4	9.2488124e-20
227	0x3b07a572	0.0020697978
228	0x3352faf2	4.912267e-08
229	0xbae02649	-0.0017101254
230	0x3a12e45b	0.00056034856
231	0x1d441f0b	2.5956433e-21
232	0x23d31b00	2.28881e-17
233	0xbb3304ff	-0.002731621
234	0x8000003e	-8.7e-44
235	0xa422ef72	-3.533097e-17
236	0x3a8c64bf	0.0010711177
237	0xbcaaac1c	-0.020834021
238	0xba089731	-0.00052105176
239	0x3c08d60c	0.008351814
240	0xbc9c98a0	-0.019115746
241	0x3b25e2e8	0.0025312249
242	0x3ccd3e48	0.025054112
243	0x00000090	2.02e-43
244	0x800002cd	-1.005e-42
245	0xbb3a8230	-0.0028458945
246	0x8000036f	-1.232e-42
247	0x800002e6	-1.04e-42
248	0x3c4cd790	0.012502566
249	0x3cacf30f	0.021111993
250	0xbc1dfbc1	-0.009642542
251	0xbc6c5442	-0.0144243855
252	0x000003d4	1.373e-42
253	0x92c95dad	-1.2707976e-27
254	0x3d09b476	0.033619367
255	0x3bdcf8a6	0.0067435084

ff_model.3.bias f4 [120]
0	0x3b43fbea	0.002990479
1	0xb98a1689	-0.000263382
2	0xba0f6d59	-0.0005471311
3	0x3d447138	0.047959536
4	0x3cb10e08	0.021613136
5	0x3cbbcb8e	0.02292421
6	0x3cc93e81	0.024565937
7	0x3cdf5d3b	0.027266135
8	0x3cdf900b	0.027290365
9	0x3c7fa04f	0.015602185
10	0x3cfa07c7	0.030521287
11	0x3d55054c	0.052007005
12	0x3c85c442	0.016328935
13	0x3ccc864c	0.024966381
14	0x3c34512b	0.01100568
15	0x3ce295f7	0.0276594
16	0x3d1df660	0.03856504
17	0x3d1f3790	0.038871348
18	0x3a49e656	0.0007701864
19	0x3d5ddade	0.054163806
20	0x3cc92898	0.02455549
21	0x3c5e0f8f	0.013553514
22	0x3b05f303	0.0020439036
23	0x3cb7018f	0.02233961
24	0x3c2ba3a7	0.0104760295
25	0x3bf42925	0.007451194
26	0x3cdd6c7f	0.027029274
27	0xbb00da67	-0.0019661428
28	0x3cf3e43d	0.029771918
29	0x3bb16683	0.0054138317
30	0x3cfbbffb	0.030731192
31	0x3c5adb88	0.013358004
32	0x3d7a2aca	0.061075963
33	0x3d6ac052	0.057312317
34	0x3cb84d2c	0.022497736
35	0x3abb5005	0.0014290815
36	0x3d4d7839	0.05016348
37	0x3d1f6f64	0.03892459
38	0x3cc974ce	0.02459183
39	0x3b667353	0.0035163953
40	0x3ca78862	0.020450775
41	0x3bcdbb1f	0.00627841
42	0x3cc0d269	0.023537831
43	0x3d2dedc8	0.042463094
44	0x3b9655cd	0.004587865
45	0x3ccdba16	0.025113147
46	0x3c936b47	0.01799549
47	0x3d22ea1b	0.03977404
48	0x3adc07aa	0.0016786952
49	0x3b9c2ff8	0.0047664605
50	0x3d319747	0.04335716
51	0x3c536656	0.012902817
52	0x3c563cb3	0.013075995
53	0x3caae99a	0.020863343
54	0x3d21f0ae	0.03953617
55	0x3bbc2dbc	0.0057427566
56	0x3c7455d3	0.01491304
57	0x3cd1968f	0.025584487
58	0x3c8d77be	0.017269012
59	0x3d19e6af	0.037573513
60	0x3d32f46b	0.043690126
61	0x3b18c976	0.002331344
62	0x3d2b805a	0.041870452
63	0x3d3c983b	0.046043616
64	0x3cac5cdc	0.021040373
65	0x3d259a62	0.040430434
66	0x3c2a436c	0.010392051
67	0x3c9be637	0.019030673
68	0x3d0213db	0.031757217
69	0x3cca3ce4	0.024687238
70	0x3d2a9664	0.04164733
71	0x3d33f527	0.043934967
72	0x3c771167	0.015079833
73	0x3cc28b29	0.023747997
74	0x3d45fb73	0.048335504
75	0x3d4b8010	0.049682677
76	0x3c9791c0	0.018502116
77	0x3d4cc264	0.049990073
78	0x3cc048da	0.023472238
79	0x3c0e4f9f	0.008685975
80	0x3d1927b7	0.03739139
81	0x3d4045a3	0.04694141
82	0x3d135843	0.035972845
83	0x3c8a7856	0.016903084
84	0x3c9d0dda	0.019171644
85	0x3d0e8667	0.034796145
86	0x3d40ede3	0.047101866
87	0x3cca8ac9	0.024724381
88	0x3d310fd5	0.04322799
89	0x3cee5756	0.02909438
90	0x3d032cc2	0.032025106
91	0x3c7de148	0.015495606
92	0xbb1c8299	-0.0023881553
93	0x3c98b13f	0.018639205
94	0x3d23cc1f	0.039989587
95	0x3b0be724	0.0021347487
96	0x3d2e6d57	0.042584743
97	0x3bebf27f	0.0072005386
98	0x3b83bdc2	0.0040204236
99	0x3ce8ecae	0.02843317
100	0x3d18adb4	0.03727503
101	0x3ca06251	0.01957813
102	0x3d537ea1	0.051634435
103	0x3cabda48	0.020978108
104	0x3c2ac63c	0.010423239
105	0x3d791770	0.060813367
106	0x3d012935	0.03153344
107	0x3d570f78	0.052504987
108	0x3d30790c	0.04308419
109	0x3d5c43c1	0.053775553
110	0x3c84adba	0.01619612
111	0x3ccca8de	0.024982866
112	0x3cf0e2a3	0.029404944
113	0x3cd68f00	0.026191235
114	0x3d0a0a6f	0.033701357
115	0x3bcbdaa4	0.0062211324
116	0x3cfb2683	0.030658012
117	0x3d57e518	0.052708715
118	0x3cb894eb	0.022531947
119	0x3c25e451	0.010125236

ff_model.6.weight f4 [45, 120]
0	0xba1961d4	-0.00058510643
1	0xbafc93bd	-0.0019270104
2	0x3b957cca	0.004561995
3	0x3d037bda	0.032100536
4	0x3d0cf3bf	0.034412142
5	0x3d05911f	0.0326091
6	0x3bad799d	0.0052940384
7	0x3c639d8d	0.0138925435
8	0x3d644d31	0.055737678
9	0x3ab344a7	0.0013677076
10	0x3d76cc33	0.060253333
11	0x3c989c2e	0.01862916
12	0x3cdc7496	0.026911061
13	0x3d048b39	0.032359336
14	0x3c39e49b	0.011346008
15	0x3d17dd57	0.03707632
16	0x3c350cfc	0.011050459
17	0x3cebd806	0.028789531
18	0x3c0d56ed	0.008626682
19	0x3bf0f475	0.0073533603
20	0x3d4b3c99	0.049618337
21	0x3d04bba2	0.032405503
22	0x3c2bbb32	0.010481643
23	0x3b7dac69	0.00387075
24	0x3c95e5cf	0.018298058
25	0x3d0137d2	0.031547375
26	0xba5f0fc0	-0.0008509122
27	0x3a8c361a	0.0010697276
28	0x3ba66d69	0.0050789607
29	0x3d113129	0.035447273
30	0x3d01e809	0.031715427
31	0x3cb90d82	0.022589449
32	0xbc4f8ad3	-0.012667376
33	0x3cf10d6c	0.029425345
34	0x3a64e7e3	0.00087320636
35	0x3b263e71	0.0025366808
36	0x3d00e005	0.03146364
37	0x3d5a2114	0.053254202
38	0x3c0b5c40	0.008505881
39	0x3c076c9a	0.008265639
40	0x3b9dcb8d	0.004815525
41	0x3c64abc8	0.0139569715
42	0x3d1223b0	0.035678566
43	0x3d25a904	0.04044439
44	0x3c9e1bcc	0.019300364
45	0x3d360d77	0.044446435
46	0x3ced6d10	0.02898267
47	0x3d1ed878	0.03878066
48	0x3b91ea80	0.0044530034
49	0x3c19f46f	0.009396656
50	0xbc26d256	-0.010181984
51	0x3d38eccd	0.045147706
52	0x3ca44bce	0.020055678
53	0x3d319dc2	0.04336334
54	0x3d8e8fdf	0.06961035
55	0x3b924e42	0.0044648955
56	0x3ca5316e	0.020165171
57	0x3d638fa0	0.055556893
58	0x3ce6b4d5	0.0281624
59	0x3d201e89	0.03909162
60	0x3b862e2b	0.004094859
61	0x3b9c58ce	0.0047713285
62	0x3cd7b8ac	0.026333176
63	0x3d1e0be1	0.038585547
64	0x3d21648d	0.039402533
65	0xbb139f0c	-0.002252522
66	0x3cad8980	0.02118373
67	0x3cc801d7	0.02441494
68	0xbb9a68bc	-0.0047121923
69	0x3b642abb	0.0034815508
70	0x3d0b6f97	0.034041967
71	0x3d235504	0.039876
72	0xbbf6b915	-0.0075293877
73	0x3d479e6d	0.04873507
74	0x3c63607b	0.013877983
75	0x3c97db34	0.018537141
76	0x3d0371ae	0.032090835
77	0x3c82d344	0.01596988
78	0x3cc7281a	0.024311114
79	0x3c6bae47	0.014384813
80	0x3bf57be0	0.0074915737
81	0x3c1db43c	0.009625491
82	0x3c8e5393	0.017373836
83	0x3c9df75c	0.01928299
84	0x3ca73162	0.02040929
85	0x3c6a41b1	0.014297889
86	0x3c791fe8	0.015205361
87	0x3d29a087	0.041412856
88	0x3badd2b6	0.0053046597
89	0x3d18a67d	0.03726815
90	0x3cafabb9	0.021444188
91	0x3ba3b9f2	0.0049965316
92	0x3b4d99cf	0.0031372195
93	0x3c837abb	0.016049733
94	0x3cb9c4f1	0.022676917
95	0x3bf8053e	0.0075689843
96	0x3c39f363	0.011349532
97	0x3d138ee7	0.036024954
98	0x3be1b104	0.006887557
99	0x3cd0c4ac	0.025484405
100	0x3c46f2be	0.012142835
101	0x3ca628af	0.020283071
102	0xbb9db46c	-0.0048127677
103	0xbc113808	-0.008863457
104	0x3c92d9f1	0.017926188
105	0x3d4a08bd	0.04932474
106	0x3c83b787	0.016078724
107	0x3ca158bd	0.019695634
108	0xbcccf9fa	-0.025021542
109	0x3d1ebe9a	0.03875599
110	0x3ca305de	0.019900259
111	0x3cf6a2cc	0.030106924
112	0xbc1e937a	-0.009678716
113	0x3b996030	0.004680656
114	0x3c196768	0.009363033
115	0x3bd8c9da	0.0066158595
116	0x3d54d5dc	0.051961765
117	0xbb3a6dae	-0.0028446722
118	0x3c1e7c16	0.009673139
119	0x3c824fd5	0.015907208
120	0x3bcfa00c	0.0063362177
121	0x3c09755b	0.008389796
122	0x3b05f37e	0.0020439322
123	0x3cce0064	0.02514667
124	0x3c9569d7	0.018238945
125	0x3cab0dc6	0.020880591
126	0x3cb8dfa0	0.02256757
127	0x3cbca6b5	0.02302871
128	0x3c8e0b40	0.017339349
129	0x3c97d74d	0.01853528
130	0x3d25e5e5	0.040502448
131	0x3d1b767f	0.037954804
132	0x3ca55ca0	0.020185769
133	0x3ccfa709	0.025348203
134	0x3c4512b1	0.012028382
135	0x3ccd55d0	0.025065333
136	0x3ce279a5	0.027645895
137	0x3c8df7f3	0.017330145
138	0x3c616686	0.013757354
139	0x3ce3783f	0.027767299
140	0x3ccfff3f	0.025390266
141	0x3c166acb	0.009180735
142	0x3c26a2e4	0.010170672
143	0x3c9a53ec	0.018838845
144	0x3c9b313d	0.018944377
145	0x3d42b57b	0.047536355
146	0x3d19f819	0.03759012
147	0x3ac5e3a2	0.0015097747
148	0x3d2042e7	0.039126303
149	0x3d1545d3	0.036443543
150	0x3cec4e3c	0.028845899
151	0x3d67e478	0.05661437
152	0x3d0db239	0.034593794
153	0x3d09009b	0.033447843
154	0x3ca53cba	0.020170558
155	0x3b60343e	0.0034210826
156	0xba735e57	-0.0009283772
157	0x3be0bc77	0.0068584043
158	0x3ca015dc	0.019541673
159	0x3c06ee0d	0.008235467
160	0x3ce00076	0.02734397
161	0x3c520f32	0.012821006
162	0x3cd47bae	0.025937881
163	0x3be597ab	0.0070066056
164	0x3c201452	0.00977047
165	0x3d16fff0	0.036865175
166	0x3c9d59cc	0.019207858
167	0x3ce224c1	0.027605416
168	0x3b9fd1fc	0.004877327
169	0x3c089c6e	0.008338077
170	0x3c93ae8f	0.018027572
171	0x3c8bf8d0	0.017086416
172	0x3cf6654e	0.030077603
173	0x3c9364a0	0.017992318
174	0x3b4b8e20	0.0031060055
175	0x3bf7c591	0.0075613935
176	0x3c8e517f	0.017372845
177	0x3d84bf16	0.06481759
178	0x3caf3d0d	0.021391416
179	0x3c84e415	0.01622204
180	0x3d04acaa	0.032391228
181	0x3bd2e7ae	0.00643631
182	0x3c737ed6	0.014861783
183	0x3d1f9366	0.03895893
184	0x3cd97544	0.026545174
185	0x3d072003	0.032989513
186	0x3c74c86d	0.014940363
187	0x3c943714	0.01809267
188	0x3ce6a4f8	0.028154835
189	0x3c2b82dd	0.010468212
190	0x3d0aa2cb	0.033846658
191	0x3d6f776a	0.05846349
192	0x3d155cfe	0.036465637
193	0x3c69daba	0.01427334
194	0x3c87711a	0.016533423
195	0x3ce63ccd	0.028105164
196	0x3c43a0c3	0.011940184
197	0x3c90df4b	0.0176846
198	0x3cd392f2	0.025826905
199	0x3c65ac9b	0.014018203
200	0x3cc69bcd	0.024244213
201	0x3c7dcb7e	0.015490411
202	0x3cb7abd5	0.022420803
203	0x3d15e5fb	0.03659628
204	0x3cbc5420	0.022989333
205	0x3c8fdff1	0.017562838
206	0x3caf577a	0.021404017
207	0x3d1cdcfc	0.038296685
208	0x3cc03dd6	0.023466986
209	0x3cc6532c	0.024209581
210	0x3cae98c5	0.02131308
211	0x3d34100e	0.043960623
212	0x3a9584b5	0.0011407348
213	0x3d68851c	0.056767568
214	0x3ceffb9f	0.029294787
215	0x3bab05c0	0.0052191913
216	0x3cd9ea47	0.02660097
217	0x3c06e73a	0.00823384
218	0x3c06ae5c	0.008220281
219	0x3cb3aee6	0.021933984
220	0x3d1706f6	0.036871873
221	0x3cb99170	0.022652358
222	0x3d1fbc7f	0.038998123
223	0x3c32eb1d	0.010920313
224	0x3c879b4f	0.01655355
225	0x3d421539	0.04738352
226	0x3cc5fb55	0.024167696
227	0x3cb5017d	0.022095436
228	0x3ca1c6f6	0.019748192
229	0x3c4bc88b	0.01243795
230	0x3c8264c7	0.015917195
231	0x3c269117	0.010166428
232	0x3bbaf9d7	0.0057060528
233	0x3bd186cc	0.006394243
234	0x3ce9c676	0.028537016
235	0x3bcc4e93	0.0062349527
236	0x3d2680ac	0.040650055
237	0x3cdc0792	0.026859079
238	0x3ca556bd	0.020182962
239	0x3c8c1b0f	0.017102746
240	0xbbb7417e	-0.005592524
241	0x3cc9c421	0.024629654
242	0xbada49e9	-0.0016654107
243	0xbb0cfe80	-0.0021513999
244	0xbaf9601f	-0.0019025839
245	0x3a895caf	0.0010479892
246	0x3c1665ab	0.009179513
247	0xba177f2c	-0.0005779143
248	0xbb372412	-0.0027945084
249	0xbbe8210c	-0.0070840176
250	0xbaf5dbf0	-0.0018757563
251	0xbb6ccfb6	-0.0036134548
252	0x3bd854cd	0.006601906
253	0xbab7603d	-0.0013990473
254	0xba36fdc3	-0.00069805625
255	0x3b981034	0.0046406034

ff_model.6.bias f4 [45]
0	0x3d9f2d35	0.077722944
1	0x3d82661f	0.06367134
2	0xbc1c45fc	-0.00953817
3	0x3d083d84	0.03326179
4	0x3d8899e3	0.066699766
5	0x3dc7a6ea	0.09748633
6	0x3dd31c1f	0.10308098
7	0xbbc173a5	-0.0059036785
8	0xbc829984	-0.015942343
9	0x3d22b31f	0.039721604
10	0xbcba3274	-0.022729136
11	0x3dc5e43c	0.09662673
12	0xbd26cfdc	-0.040725574
13	0x3dcd4c57	0.10024326
14	0xbd0bf97a	-0.034173466
15	0x3dd61a99	0.10454292
16	0x3dd30dee	0.10305391
17	0xbc35eaf2	-0.011103379
18	0x3d5b0b91	0.053477827
19	0xbd2b2709	-0.041785274
20	0xbc1e2766	-0.009652948
21	0x3dd0fd51	0.10204566
22	0x3dba29bb	0.09089991
23	0x3c6e0dd3	0.014529663
24	0x3d4eb286	0.050463222
25	0xbbfd70a8	-0.007734377
26	0xbb354740	-0.0027660877
27	0x3d7b9d8b	0.06142954
28	0xbc223dd5	-0.009902437
29	0x3db856d5	0.09000937
30	0x3dca54f6	0.09879486
31	0x3d91435d	0.07092927
32	0x3dddb3b3	0.108252905
33	0x3e07f3e1	0.13276626
34	0x3dfb9d32	0.12285842
35	0x3bf32d67	0.007421184
36	0x3da0886a	0.07838519
37	0x3db519cf	0.08842813
38	0xbcf8439f	-0.030305682
39	0x3c39f4ed	0.011349899
40	0xbc9a12b1	-0.01880774
41	0xbc0943e5	-0.008378004
42	0x3dabf7bc	0.08396861
43	0x3c744a65	0.014910315
44	0x3db46472	0.08808221

ff_model.9.weight f4 [2, 45]
0	0x3e343dcc	0.17601699
1	0xbda7ba64	-0.08189848
2	0x3d59f61e	0.05321323
3	0x3de01f1d	0.109434344
4	0x3889c253	6.568865e-05
5	0x3c3e57e2	0.011617633
6	0xbd486f2c	-0.048934147
7	0xbddbfa7b	-0.10741135
8	0x3ceed555	0.029154459
9	0x3d6c8b3e	0.05774998
10	0xbd5a2863	-0.053261172
11	0x3e12d70b	0.14339845
12	0xbd16aa80	-0.036783695
13	0x3e1645bf	0.14675044
14	0x3d87fc55	0.066399254
15	0xbc880ba3	-0.016607111
16	0x3de04612	0.10950865
17	0xbd83fb61	-0.06444431
18	0x3e08e975	0.13370307
19	0xbda0f917	-0.0786001
20	0xbde86c14	-0.11348739
21	0x3df6eb3f	0.120565884
22	0xbda1f78b	-0.07908543
23	0x3d8a3233	0.06747856
24	0x3d1d7a80	0.038446903
25	0x3cc2bda6	0.023772072
26	0xbc7a8672	-0.015290843
27	0xbc96a689	-0.018389957
28	0xbdaa5735	-0.08317415
29	0xbd35a655	-0.04434808
30	0x3d9b262b	0.07575639
31	0x3e2b902b	0.16754214
32	0x3d58bff3	0.052917432
33	0x3de6f300	0.11276817
34	0x3d8375e3	0.064189695
35	0x3d9fd645	0.078045405
36	0x3e130338	0.14356697
37	0xbd84bc81	-0.06481267
38	0xbd785e59	-0.060636852
39	0x3df046f3	0.117322825
40	0xbd44bae5	-0.0480298
41	0x3ca930ea	0.020653207
42	0x3dcc4e61	0.09975887
43	0x3da6e20b	0.08148583
44	0x3d9f6a3f	0.07783937
45	0x3d797f9a	0.060912706
46	0xbe31dd4e	-0.17369577
47	0x3d8a3d30	0.06749952
48	0xbc540e8a	-0.0129429195
49	0xbdfbcfc0	-0.122954845
50	0xbd9d25d4	-0.07673231
51	0xbe0e4224	-0.13892418
52	0xbdcdf1aa	-0.100558594
53	0x3db9cec0	0.090726376
54	0xbdddc054	-0.10827699
55	0x3cedff6d	0.02905246
56	0x3d0d57ea	0.03450767
57	0x3d86d3e8	0.06583387
58	0x3c997d90	0.01873663
59	0x3df8e0fb	0.121522866
60	0xbe087ff0	-0.13330054
61	0x3a8a9f32	0.0010576008
62	0xbc682065	-0.01416788
63	0x3c7d4451	0.015458182
64	0x3c059d3d	0.008155164
65	0xbc59267f	-0.013253807
66	0xbd4340ac	-0.047669098
67	0xbe2bc72f	-0.16775201
68	0xbdb5d0c0	-0.088777065
69	0xbdb38d59	-0.08767194
70	0x3d63762e	0.055532627
71	0xba85856f	-0.0010186861
72	0xbe0a32f3	-0.13495998
73	0x3d813197	0.06308287
74	0xbe225a27	-0.15854703
75	0xbd30d475	-0.043171365
76	0x3d75dfbc	0.060027823
77	0xbd3c120d	-0.045915652
78	0x3c8c7670	0.01714632
79	0xbd758c24	-0.0599481
80	0xbdeb1902	-0.11479379
81	0x3d54a161	0.051911715
82	0xbe1e4bbb	-0.15458576
83	0x3dda063c	0.1064572
84	0xbdfbfc62	-0.123039976
85	0x3d228109	0.03967384
86	0x3dad36d5	0.08457724
87	0xbb2eca60	-0.0026670918
88	0xbdee4eda	-0.116361335
89	0xbd1f046d	-0.03882258

ff_model.9.bias f4 [2]
0	0x3d34ea90	0.04416901
1	0xbe84f13e	-0.25965303
