Version12_7/HealtechServerDownload/BepiPred3_src/bp3/BP3Models/BP3C50IDSeqLenFFNN/Fold1.pt (torch, 866575 bytes, 8 tensors)

ff_model.0.weight f4 [150, 1281]
0	0x800008ba	-3.13e-42
1	0x00001062	5.877e-42
2	0x80000408	-1.446e-42
3	0x80002bc2	-1.5697e-41
4	0x800019be	-9.235e-42
5	0x800010bf	-6.007e-42
6	0x00000477	1.602e-42
7	0x80001205	-6.464e-42
8	0x80002347	-1.2655e-41
9	0x80001224	-6.508e-42
10	0x80000764	-2.651e-42
11	0x80000395	-1.285e-42
12	0x8000098c	-3.425e-42
13	0x80000ab3	-3.838e-42
14	0x00000961	3.365e-42
15	0x80000303	-1.08e-42
16	0x0000165f	8.025e-42
17	0x00001954	9.086e-42
18	0x80001bed	-1.0018e-41
19	0x80002068	-1.1625e-41
20	0x00001610	7.915e-42
21	0x80001401	-7.176e-42
22	0x800018bd	-8.874e-42
23	0x80000b6d	-4.099e-42
24	0x80000efa	-5.373e-42
25	0x000017d3	8.547e-42
26	0x000019e3	9.286e-42
27	0x80000ac5	-3.863e-42
28	0x00000a8f	3.788e-42
29	0x000013a8	7.051e-42
30	0x800003dd	-1.386e-42
31	0x0000055d	1.924e-42
32	0x00001ca9	1.0281e-41
33	0x800016dd	-8.202e-42
34	0x800006e6	-2.475e-42
35	0x0000019a	5.75e-43
36	0x00000125	4.1e-43
37	0x000009f7	3.575e-42
38	0x80001f67	-1.1265e-41
39	0x000014b4	7.427e-42
40	0x800014db	-7.482e-42
41	0x8000031a	-1.113e-42
42	0x8000113a	-6.18e-42
43	0x000024c3	1.3188e-41
44	0x800001e6	-6.81e-43
45	0x800007ed	-2.843e-42
46	0x80000695	-2.361e-42
47	0x800008a6	-3.102e-42
48	0x00000d7a	4.834e-42
49	0x0000253c	1.3357e-41
50	0x800001e8	-6.84e-43
51	0x800031fb	-1.793e-41
52	0x800009cd	-3.516e-42
53	0x80002081	-1.166e-41
54	0x000010e7	6.063e-42
55	0x80001307	-6.826e-42
56	0x00000072	1.6e-43
57	0x80002310	-1.2578e-41
58	0x80000252	-8.32e-43
59	0x00001d96	1.0613e-41
60	0x800002aa	-9.56e-43
61	0x000013b7	7.072e-42
62	0x80001a23	-9.376e-42
63	0x0000079d	2.731e-42
64	0x800006e4	-2.472e-42
65	0x80002454	-1.3032e-41
66	0x80000776	-2.676e-42
67	0x0000145d	7.305e-42
68	0x800020b1	-1.1727e-41
69	0x00000e51	5.136e-42
70	0x000028a4	1.4579e-41
71	0x00001a00	9.327e-42
72	0x80000c6b	-4.455e-42
73	0x00001bc7	9.965e-42
74	0x80000f75	-5.545e-42
75	0x000011a0	6.323e-42
76	0x80000bb1	-4.194e-42
77	0x00000ea3	5.25e-42
78	0x000022a0	1.2421e-41
79	0x8000027b	-8.9e-43
80	0x00001c1d	1.0085e-41
81	0x80001f11	-1.1145e-41
82	0x00001936	9.044e-42
83	0x80003244	-1.8032e-41
84	0x00000d24	4.714e-42
85	0x00002bb0	1.5672e-41
86	0x8000038c	-1.272e-42
87	0x000011ee	6.432e-42
88	0x80002240	-1.2287e-41
89	0x00001311	6.84e-42
90	0x000011ce	6.387e-42
91	0x80000a79	-3.757e-42
92	0x800030ed	-1.7551e-41
93	0x80000326	-1.13e-42
94	0x80002398	-1.2769e-41
95	0x000002d1	1.01e-42
96	0x00001350	6.928e-42
97	0x80001d30	-1.047e-41
98	0x00000771	2.67e-42
99	0x80002986	-1.4896e-41
100	0x00000f2d	5.444e-42
101	0x000010c6	6.017e-42
102	0x00000344	1.171e-42
103	0x800019df	-9.281e-42
104	0x800014c7	-7.454e-42
105	0x80001952	-9.083e-42
106	0x80001367	-6.96e-42
107	0x80000d85	-4.85e-42
108	0x00000f88	5.572e-42
109	0x00001196	6.309e-42
110	0x800027be	-1.4257e-41
111	0x00002086	1.1667e-41
112	0x00001829	8.667e-42
113	0x80000466	-1.578e-42
114	0x00001d19	1.0438e-41
115	0x80000b8b	-4.141e-42
116	0x00000556	1.914e-42
117	0x80001368	-6.962e-42
118	0x8000267e	-1.3808e-41
119	0x0000009f	2.23e-43
120	0x80000b75	-4.11e-42
121	0x8000150f	-7.554e-42
122	0x0000111e	6.14e-42
123	0x00000224	7.68e-43
124	0x00001c81	1.0225e-41
125	0x80000dfb	-5.015e-42
126	0x0000142c	7.236e-42
127	0x80000929	-3.286e-42
128	0x80000e17	-5.054e-42
129	0x800010a0	-5.964e-42
130	0x8000011f	-4.02e-43
131	0x80002512	-1.3298e-41
132	0x000010f4	6.082e-42
133	0x00000a6a	3.736e-42
134	0x00000af9	3.936e-42
135	0x0000124e	6.566e-42
136	0x00000569	1.941e-42
137	0x000014e9	7.501e-42
138	0x80000807	-2.88e-42
139	0x8000025c	-8.46e-43
140	0x80001ba0	-9.91e-42
141	0x80001348	-6.917e-42
142	0x80002166	-1.1981e-41
143	0x80001da1	-1.0629e-41
144	0x00001fca	1.1404e-41
145	0x00000330	1.143e-42
146	0x800000ee	-3.34e-43
147	0x800002ab	-9.57e-43
148	0x800023ac	-1.2797e-41
149	0x8000078c	-2.707e-42
150	0x000008d6	3.17e-42
151	0x000012ac	6.698e-42
152	0x800030dc	-1.7527e-41
153	0x000021f3	1.2179e-41
154	0x800018c4	-8.884e-42
155	0x80000c69	-4.452e-42
156	0x00000e14	5.05e-42
157	0x80000fb8	-5.639e-42
158	0x80000f42	-5.473e-42
159	0x0000010f	3.8e-43
160	0x800016d5	-8.19e-42
161	0x00001bee	1.0019e-41
162	0x800013dc	-7.124e-42
163	0x00001e11	1.0786e-41
164	0x0000112e	6.163e-42
165	0x80000699	-2.367e-42
166	0x8000169f	-8.115e-42
167	0x000001e4	6.78e-43
168	0x80000872	-3.03e-42
169	0x000020cb	1.1764e-41
170	0x8000183c	-8.694e-42
171	0x8000228f	-1.2397e-41
172	0x80001ca6	-1.0277e-41
173	0x0000126d	6.61e-42
174	0x000002cf	1.008e-42
175	0x800022d4	-1.2494e-41
176	0x8000104b	-5.845e-42
177	0x80000466	-1.578e-42
178	0x000018aa	8.848e-42
179	0x80001563	-7.672e-42
180	0x00000c7a	4.476e-42
181	0x00000ed9	5.326e-42
182	0x80000c21	-4.351e-42
183	0x00001a19	9.362e-42
184	0x00000f1f	5.424e-42
185	0x0000138d	7.013e-42
186	0x00001558	7.657e-42
187	0x80000696	-2.363e-42
188	0x0000180e	8.629e-42
189	0x00001fdb	1.1428e-41
190	0x0000180f	8.63e-42
191	0x800027e3	-1.4309e-41
192	0x00000735	2.585e-42
193	0x80001f8e	-1.132e-41
194	0x0000168e	8.091e-42
195	0x00000316	1.107e-42
196	0x80001956	-9.089e-42
197	0x00001940	9.058e-42
198	0x0000007b	1.72e-43
199	0x00001983	9.152e-42
200	0x80000a57	-3.709e-42
201	0x0000158c	7.73e-42
202	0x800022ef	-1.2532e-41
203	0x80001454	-7.292e-42
204	0x80000c77	-4.472e-42
205	0x000014e8	7.5e-42
206	0x0000149e	7.396e-42
207	0x00000381	1.257e-42
208	0x80000d31	-4.732e-42
209	0x00000fce	5.67e-42
210	0x80000150	-4.71e-43
211	0x8000203d	-1.1565e-41
212	0x0000191d	9.009e-42
213	0x80000140	-4.48e-43
214	0x0000213b	1.1921e-41
215	0x00001ead	1.1004e-41
216	0x80001649	-7.994e-42
217	0x00001321	6.862e-42
218	0x00000314	1.104e-42
219	0x80001adc	-9.635e-42
220	0x80000d5a	-4.79e-42
221	0x80000e4a	-5.126e-42
222	0x000001eb	6.88e-43
223	0x000009f7	3.575e-42
224	0x80001614	-7.92e-42
225	0x800018da	-8.915e-42
226	0x00001072	5.9e-42
227	0x00002581	1.3454e-41
228	0x00001cf5	1.0388e-41
229	0x000017c1	8.521e-42
230	0x8000079d	-2.731e-42
231	0x00001a6d	9.48e-42
232	0x00002aa5	1.5298e-41
233	0x000012c2	6.729e-42
234	0x00000c1f	4.348e-42
235	0x800017fa	-8.601e-42
236	0x000025b3	1.3524e-41
237	0x80001b73	-9.847e-42
238	0x8000192a	-9.027e-42
239	0x0000117f	6.276e-42
240	0x800025cb	-1.3558e-41
241	0x80001724	-8.301e-42
242	0x000028de	1.466e-41
243	0x80001cc4	-1.0319e-41
244	0x000002ea	1.045e-42
245	0x80002aec	-1.5397e-41
246	0x00001c00	1.0045e-41
247	0x800023de	-1.2867e-41
248	0x8000137c	-6.99e-42
249	0x000001ca	6.42e-43
250	0x00000e0a	5.036e-42
251	0x00001f82	1.1303e-41
252	0x00001cec	1.0375e-41
253	0x00001d34	1.0476e-41
254	0x00001930	9.036e-42
255	0x000013da	7.121e-42

ff_model.0.bias f4 [150]
0	0x000009fa	3.579e-42
1	0x3ca494d4	0.020090498
2	0x189254af	3.7825624e-24
3	0x80000b31	-4.015e-42
4	0x3caf4bde	0.021398481
5	0x9f8d9661	-5.9964604e-20
6	0xbab9955c	-0.0014158892
7	0x3be4281d	0.0069627897
8	0x34b928b5	3.4488554e-07
9	0x8000053d	-1.879e-42
10	0xa32a4f90	-9.2325665e-18
11	0x3ca3e8cd	0.020008469
12	0x00000753	2.627e-42
13	0x00000042	9.2e-44
14	0x3c7ae8fd	0.015314338
15	0x0000046b	1.585e-42
16	0x3cbded6e	0.023184504
17	0x8000037e	-1.253e-42
18	0x27eaabb2	6.51342e-15
19	0xac5382b1	-3.0057452e-12
20	0x3c61ef1b	0.013789917
21	0x045c83aa	2.5921333e-36
22	0x800005a4	-2.023e-42
23	0x00000862	3.007e-42
24	0x2b8c7e3f	9.982639e-13
25	0x0000091c	3.268e-42
26	0x800000ac	-2.41e-43
27	0x000001e4	6.78e-43
28	0x3b8d80b7	0.0043183225
29	0x3b80f596	0.003935526
30	0x80000322	-1.124e-42
31	0x3c2c0fda	0.010501826
32	0x3c832329	0.016007977
33	0xaf5a361d	-1.984621e-10
34	0x000001ec	6.9e-43
35	0x80000186	-5.47e-43
36	0x3bb9d9bd	0.0056717084
37	0xb3c48bbe	-9.15238e-08
38	0x80000117	-3.91e-43
39	0x3cb9e681	0.02269292
40	0x8000079d	-2.731e-42
41	0x3c5788b8	0.013155155
42	0x0000020a	7.31e-43
43	0x000000ae	2.44e-43
44	0x3c20cfdd	0.0098151835
45	0x80000055	-1.19e-43
46	0x3c6fa0b2	0.014625715
47	0x3bb493a3	0.0055107637
48	0x8000063c	-2.236e-42
49	0x3c1f6b6d	0.009730202
50	0x38071a86	3.221121e-05
51	0x2ecef28c	9.4108804e-11
52	0x000004fc	1.788e-42
53	0x80000213	-7.44e-43
54	0x000004d5	1.733e-42
55	0x3c31427d	0.010819075
56	0x00000254	8.35e-43
57	0xbd0e6cda	-0.034771778
58	0x80000128	-4.15e-43
59	0x000007d5	2.81e-42
60	0x3c068391	0.008210079
61	0x9f00e242	-2.729221e-20
62	0x3cd39c91	0.025831493
63	0x00000084	1.85e-43
64	0x00000123	4.08e-43
65	0x00000949	3.331e-42
66	0x80000895	-3.079e-42
67	0x032ed6f5	5.1380763e-37
68	0x3c67cff4	0.014148701
69	0x00000200	7.17e-43
70	0x9bc93820	-3.328893e-22
71	0x9e9125fd	-1.5368184e-20
72	0xa11e38f6	-5.360787e-19
73	0x3c523745	0.01283056
74	0x8000059e	-2.015e-42
75	0x3afd9103	0.0019345585
76	0x000001d6	6.59e-43
77	0x0000056a	1.942e-42
78	0x9381292b	-3.2604773e-27
79	0x80000c3e	-4.392e-42
80	0x80000386	-1.264e-42
81	0x3c1dc952	0.009630518
82	0x8000007b	-1.72e-43
83	0x00000653	2.269e-42
84	0x3b74476e	0.003727402
85	0x80000228	-7.74e-43
86	0x3c77a8db	0.015115942
87	0x3c8a37dd	0.01687234
88	0x3c869cb1	0.016432138
89	0x3be4d934	0.0069839004
90	0x80000177	-5.25e-43
91	0x9a843052	-5.4671986e-23
92	0x800007de	-2.822e-42
93	0x3c1e40da	0.0096590165
94	0x3c997cc2	0.018736247
95	0x000000b1	2.48e-43
96	0x3ca04959	0.019566225
97	0x000006d4	2.45e-42
98	0x0000002e	6.4e-44
99	0xa436e20c	-3.9656428e-17
100	0x203d9902	1.6059549e-19
101	0x2e2cb6b3	3.927054e-11
102	0x3c875e0b	0.016524335
103	0x3ca4577c	0.020061247
104	0x80000003	-4e-45
105	0x3cc5ec81	0.024160625
106	0x800008ce	-3.159e-42
107	0x8b1e2179	-3.0454875e-32
108	0x3c93208f	0.017959861
109	0x000000a5	2.31e-43
110	0x0000029a	9.33e-43
111	0x800001c6	-6.36e-43
112	0x800000f2	-3.39e-43
113	0x3bfe5baa	0.007762392
114	0x00000795	2.72e-42
115	0x3d019493	0.031635832
116	0x00c6f7c5	1.8272311e-38
117	0x000006e8	2.477e-42
118	0x800002fc	-1.07e-42
119	0x0000012a	4.18e-43
120	0xac353c51	-2.575513e-12
121	0x800004e5	-1.756e-42
122	0xabe3824b	-1.6165484e-12
123	0x3c4b49b0	0.012407705
124	0x3bfd37d2	0.0077276016
125	0x000006a4	2.382e-42
126	0xb763dbe8	-1.3581455e-05
127	0x800006d3	-2.448e-42
128	0x00000442	1.527e-42
129	0x000005c6	2.071e-42
130	0x3c47abc5	0.012186949
131	0x9707ae41	-4.384079e-25
132	0x000008e1	3.185e-42
133	0xb4c6f235	-3.7056603e-07
134	0x3c3a89b8	0.011385374
135	0x0000000b	1.5e-44
136	0x0000018c	5.55e-43
137	0x3c9372a1	0.017998995
138	0x3cabdc87	0.02097918
139	0x80000077	-1.67e-43
140	0x3c41a201	0.01181841
141	0x800005c7	-2.073e-42
142	0x3cac4ba8	0.02103217
143	0x3cadb920	0.021206439
144	0x3c6c637a	0.014428014
145	0x800000c8	-2.8e-43
146	0x8000017a	-5.3e-43
147	0x80000641	-2.243e-42
148	0x91288bf6	-1.3295992e-28
149	0x975d651c	-7.153657e-25

ff_model.3.weight f4 [120, 150]
0	0x80000005	-7e-45
1	0x3cbb88aa	0.022892315
2	0x8000017c	-5.32e-43
3	0x800003c0	-1.345e-42
4	0x3cc410a9	0.023933725
5	0x204a3a02	1.7129259e-19
6	0xba5e45f9	-0.00084790547
7	0x3c11af1a	0.008891845
8	0xac8355a4	-3.732752e-12
9	0x8000041a	-1.471e-42
10	0xa2417eef	-2.6223575e-18
11	0xbc9b70e4	-0.018974729
12	0x000003ad	1.319e-42
13	0x988d4035	-3.651248e-24
14	0x3cb7817b	0.022400608
15	0x00000275	8.81e-43
16	0x3cd117b1	0.025523992
17	0x00000309	1.089e-42
18	0x84f9fa6e	-5.8769602e-36
19	0x2b85af4e	9.498875e-13
20	0x3c452bd7	0.012034378
21	0x850667e2	-6.31973e-36
22	0x80000409	-1.448e-42
23	0x8000015e	-4.9e-43
24	0x21f38ddb	1.6503869e-18
25	0x0000029b	9.35e-43
26	0x000000f4	3.42e-43
27	0x0000026b	8.67e-43
28	0xba40009c	-0.00073243096
29	0x3c2f4be6	0.010699248
30	0x00000105	3.66e-43
31	0x3c9b5d40	0.018965364
32	0x3c2b8b49	0.01047022
33	0xb97b149a	-0.000239449
34	0x000002e7	1.041e-42
35	0x0999d950	3.703777e-33
36	0x3c3860ea	0.011253575
37	0x346e51f5	2.2195293e-07
38	0x000004bd	1.7e-42
39	0x3c5c2bce	0.013438178
40	0x000000a6	2.33e-43
41	0x3bf91df6	0.0076024486
42	0x8000033d	-1.162e-42
43	0x000003eb	1.406e-42
44	0x3c0a7249	0.008450099
45	0x9c735380	-8.0509877e-22
46	0x3c494922	0.012285503
47	0x3c185c31	0.009299324
48	0x80000729	-2.569e-42
49	0x3c92b964	0.017910667
50	0x38ddf9e8	0.0001058465
51	0x2498a64b	6.6201203e-17
52	0x000001ae	6.03e-43
53	0x0000027d	8.93e-43
54	0x00000210	7.4e-43
55	0x3c3af5c8	0.011411138
56	0x8000026c	-8.69e-43
57	0xbc824249	-0.015900748
58	0xa027cf18	-1.4213972e-19
59	0x800011eb	-6.428e-42
60	0x3c350bfe	0.011050222
61	0x3580edb4	9.605924e-07
62	0x3cab3656	0.020899933
63	0x800003cd	-1.363e-42
64	0x00000016	3.1e-44
65	0x00000953	3.345e-42
66	0x800001cd	-6.46e-43
67	0xad845162	-1.5042804e-11
68	0x3c3456ae	0.011006994
69	0x2877c0b1	1.3753038e-14
70	0xb0a69820	-1.2121326e-09
71	0xb7345c40	-1.0750315e-05
72	0x3555702c	7.9511915e-07
73	0x3c805fae	0.015670624
74	0x000003a4	1.306e-42
75	0x3b38f72e	0.0028223502
76	0xaa653f11	-2.0361166e-13
77	0x000002a1	9.43e-43
78	0x000070da	4.0484e-41
79	0x80000b24	-3.997e-42
80	0x8000003c	-8.4e-44
81	0x3c874b39	0.016515361
82	0x000003ba	1.337e-42
83	0x800003e5	-1.397e-42
84	0x3b3d7169	0.002890671
85	0x800003e2	-1.393e-42
86	0x3c9329d2	0.017964277
87	0x3c531abd	0.012884793
88	0xbca27f6b	-0.019836148
89	0x3bc1c779	0.0059136716
90	0x00000429	1.492e-42
91	0x05432269	9.175176e-36
92	0x80000216	-7.48e-43
93	0x3c2dbefc	0.010604616
94	0x3c84417f	0.016144512
95	0xaf0096aa	-1.1695059e-10
96	0x3c276b8e	0.010218514
97	0x000000b3	2.51e-43
98	0x00000737	2.588e-42
99	0xa31a22fd	-8.355766e-18
100	0x3604edc1	1.9807924e-06
101	0x2e998b23	6.98235e-11
102	0x3c8c7606	0.017146122
103	0x3cad7421	0.021173539
104	0x128cba87	8.881225e-28
105	0x3cc6cc0e	0.024267223
106	0x00000815	2.899e-42
107	0x0ae8368b	2.2361304e-32
108	0x3c8fc16b	0.017548284
109	0x0000079a	2.727e-42
110	0x800004d2	-1.729e-42
111	0x0000037a	1.247e-42
112	0x80000285	-9.04e-43
113	0x3bbc87e8	0.005753506
114	0x800006c7	-2.431e-42
115	0x3cbfbd58	0.023405716
116	0x81e8a737	-8.546328e-38
117	0x80000237	-7.95e-43
118	0xac173957	-2.149022e-12
119	0x880dfe99	-4.272992e-34
120	0x3794b47b	1.7727018e-05
121	0x00000341	1.167e-42
122	0xb861cf17	-5.3837048e-05
123	0x3c56c006	0.013107305
124	0x3c232cb4	0.0099593885
125	0x00000a97	3.799e-42
126	0xb95985e5	-0.00020744612
127	0x80000b5f	-4.079e-42
128	0x00000422	1.483e-42
129	0x80000152	-4.74e-43
130	0x3c827641	0.015925528
131	0xac9cb034	-4.453349e-12
132	0x80000112	-3.84e-43
133	0xb9692a6b	-0.00022236413
134	0x3c3d712b	0.011562626
135	0xa6274d40	-5.804446e-16
136	0x800000b0	-2.47e-43
137	0x3ca15d95	0.019697944
138	0x3c992a1c	0.018696837
139	0x000002a7	9.51e-43
140	0x3c83295c	0.016010933
141	0x00000268	8.63e-43
142	0x3ca13b77	0.019681675
143	0x3ca3f6fb	0.02001523
144	0x3c9e36a4	0.019313164
145	0x0000019d	5.79e-43
146	0x80000668	-2.298e-42
147	0x80000456	-1.555e-42
148	0x90622b8d	-4.460419e-29
149	0xb329e025	-3.9552237e-08
150	0x800007b9	-2.77e-42
151	0x3c9d943c	0.019235723
152	0x80000260	-8.52e-43
153	0x80000fd9	-5.685e-42
154	0x3cb6f498	0.022333428
155	0xa1055764	-4.5177813e-19
156	0xbb00e457	-0.001966735
157	0x3bb223b9	0.0054363874
158	0x2b53d70a	7.5260685e-13
159	0x0000049e	1.656e-42
160	0x2259e239	2.9528745e-18
161	0xbca271d7	-0.019829674
162	0x000005bc	2.057e-42
163	0x90893f19	-5.413419e-29
164	0x3c9ac710	0.018893749
165	0x00000063	1.39e-43
166	0x3cad76e7	0.021174861
167	0x800002d1	-1.01e-42
168	0x8000b1b8	-6.3753e-41
169	0x29b00840	7.817401e-14
170	0x3c545859	0.012960517
171	0xac35f692	-2.585852e-12
172	0x000001c8	6.39e-43
173	0x80000623	-2.201e-42
174	0xa20e1365	-1.9254856e-18
175	0x000000bf	2.68e-43
176	0x8000033f	-1.164e-42
177	0x00000410	1.457e-42
178	0xbaea3a64	-0.0017870185
179	0x3c502210	0.012703434
180	0x000000ed	3.32e-43
181	0x3c8794c7	0.016550435
182	0x3c7d784b	0.015470575
183	0xb912d4ba	-0.00014002892
184	0x8000001f	-4.3e-44
185	0x800002ed	-1.05e-42
186	0x3c2b72c1	0.010464371
187	0x34a52647	3.0761495e-07
188	0x00000faf	5.626e-42
189	0x3c93f631	0.01806173
190	0x000003dd	1.386e-42
191	0x3be59e58	0.0070074014
192	0x000000ee	3.34e-43
193	0x800001d7	-6.6e-43
194	0x3c2c5133	0.010517406
195	0x9ac5aa96	-8.1752887e-23
196	0x3c481bb8	0.01221364
197	0x3c20ec42	0.009821953
198	0x000005d2	2.088e-42
199	0x3c944376	0.018098574
200	0xb7bb27fc	-2.2310756e-05
201	0x2625c727	5.7515776e-16
202	0x8000019a	-5.75e-43
203	0x8000021e	-7.6e-43
204	0x800000ed	-3.32e-43
205	0x3c5e99c7	0.013586468
206	0x00000224	7.68e-43
207	0xbc5ef26c	-0.013607603
208	0xa1d25d52	-1.4254855e-18
209	0x00001322	6.864e-42
210	0x3c137149	0.008999177
211	0x32bf51c2	2.2272506e-08
212	0x3ca3d7f4	0.020000435
213	0x00000395	1.285e-42
214	0x80000112	-3.84e-43
215	0x8000011a	-3.95e-43
216	0x80000355	-1.195e-42
217	0xa26820ec	-3.1459292e-18
218	0x3c460341	0.012085737
219	0x23ce2804	2.2351512e-17
220	0xabd43732	-1.5078826e-12
221	0x325111fc	1.216949e-08
222	0xb3a940d2	-7.8814665e-08
223	0x3c7a944a	0.015294144
224	0x8000044a	-1.539e-42
225	0x3b5ba4e3	0.0033515028
226	0xb1a7f7a0	-4.8884914e-09
227	0x000005cf	2.084e-42
228	0x0000158b	7.728e-42
229	0x00000478	1.603e-42
230	0x1594428c	5.9881716e-26
231	0x3c8b8aa9	0.017033892
232	0x800000ed	-3.32e-43
233	0x80000025	-5.2e-44
234	0x3aba6bb5	0.0014222773
235	0x8000019a	-5.75e-43
236	0x3c8f729c	0.017510705
237	0x3c68fc7f	0.014220356
238	0xbc96ed5c	-0.018423729
239	0x3c071b93	0.00824632
240	0x80000232	-7.88e-43
241	0x803c9ddb	-5.566758e-39
242	0x000001f5	7.02e-43
243	0x3c430121	0.011902125
244	0x3c8d0b61	0.01721734
245	0xb15808e6	-3.1437195e-09
246	0x3c571fa8	0.013130106
247	0x800000c5	-2.76e-43
248	0x00000244	8.13e-43
249	0x234a8e36	1.0980556e-17
250	0xb797e60f	-1.8107732e-05
251	0x2ee2cf44	1.0314108e-10
252	0x3c93aa0e	0.018025424
253	0x3cb159fd	0.021649355
254	0x8fb0ba57	-1.7426715e-29
255	0x3cde5783	0.027141338

ff_model.3.bias f4 [120]
0	0x3b9c7a66	0.004775333
1	0x3b9a7a6b	0.0047143004
2	0x3bf65b6f	0.007518224
3	0x3bc00f96	0.005861233
4	0x3bbf36f7	0.0058354097
5	0x3bc75a49	0.006083761
6	0x3bad7287	0.0052931937
7	0x3b84ad94	0.0040490124
8	0x3bf11e63	0.0073583587
9	0x3bcc7957	0.006240051
10	0x3c05d0e6	0.008167481
11	0x3ba35c3e	0.0049853614
12	0x3bfa3015	0.0076351264
13	0x3b9f221d	0.0048563615
14	0x3beb439f	0.007179692
15	0x3b9c9065	0.0047779554
16	0x3bb74baa	0.0055937367
17	0x3b988f45	0.004655751
18	0x3b9cd2d4	0.004785875
19	0x3bfaac20	0.0076499134
20	0x3b7f58ce	0.0038962844
21	0x3bb1536d	0.0054115565
22	0x3bde479b	0.0067834384
23	0x3bfbaf13	0.0076807826
24	0x3b9c864f	0.004776753
25	0x3bdddedc	0.0067709517
26	0x3bfd2900	0.007725835
27	0x3c0166ff	0.007898091
28	0x3bac3087	0.0052548083
29	0x3bd128dc	0.0063830446
30	0x3c0191b2	0.007908272
31	0x3bafb5a3	0.005362229
32	0x3c11fe13	0.008910674
33	0x3bbacba3	0.005700545
34	0x3c07d5ad	0.00829069
35	0x3b81a0de	0.0039559444
36	0x3bc8d56e	0.0061289584
37	0x3b69e8db	0.0035691771
38	0x3bcf01d4	0.0063173566
39	0x3b97383e	0.004614859
40	0x3b9f79a5	0.004866796
41	0x3b97a846	0.004628214
42	0x3ba92293	0.0051615923
43	0x3bcf39a1	0.0063240086
44	0x3ba0bfff	0.0049057
45	0x3be9159e	0.0071131727
46	0x3bd47930	0.0064841732
47	0x3b18b1d5	0.0023299356
48	0x3b9b403a	0.004737881
49	0x3bd7daee	0.0065873777
50	0x3c0673c2	0.00820631
51	0x3bab39d2	0.0052253986
52	0x3bfedca8	0.007777769
53	0x3ba5eee7	0.00506388
54	0x3bbf0361	0.00582926
55	0x3b573b71	0.0032841826
56	0x3bd1ecdc	0.0064064097
57	0x3b9b3148	0.0047360994
58	0x3b9b744a	0.0047440873
59	0x3b33867e	0.0027393396
60	0x3c070dbf	0.008243023
61	0x3be2718f	0.00691051
62	0x3bbfdf98	0.005855512
63	0x3bb4750e	0.005507118
64	0x3bc294d5	0.0059381523
65	0x3bf861c9	0.0075800163
66	0x3bdd9758	0.0067624263
67	0x3b99212e	0.004673145
68	0x3b9aca04	0.004723789
69	0x3b9e209a	0.0048256638
70	0x3bd421c9	0.006473754
71	0x3bbb673d	0.005719094
72	0x3bd063be	0.0063595464
73	0x3bdc66ba	0.006726113
74	0x3bd04fd3	0.006357172
75	0x3bf1befd	0.007377504
76	0x3b777162	0.003775679
77	0x3bdb488b	0.0066919974
78	0x3bccc508	0.006249074
79	0x3bb65efa	0.0055655213
80	0x3bceaea7	0.0063074413
81	0x3bf24ec8	0.0073946454
82	0x3ba19213	0.0049307435
83	0x3bb2561f	0.0054423953
84	0x3bd365dc	0.0064513516
85	0x3bd76ad3	0.0065740137
86	0x3c034c2e	0.008013768
87	0x3bd42e1a	0.0064752223
88	0x3baa176b	0.00519078
89	0x3b25c5e2	0.002529495
90	0x3bcac194	0.006187627
91	0x3bacab1f	0.0052694227
92	0x3bb871c9	0.0056287986
93	0x3c0619e9	0.008184888
94	0x3ba68284	0.0050814766
95	0x3baf1fee	0.0053443825
96	0x3ba70243	0.005096705
97	0x3bb73bfc	0.0055918675
98	0x3ba64605	0.005074265
99	0x3be384b7	0.006943311
100	0x3bb1f1c2	0.005430431
101	0x3bb9a8ab	0.0056658587
102	0x3bae56ce	0.0053204065
103	0x3b928018	0.0044708364
104	0x3bccb983	0.0062477007
105	0x3b9c1ed3	0.0047644167
106	0x3bda1269	0.0066550267
107	0x3bba50f2	0.005685919
108	0x3baa14db	0.0051904744
109	0x3ba21793	0.004946658
110	0x3bf28ce9	0.0074020517
111	0x3b5d4f9e	0.003376938
112	0x3bb2338f	0.005438275
113	0x3bbe3b31	0.005805396
114	0x3bafea25	0.0053684884
115	0x3bbddc35	0.005794073
116	0x3b6415a7	0.0034802945
117	0x3bacebaf	0.005277119
118	0x3b94c51f	0.0045401
119	0x3bafa308	0.005360011

ff_model.6.weight f4 [45, 120]
0	0x3c9ca8ca	0.019123454
1	0x3c9883ed	0.018617595
2	0x3ca58b9e	0.020208176
3	0x3caafc1d	0.02087217
4	0x3c89ac7d	0.016805882
5	0x3c9f7561	0.01946515
6	0x3c97f7ed	0.018550837
7	0x3c9f0ed2	0.019416247
8	0x3c97a0a1	0.018509211
9	0x3cb22be8	0.021749452
10	0x3ca55f3e	0.020187017
11	0x3ca099a2	0.019604508
12	0x3cc209d0	0.02368632
13	0x3c98fbbf	0.01867473
14	0x3c9f3bae	0.019437637
15	0x3caaaa74	0.020833232
16	0x3c87225c	0.016495876
17	0x3c94a45c	0.018144779
18	0x3ca48100	0.020081043
19	0x3ca8c434	0.02060137
20	0x3ca8c831	0.020603271
21	0x3ca2f03f	0.019889949
22	0x3ca11fd3	0.019668495
23	0x3ca2f5d5	0.019892612
24	0x3c927f30	0.017882913
25	0x3c92dd65	0.017927835
26	0x3cc7abf1	0.02437398
27	0x3cad30b4	0.021141388
28	0x3c9b5dff	0.01896572
29	0x3c9cee8a	0.019156713
30	0x3cb4798c	0.022030614
31	0x3c9070e0	0.017631948
32	0x3cae9dc0	0.021315455
33	0x3cbb3b3c	0.022855394
34	0x3cb53840	0.022121549
35	0x3ca9c019	0.020721482
36	0x3c8753d6	0.016519468
37	0x3c8803df	0.016603408
38	0x3cabda36	0.020978075
39	0x3ca33071	0.01992056
40	0x3c99bc49	0.01876654
41	0x3c993949	0.018704074
42	0x3ca021c8	0.019547358
43	0x3caa5255	0.020791212
44	0x3c9c7405	0.019098291
45	0x3c90ee47	0.017691744
46	0x3cbd118c	0.023079656
47	0x3c999edb	0.018752506
48	0x3ca2d0be	0.019874927
49	0x3ca06ade	0.019582208
50	0x3ca3ae15	0.01998047
51	0x3cb51666	0.022105407
52	0x3caaeb1a	0.020864058
53	0x3ca4d67f	0.020121811
54	0x3ca9e0a4	0.020737
55	0x3ca4cdb7	0.020117624
56	0x3caab6ff	0.020839212
57	0x3ca19cee	0.01972815
58	0x3cabb4b2	0.020960186
59	0x3ca3e3cf	0.020006089
60	0x3caff96b	0.021481236
61	0x3ca45e5a	0.020064522
62	0x3cb53599	0.022120284
63	0x3c8f8268	0.017518237
64	0x3c931262	0.017953102
65	0x3c9a819f	0.018860636
66	0x3caf6676	0.021411162
67	0x3ca11fb9	0.019668447
68	0x3c89b3c1	0.016809346
69	0x3ca2703f	0.019828914
70	0x3cb84b1c	0.022496752
71	0x3ca66d8f	0.020315913
72	0x3ca34663	0.019931024
73	0x3c977b74	0.018491484
74	0x3c936bcf	0.017995743
75	0x3c9c9e4a	0.019118447
76	0x3c8a700e	0.016899135
77	0x3caf7ea1	0.021422686
78	0x3c97a2c0	0.018510222
79	0x3cb21d19	0.02174239
80	0x3ca507ab	0.020145258
81	0x3ca4101c	0.020027213
82	0x3c9eaf8c	0.019370817
83	0x3cb9e43f	0.022691844
84	0x3ca92d78	0.020651564
85	0x3c97ffea	0.018554647
86	0x3ca842ee	0.020539727
87	0x3caabc05	0.020841608
88	0x3ca6ab88	0.020345464
89	0x3c8d49e3	0.017247146
90	0x3ca0b591	0.019617828
91	0x3c7e7134	0.015529919
92	0x3c94a873	0.01814673
93	0x3cc45117	0.023964448
94	0x3cb46748	0.022021905
95	0x3ca4f6a8	0.020137146
96	0x3ca7a0da	0.020462442
97	0x3cac7d25	0.021055767
98	0x3c9a82eb	0.018861255
99	0x3c9810c1	0.018562676
100	0x3c8e64de	0.017382082
101	0x3c98958b	0.018625995
102	0x3ca7da5b	0.020489862
103	0x3ca1724f	0.019707827
104	0x3c9b3d4e	0.01895013
105	0x3c9c75f0	0.019099206
106	0x3cb6501a	0.022254992
107	0x3cb1cdc7	0.021704568
108	0x3c9ed729	0.019389706
109	0x3c8fcc30	0.017553419
110	0x3cb93bab	0.02261146
111	0x3c863a15	0.016385118
112	0x3c9286e5	0.017886588
113	0x3ca18f5b	0.019721678
114	0x3ca18222	0.019715372
115	0x3ca292ba	0.019845355
116	0x3c8a7ac6	0.016904246
117	0x3caa5d52	0.020796452
118	0x3ca62184	0.020279653
119	0x3c9ac9cd	0.018895054
120	0x3b11f8ff	0.0022273657
121	0x3b48be5c	0.003063104
122	0x3b38bdd0	0.002818931
123	0x3b1eff01	0.002426088
124	0x3b5594ad	0.0032589838
125	0x3ae053ab	0.0017114779
126	0x3b3c303c	0.0028715273
127	0x3ac4d2d6	0.0015016447
128	0x3b55358e	0.0032533142
129	0x3ba14bd3	0.004922369
130	0x3bb2e8f2	0.005459898
131	0x3b8c47fc	0.004281042
132	0x3b5b9b07	0.0033509152
133	0x3b87d9cd	0.004145837
134	0x3ae03f1d	0.0017108653
135	0x3b84865b	0.0040443367
136	0x3b7c7dbf	0.00385271
137	0x3b4b6cb2	0.003104013
138	0x3a0dee7c	0.000541426
139	0x3afceb4a	0.0019296196
140	0x3b38c83a	0.0028195516
141	0x3b65a76d	0.003504242
142	0x3b8883a3	0.004166083
143	0x3b3b4d42	0.0028579985
144	0x3b946275	0.0045283386
145	0x3a881932	0.0010383485
146	0x3b682e4e	0.003542799
147	0x3b758751	0.0037464688
148	0x3ae22f36	0.0017256502
149	0x3b82e9d8	0.0039951615
150	0x3b785074	0.003788975
151	0x3b97eb58	0.0046362095
152	0x3b5deff5	0.003386495
153	0x3b3d2b53	0.0028864935
154	0x3b8b9138	0.004259255
155	0x3b589aa9	0.003305117
156	0x3b3acf52	0.002850492
157	0x3b321214	0.002717142
158	0x3b846a05	0.004040959
159	0x3b64800c	0.003486636
160	0x3ae0add8	0.0017141653
161	0x3b0a8105	0.002113403
162	0x3ac61629	0.0015112805
163	0x3b14b182	0.002268881
164	0x3b6b38e9	0.0035892075
165	0x3b2413e2	0.0025036265
166	0x3b1324ce	0.0022452357
167	0x3afa891d	0.0019114349
168	0x3b322dcd	0.0027187944
169	0x3ba2e2a1	0.004970864
170	0x3b140e99	0.0022591709
171	0x3b58c30a	0.0033075237
172	0x3b8b650b	0.0042539886
173	0x3b3b49a2	0.0028577824
174	0x3b25fd00	0.0025327802
175	0x3b091006	0.0020914092
176	0x3b9652f2	0.0045875246
177	0xb8dda1fd	-0.00010568274
178	0x3afc9ebc	0.0019273381
179	0x3b5e0419	0.0033876954
180	0x3b3590cf	0.002770472
181	0x3b5ac95a	0.0033384175
182	0x3bac758f	0.0052630375
183	0x3ba97792	0.0051717246
184	0x3b37073f	0.0027927903
185	0x3b55171e	0.0032515
186	0x3b6ad6ab	0.0035833518
187	0x3bacf6ba	0.0052784355
188	0x3b172b06	0.0023066415
189	0x3b779293	0.0037776574
190	0x3b87d6d6	0.0041454835
191	0x3b870faf	0.0041217427
192	0x3b5f7d57	0.0034101808
193	0x3b65364e	0.0034974995
194	0x3aea9d46	0.0017899654
195	0x3ad05734	0.0015895129
196	0x3b1524ab	0.0022757452
197	0x3b512596	0.0031913272
198	0x3b7235b8	0.0036958288
199	0x3b0bbd93	0.0021322712
200	0x3acbee0b	0.0015558613
201	0x3b24c2c0	0.0025140494
202	0x3b8a48c0	0.0042200983
203	0x3b15a528	0.0022834036
204	0x3b39e1d6	0.0028363368
205	0x3b466217	0.0030270868
206	0x3b965bfe	0.004588603
207	0x3ba89217	0.0051443684
208	0x3b95388d	0.0045538605
209	0x3b4ceca1	0.0031268972
210	0x3b80b19d	0.003927423
211	0x3b063e45	0.0020483893
212	0x3b707cdd	0.0036695518
213	0x3b4eb26e	0.0031539458
214	0x3b8997d7	0.004199009
215	0x3b28108d	0.002564463
216	0x3b24e37d	0.0025160008
217	0x3b6657bf	0.0035147516
218	0x3b8a5605	0.00422168
219	0x3a817e36	0.0009879533
220	0x3b0f7409	0.002188923
221	0x3b630781	0.0034641924
222	0x3b4e56aa	0.0031484761
223	0x3b7a7eaf	0.0038222482
224	0x3b172eff	0.0023068783
225	0x3b8efc11	0.0043635448
226	0x3b464493	0.0030253276
227	0x3b6db9fd	0.0036274188
228	0x3b23e2a3	0.0025006912
229	0x3b909417	0.004412185
230	0x3bc2a6b3	0.0059402823
231	0x3b74a7d7	0.0037331486
232	0x3b5026e4	0.0031761462
233	0x3b49f320	0.003081508
234	0x3b86db8d	0.004115528
235	0x3b006520	0.0019591525
236	0x3b13c932	0.0022550342
237	0x3b106bae	0.0022036838
238	0x3b616697	0.0034393424
239	0x3b88344d	0.0041566254
240	0x3ca16764	0.01970262
241	0x3c9c4be1	0.01907915
242	0x3c9fecbc	0.019522063
243	0x3cb3f08a	0.021965284
244	0x3c6b6738	0.014367871
245	0x3c978dd6	0.01850025
246	0x3ca7721e	0.020440158
247	0x3c861b3c	0.016370408
248	0x3ca7fa33	0.020505046
249	0x3ca2353d	0.019800777
250	0x3c975fc9	0.018478291
251	0x3ca84c47	0.020544184
252	0x3c8c1c6d	0.017103398
253	0x3c914f3e	0.017737981
254	0x3ca16bae	0.019704666
255	0x3c96cb22	0.018407408

ff_model.6.bias f4 [45]
0	0x3ba345c9	0.0049826843
1	0x3ae94a3f	0.0017798616
2	0x3d1de825	0.03855147
3	0x3c3bedbb	0.011470254
4	0xa25a6a64	-2.9600832e-18
5	0x3cb83c51	0.022489699
6	0x3cbd720b	0.023125669
7	0x3b4020df	0.0029316468
8	0x3c488eb5	0.012241055
9	0x3c7fb824	0.015607867
10	0x3cebf403	0.028802877
11	0xb0af9db9	-1.2777753e-09
12	0xacc99a3b	-5.7298866e-12
13	0x3cc61f9f	0.024185
14	0xa69f5cf2	-1.1058034e-15
15	0xadcab185	-2.3043576e-11
16	0x3d22b55e	0.039723746
17	0xb9a9e6b8	-0.0003240609
18	0x3c3ecd1e	0.011645583
19	0x3d37398b	0.04473261
20	0x3c8b4a94	0.017003335
21	0x3d057913	0.03258617
22	0xa645ec79	-6.8668585e-16
23	0xa41923de	-3.3206967e-17
24	0x37b8fdc7	2.2052684e-05
25	0x3b8151ba	0.00394651
26	0x3c879421	0.016550126
27	0x343db16a	1.766654e-07
28	0xa5ea7a07	-4.0675218e-16
29	0xb01a0725	-5.6035027e-10
30	0x9ead3be2	-1.8341854e-20
31	0xa9039794	-2.9219316e-14
32	0x3c24a243	0.010048452
33	0x3d257058	0.040390342
34	0x20b511ad	3.067429e-19
35	0x3ce13641	0.02749169
36	0x3c5fca77	0.013659111
37	0x3d0ff0c8	0.035141736
38	0xb657dec2	-3.2167159e-06
39	0x3cfcb117	0.030846162
40	0x3cf5e006	0.03001405
41	0x3cc4a20b	0.02400305
42	0x3cc80e22	0.024420802
43	0x390dfa07	0.0001353995
44	0x3ce8e0b2	0.028427456

ff_model.9.weight f4 [2, 45]
0	0x3df729fa	0.12068553
1	0x3c1f12a3	0.009709033
2	0x3e41a73f	0.18911456
3	0x3deb8c0b	0.115013205
4	0xa247172c	-2.6981796e-18
5	0x3db83d77	0.089960985
6	0x3e23ac3d	0.15983672
7	0x3e1db256	0.15400061
8	0x3d3c7a60	0.046015143
9	0x3d607536	0.05479928
10	0x3e2909bc	0.1650762
11	0x31857331	3.883905e-09
12	0x2e74305e	5.5522136e-11
13	0x3dfdb671	0.123883136
14	0x24a9d423	7.365144e-17
15	0xacae7b76	-4.9590844e-12
16	0x3e19a44f	0.15004085
17	0x3e054a04	0.13016516
18	0x3e1f4f80	0.1555767
19	0x3d7f6da2	0.062360413
20	0x3d22c832	0.039741702
21	0x3de3e193	0.11127009
22	0xa4f007b3	-1.0409645e-16
23	0xa31946d2	-8.309143e-18
24	0x3e0ad86f	0.13559125
25	0x3dffbbc0	0.12486982
26	0x3d105529	0.035237465
27	0x33ac11f7	8.012642e-08
28	0x2638c38b	6.4102834e-16
29	0xb29f7afa	-1.856596e-08
30	0x9e1e1ad0	-8.369995e-21
31	0xa9d1ba1c	-9.313749e-14
32	0x3e120977	0.14261423
33	0x3dff0885	0.12452797
34	0xa1a4f34e	-1.1177474e-18
35	0x3d3c1745	0.04592063
36	0x3dacfb03	0.08446314
37	0x3d896249	0.067081995
38	0xb69512bc	-4.442727e-06
39	0x3e02fdf8	0.12792194
40	0x3de74ccf	0.11293947
41	0x3e322a27	0.17398892
42	0x3d9e9a06	0.077442214
43	0x3e01b8b4	0.12668115
44	0x3dc420c0	0.09576559
45	0xbe0972d1	-0.13422705
46	0xbc1f4018	-0.009719871
47	0xbd0099ae	-0.03139656
48	0xbe065267	-0.13117371
49	0x2241f16b	2.6284183e-18
50	0xbe16368c	-0.14669245
51	0xbda243e2	-0.07923104
52	0xbde2b1b8	-0.110690534
53	0xbe451abb	-0.19248478
54	0xbd606c32	-0.054790683
55	0xbd835a32	-0.06413688
56	0x31d5fc12	6.227773e-09
57	0x2fb92cc1	3.3683104e-10
58	0xbde2e715	-0.11079232
59	0xa4d0f446	-9.0619436e-17
60	0x2cc5fca1	5.627124e-12
61	0xbd8244f0	-0.06360805
62	0xbe103226	-0.1408163
63	0xbdcc9fdb	-0.099914275
64	0xbe1e5c2c	-0.15464848
65	0xbe4bba1d	-0.19895215
66	0xbdf123f9	-0.11774439
67	0x24e9f4ec	1.01462556e-16
68	0x2310ae0b	7.843111e-18
69	0xbe14a751	-0.14516951
70	0xbe1402b2	-0.14454153
71	0xbe528433	-0.20558242
72	0xb3b9d5f9	-8.653655e-08
73	0x24527c7f	4.5641944e-17
74	0x330ed985	3.3259784e-08
75	0x1e994fbe	1.6232486e-20
76	0xa59295cf	-2.5428477e-16
77	0xbdea5ee8	-0.11443883
78	0xbdba7ee8	-0.09106237
79	0x21a0d6a3	1.0898836e-18
80	0xbe3ea8b1	-0.18619038
81	0xbe21ce62	-0.15801385
82	0xbe211172	-0.15729311
83	0x369ad17d	4.6139453e-06
84	0xbdcf387a	-0.10118194
85	0xbde9a0b9	-0.114076085
86	0xbd69e64e	-0.0571044
87	0xbd9ea612	-0.07746519
88	0xbe0bba5e	-0.13645312
89	0xbe110919	-0.14163627

ff_model.9.bias f4 [2]
0	0x3ee7b007	0.45251486
1	0xbe6fb76e	-0.23409817
