Version12_7/HealtechServerDownload/BepiPred3_src/bp3/BP3Models/BP3C50IDFFNN/Fold4.pt (torch, 865935 bytes, 8 tensors)

ff_model.0.weight f4 [150, 1280]
0	0x3bcc835b	0.0062412447
1	0xbc0ec5f2	-0.008714186
2	0xbb7f7a7e	-0.0038982923
3	0xbb538f15	-0.0032281328
4	0x3ad3b72b	0.0016152611
5	0xbac5c591	-0.0015088787
6	0xbbf0488c	-0.007332867
7	0xbb78c745	-0.003796057
8	0x3ca5526f	0.020180909
9	0xbba7ef8e	-0.0051249927
10	0xbbb71b99	-0.0055880067
11	0x3b9b4f1d	0.0047396556
12	0x3b72c6bb	0.0037044722
13	0x3b1a9745	0.0023588699
14	0xbab8ee4f	-0.0014109107
15	0xbbdb1a72	-0.006686502
16	0x3ac79aae	0.0015228593
17	0xbb093bf9	-0.0020940288
18	0xbbb419e6	-0.0054962514
19	0xbc1afc21	-0.009459526
20	0x3c28371a	0.0102670435
21	0x3c5c1361	0.013432355
22	0x3b4a2fce	0.0030851248
23	0xbbf487c3	-0.007462473
24	0x3a252c54	0.0006300856
25	0x3c1ffa04	0.009764198
26	0xba2acfd9	-0.0006515957
27	0x3b39f77f	0.002837628
28	0x3c5bf38f	0.013424768
29	0x3be0fec1	0.0068663065
30	0x3b9b7b6f	0.004744939
31	0xbc25c599	-0.010117912
32	0x3c0320d8	0.008003436
33	0x3b730d54	0.0037086802
34	0x3ae1ad48	0.001721778
35	0xbb8586cf	-0.0040749083
36	0xb99eacd7	-0.00030264884
37	0xbc25a73b	-0.010110672
38	0xb9de135d	-0.00042357566
39	0xba4458a6	-0.0007490016
40	0xbb5547db	-0.003254405
41	0xbb7b69e8	-0.0038362686
42	0x3b40cf31	0.002942037
43	0x3c2207e4	0.009889577
44	0xbaf725de	-0.001885589
45	0xbb6d74bc	-0.003623291
46	0x3c1aeed3	0.009456354
47	0xbc18e681	-0.0093323
48	0xbbc96cf8	-0.0061470233
49	0xbc5539c6	-0.013014263
50	0x3c0f28c6	0.0087377485
51	0xbb90660a	-0.0044066953
52	0xbb22c09a	-0.0024834038
53	0x3b250aae	0.0025183368
54	0xbbe85b23	-0.0070909425
55	0xbaac63ac	-0.0013152263
56	0xbb40b545	-0.002940492
57	0xbbb2bb49	-0.005454455
58	0xbb9c625d	-0.004772468
59	0xbb150f01	-0.0022744539
60	0xbc1e735f	-0.009671061
61	0x3c2c4aa3	0.010515842
62	0x3c15775e	0.009122698
63	0xbac2cb9b	-0.0014861705
64	0xbb107b2c	-0.0022046072
65	0x3a5405b1	0.0008088006
66	0xbbb6fd38	-0.0055843852
67	0xbae9ea18	-0.0017846255
68	0xb905f235	-0.00012774098
69	0x3b967ab2	0.004592263
70	0xbc1d76f1	-0.009610877
71	0x3b3adef3	0.0028514236
72	0x3c07d66d	0.008290869
73	0x3bbbd966	0.005732703
74	0xbba0e6c2	-0.004910321
75	0x3b51e138	0.003202511
76	0x3b59ac78	0.0033214372
77	0x3c790f7a	0.015201444
78	0x3a5e60f5	0.00084830757
79	0x3c13a934	0.009012509
80	0xbbd23e84	-0.006416144
81	0xbc888543	-0.016665107
82	0x3be624cd	0.00702343
83	0x3b604302	0.0034219627
84	0xb9d2a440	-0.00040176697
85	0x3c25445d	0.0100871
86	0x3b8e0416	0.004333983
87	0x3b85c089	0.00408179
88	0x3c209d3e	0.009803114
89	0xbaa59316	-0.0012632336
90	0xbb8e60ac	-0.0043450203
91	0xbbed0c9c	-0.007234169
92	0xbc064806	-0.008195883
93	0xbad1b9fc	-0.0016000862
94	0xbb6a875a	-0.0035786242
95	0xbb2397b6	-0.0024962253
96	0xbc0ac1da	-0.008469069
97	0x3a870e11	0.0010303875
98	0xbbb3085a	-0.005463642
99	0xbb6cc57f	-0.003612846
100	0x3bc430fb	0.0059872842
101	0x3b168d46	0.002297239
102	0xbbc3c7fe	-0.0059747687
103	0xbc1a7795	-0.009427925
104	0x3becbac5	0.007224413
105	0xbbcfc4f8	-0.006340619
106	0xba097007	-0.00052428286
107	0xbb72c335	-0.0037042622
108	0xbbe8cdf7	-0.007104631
109	0x3ae36160	0.0017347746
110	0xba5e3c6b	-0.0008477631
111	0xbb859034	-0.0040760282
112	0xba982845	-0.0011608681
113	0xbbd7dd50	-0.006587662
114	0xb9555f96	-0.00020348871
115	0xbafbea4e	-0.0019219609
116	0xbc519f01	-0.012794257
117	0xba7808fc	-0.0009461788
118	0x3b256aaf	0.002524059
119	0x3bcacd31	0.0061890115
120	0xb9c4f4c0	-0.00037566386
121	0x3b96793a	0.004592088
122	0x3b15946b	0.002282406
123	0x3c4221e4	0.0118489005
124	0x3be7e971	0.007077389
125	0x3c256803	0.010095599
126	0xbb09a92b	-0.0021005373
127	0xba9adad8	-0.0011814488
128	0x39cfd72f	0.0003964244
129	0x3ada5666	0.0016657829
130	0xbb9c7830	-0.0047750697
131	0x3b67f854	0.0035395818
132	0xbbc13308	-0.005895976
133	0xbbc8981b	-0.006121648
134	0x3b3b1295	0.0028545011
135	0x3ada39c2	0.0016649293
136	0xba719d3a	-0.0009216849
137	0x3bf48f34	0.00746336
138	0x3b9db11a	0.004812372
139	0xbbcba567	-0.006214786
140	0xbb57f5d3	-0.003295292
141	0xbc6913f1	-0.014225946
142	0xbc0456ff	-0.008077382
143	0xbb6b7b35	-0.0035931591
144	0xbc813ea7	-0.015776945
145	0x3b107806	0.0022044196
146	0x3b9eef46	0.004850301
147	0x3ac81455	0.0015264848
148	0x39b47b69	0.00034424223
149	0xbba3d27f	-0.0049994583
150	0x3b9049f9	0.0044033495
151	0xbbc738d8	-0.0060797743
152	0x3c2220bc	0.0098955
153	0x3c4036e8	0.011731841
154	0x3c026ac2	0.007960023
155	0x3b2352fa	0.0024921284
156	0x3c735120	0.014850885
157	0xbc6f3cd2	-0.014601903
158	0xbbfc861d	-0.0077064172
159	0x3bc9b21c	0.0061552655
160	0xba9d6fd7	-0.001201148
161	0xbb3a15b3	-0.0028394281
162	0x3bf7a7f7	0.0075578648
163	0x3b7969dc	0.0038057482
164	0xba9cdc45	-0.0011967501
165	0x3b961c97	0.004581045
166	0x3c2481c1	0.010040701
167	0x3bc22993	0.005925366
168	0x3c6645b8	0.014054708
169	0x3c4b94bb	0.012425597
170	0xbbb1a911	-0.0054217656
171	0x3c3ccef1	0.011523948
172	0x3a994059	0.0011692151
173	0x3c07d0c0	0.008289516
174	0x3c01c32a	0.007920066
175	0x3b820346	0.0039676754
176	0x3b9353fb	0.0044960952
177	0xbc03bfa9	-0.008041301
178	0x3c14a7fd	0.009073255
179	0x3c0d1b5e	0.008612482
180	0xbb35ec3b	-0.0027759213
181	0xbc21beda	-0.009872163
182	0x3bdc0e4f	0.006715573
183	0x3b2979b8	0.0025859904
184	0xbb987dda	-0.0046536746
185	0xba898fc0	-0.0010495111
186	0x3bef159a	0.0072962763
187	0xbb87c679	-0.004143533
188	0xbc05112e	-0.008121772
189	0xbc02233c	-0.007942971
190	0x3b85ac3d	0.0040793703
191	0x3c500f1b	0.012698914
192	0x3b2c2537	0.00262673
193	0x3b2f6b17	0.0026766711
194	0x3b2cdfea	0.002637858
195	0xba51500a	-0.0007984644
196	0x3ad0980c	0.0015914454
197	0x3bcacebb	0.006189195
198	0xbc24e5fe	-0.0100646
199	0x3a85240c	0.0010157838
200	0xbb4885ae	-0.0030597257
201	0xbbce7a2b	-0.0063011847
202	0x3b1c2fdc	0.0023832237
203	0x3978ce75	0.00023728034
204	0xbb8ee04e	-0.0043602353
205	0xba58b1a5	-0.0008266217
206	0x3b8b89c8	0.004258368
207	0x3bb8177c	0.005618034
208	0xbbe63470	-0.007025294
209	0x3c0615dc	0.008183923
210	0xbb046d2b	-0.002020667
211	0x3ba67c03	0.0050807013
212	0x3af1a3bf	0.0018435641
213	0x3b8ae6dd	0.004238947
214	0xbc38273c	-0.011239823
215	0xbb1741fe	-0.0023080106
216	0x3c3ab00e	0.011394514
217	0x3bb3724a	0.005476271
218	0xbc36ff05	-0.0111692
219	0x3bff29b8	0.0077869557
220	0x3baf30c0	0.0053463876
221	0xbbd18cfe	-0.0063949814
222	0xbbaa9fdb	-0.0052070445
223	0xbb7f18b7	-0.0038924643
224	0xbbb194e3	-0.00541936
225	0xbb002ee7	-0.0019559206
226	0xbc6ed222	-0.014576467
227	0x3b6ca4bd	0.0036108934
228	0x3a9454a5	0.001131673
229	0x3b4bce9b	0.0031098488
230	0x3c17df10	0.009269491
231	0x3bdb4850	0.00669197
232	0x3ba24dea	0.0049531357
233	0xbb8eb482	-0.0043550143
234	0xbbdb06ea	-0.006684174
235	0xbbcbbab2	-0.006217324
236	0x3c5de871	0.013544188
237	0x3c616f17	0.013759396
238	0x38de0094	0.000105858926
239	0xbba8cc5e	-0.0051513156
240	0xbb903b8c	-0.00440163
241	0xbbc3849b	-0.0059667355
242	0x3b11e23d	0.0022260093
243	0x3b2a5993	0.0025993332
244	0x39322bb8	0.0001699169
245	0xbac4ae3b	-0.0015005538
246	0x3b2f0a9a	0.00267092
247	0x3c2e6697	0.0106445765
248	0x3b234681	0.002491385
249	0x3c260560	0.010133117
250	0xbc22adf1	-0.009929166
251	0x3b7178ab	0.0036845605
252	0xb97c0239	-0.00024033421
253	0x3c0b2b39	0.008494192
254	0x3bad7505	0.005293491
255	0x3b3c0c0f	0.002869371

ff_model.0.bias f4 [150]
0	0x3c30619a	0.0107654575
1	0x3aff043e	0.001945622
2	0x3b6ca5a3	0.003610947
3	0x3c7c6e15	0.015407105
4	0xbb302164	-0.002687537
5	0x3c8fe4b8	0.017565116
6	0x3ca248f3	0.019810176
7	0x3ca917f5	0.020641306
8	0x3b330f0b	0.0027322199
9	0xbcb178e0	-0.021664083
10	0xbbc3f134	-0.0059796814
11	0xbc87fac0	-0.01659906
12	0x3b866b33	0.0041021346
13	0x3a1d1059	0.00059915107
14	0x3d0349ad	0.032052685
15	0xbc29d0d8	-0.010364734
16	0x3c08c17f	0.008346914
17	0x3d11847a	0.03552673
18	0x3a2c236a	0.00065665564
19	0x39875674	0.0002581362
20	0x3cc57f1d	0.024108464
21	0xb91553dd	-0.00014240989
22	0x3c8655cb	0.016398331
23	0x3ce7544d	0.02823844
24	0x3c52f8d5	0.012876709
25	0xbc6ef16c	-0.014583927
26	0x3ae1c201	0.0017223955
27	0x3ceab480	0.028650522
28	0xbc40317c	-0.011730548
29	0xbb91a658	-0.0044448785
30	0x3c068c8f	0.008212223
31	0x3c149f7c	0.009071227
32	0xba19c0c3	-0.00058652106
33	0xbb3634d1	-0.0027802477
34	0x3c23216d	0.0099567
35	0xbbfc7014	-0.0077037904
36	0xbbe976b1	-0.007124745
37	0xbc178b2c	-0.00924949
38	0x3c031dba	0.008002693
39	0x3b2b2a8e	0.0026117894
40	0xbb9d1d0f	-0.004794724
41	0xbb8b2137	-0.004245903
42	0xbb6e508f	-0.0036363935
43	0x3c2e750d	0.010648024
44	0xbaa30caf	-0.0012439693
45	0x3caa6bda	0.02080338
46	0x3cb6bd07	0.022306932
47	0x3cfd9a8a	0.030957479
48	0x3b161c14	0.002290492
49	0x3c288d70	0.010287628
50	0xbb2eb8ac	-0.0026660366
51	0xbaa75dec	-0.001276908
52	0xbb8c9761	-0.0042905067
53	0x3ad36550	0.0016128216
54	0xbaedc2e7	-0.001813975
55	0x3bbb53cc	0.0057167765
56	0x3b691f4d	0.0035571635
57	0xbb838222	-0.004013316
58	0x3c5791f4	0.0131573565
59	0xbbe7bfc9	-0.007072423
60	0xbbd27a8d	-0.0064233006
61	0xbc15033d	-0.00909501
62	0xbb5b7770	-0.0033487938
63	0x3b107a36	0.00220455
64	0xba11deed	-0.00055645296
65	0x3d082eca	0.033247747
66	0x3bf221f6	0.0073893024
67	0x3b269054	0.0025415616
68	0x3caaecd9	0.02086489
69	0x3c6ca4ae	0.01444356
70	0x3c3521a5	0.011055385
71	0x3cce31ef	0.025170295
72	0x3cad3128	0.021141604
73	0xbca8c719	-0.02060275
74	0x3b2d3b23	0.0026432953
75	0x3c85560e	0.016276386
76	0x3c5a82c6	0.013336843
77	0xbbeed873	-0.0072889864
78	0xbc749a29	-0.014929333
79	0xba7369fe	-0.00092855084
80	0x3ce62100	0.028091908
81	0x3bc1b090	0.0059109405
82	0xbb5b64d7	-0.0033476853
83	0x3cccc34b	0.024995467
84	0xb9b12e90	-0.00033794763
85	0x3abb3b0b	0.0014284564
86	0x3c118f36	0.008884242
87	0xbba39b98	-0.0049929135
88	0x3cbaabfb	0.022787085
89	0xbc517537	-0.012784294
90	0xbc5020d3	-0.012703138
91	0x3cb7fab3	0.02245841
92	0x3c81735a	0.015802074
93	0x3c7f83e0	0.015595406
94	0xbcded7db	-0.027202537
95	0x3cdc32c6	0.02687968
96	0xbc510f40	-0.012759984
97	0xbc0dacce	-0.008647157
98	0xbbce901c	-0.0063038003
99	0x3c2af15c	0.010433521
100	0xbc65bcbd	-0.0140220495
101	0xbc636c01	-0.013880731
102	0xba363cdf	-0.00069518195
103	0xbb962c7c	-0.0045829397
104	0x3cbf6a0c	0.023365997
105	0x3bd62043	0.0065346076
106	0xbc24172f	-0.010015293
107	0xbc07e27d	-0.008293745
108	0xbc156ea3	-0.009120616
109	0x3cd71ebe	0.026259776
110	0x3c717109	0.014736422
111	0x3c844da0	0.016150296
112	0x3a84c87e	0.0010130552
113	0xbbcf4e29	-0.006326456
114	0x3b39f915	0.0028377224
115	0x3c8b701b	0.01702123
116	0x3c7c3044	0.015392367
117	0xb9b55b20	-0.00034590904
118	0x3bf5fe57	0.0075071263
119	0x3ca69329	0.020333843
120	0x3ca8e7ce	0.020618346
121	0xbc250f3c	-0.010074433
122	0x39e9ffc3	0.0004463178
123	0xbc43bc69	-0.011946776
124	0x3be736df	0.0070561017
125	0xbb1ca833	-0.0023903965
126	0xbc6334ad	-0.013867539
127	0xbc02f3df	-0.007992714
128	0x3bbce645	0.005764755
129	0x3c8188f6	0.015812378
130	0x3cc9e7e3	0.024646705
131	0x3c7206ef	0.014772161
132	0x3cafb807	0.021450056
133	0x3c052e5e	0.008128731
134	0x3c005d85	0.007834797
135	0x3d0abe8d	0.03387313
136	0x3ce0d8e5	0.027447173
137	0xbc933b63	-0.017972654
138	0xbc223264	-0.009899709
139	0x3c564ab8	0.013079338
140	0x3a2c3c18	0.0006570234
141	0x3bc7847c	0.0060887914
142	0x3c99fb50	0.018796593
143	0x3b79faab	0.0038143795
144	0x3c8df73d	0.017329806
145	0x3b9ff78d	0.0048818053
146	0xbc84c0e8	-0.016205266
147	0x392c9211	0.00016457612
148	0x3bf23063	0.007391022
149	0x3c66039b	0.014038946

ff_model.3.weight f4 [120, 150]
0	0x3d1b0f43	0.03785635
1	0x3cd7e7ad	0.026355589
2	0xbd0b780d	-0.034050036
3	0x3ca42819	0.020038651
4	0x3ce478d5	0.027889648
5	0x3c0a6ef0	0.008449301
6	0xb9e18318	-0.00043013017
7	0xbc8390b5	-0.016060213
8	0xba0ef605	-0.000545353
9	0x3c1f61c8	0.009727903
10	0x3d7a5dae	0.061124496
11	0x3d5cd831	0.053917114
12	0xbace194f	-0.0015724095
13	0xbb7c5187	-0.0038500743
14	0x3d3d2f25	0.04618754
15	0x3d85bc10	0.06530011
16	0x3d126fa3	0.035750996
17	0xbd084950	-0.03327304
18	0xbd4e06e8	-0.050299555
19	0x3c9534b5	0.01821361
20	0x3d09eeb0	0.033674896
21	0xbc56a5d1	-0.013101057
22	0xbc903105	-0.0176015
23	0xbc3c0452	-0.011475639
24	0x3cbb3dbf	0.022856591
25	0xbc83731f	-0.016046105
26	0xbcab3bf6	-0.020902615
27	0x3cdb78a6	0.026790928
28	0xbc87eefe	-0.016593453
29	0xbc737b03	-0.014860871
30	0x3ce486dc	0.027896337
31	0x3d2184ca	0.03943328
32	0xb955d1ae	-0.00020391375
33	0xbbdec320	-0.006798163
34	0xbd5ba25e	-0.053621642
35	0xbd12ac51	-0.035808865
36	0xbbac1dbb	-0.0052525676
37	0xbc9b0b98	-0.018926427
38	0x3d595f30	0.053069293
39	0xbc3c8012	-0.011505144
40	0xbcb1afa8	-0.021690205
41	0xbc8e447d	-0.017366642
42	0x3bf8e22d	0.0075953216
43	0x3ccaa714	0.024737872
44	0xbb8c4009	-0.0042800945
45	0x3d9bfd63	0.07616689
46	0x3d5946f6	0.05304619
47	0x3d071251	0.032976452
48	0x3add2b3e	0.0016873849
49	0x3c909f7f	0.017654179
50	0x3d774840	0.060371637
51	0xbd58a5c6	-0.05289247
52	0x3d817e18	0.063228786
53	0xbd545f31	-0.051848594
54	0xbc76253a	-0.015023524
55	0xbc17c4dd	-0.009263244
56	0x3c04dc7e	0.00810921
57	0x3ce8938d	0.02839067
58	0x3d0d52c3	0.034502756
59	0x3cb3c570	0.021944731
60	0xbb34893e	-0.0027547623
61	0xbacd837a	-0.0015679442
62	0xbb9dde9b	-0.0048177964
63	0x38b55cf0	8.6480635e-05
64	0x3c850be6	0.016241025
65	0x3d3b69e6	0.04575529
66	0x3bc608ab	0.006043514
67	0xb9d551ae	-0.00040687382
68	0x3d1f03b9	0.03882191
69	0x3d662f51	0.05619747
70	0xbc95aae3	-0.018269962
71	0x3d22e1d8	0.039766163
72	0xbc01c766	-0.007921075
73	0xbc011273	-0.007877934
74	0xbca6aa29	-0.02034481
75	0x3d64c20b	0.055849116
76	0x3bcd2fff	0.006261825
77	0xbcd73e3c	-0.026274793
78	0xbcd5a589	-0.02607991
79	0x3c907ab7	0.01763664
80	0x3ce94ee0	0.028479993
81	0xbcceef9c	-0.025260739
82	0xbc8a56e2	-0.016887132
83	0x3c07350b	0.0082523925
84	0x3cac452b	0.021029076
85	0x3c4259eb	0.011862258
86	0x3c09afa0	0.008403689
87	0x3d6be9f0	0.057596147
88	0x3d884667	0.06654053
89	0x3d44c533	0.048039626
90	0x3c6d3578	0.01447808
91	0xbd0da81e	-0.034584157
92	0x3b9bf446	0.0047593443
93	0x3b3b1dd4	0.0028551714
94	0xb99d5d1e	-0.0003001475
95	0x3ccbb7b0	0.024867862
96	0xbc933b5d	-0.017972643
97	0x3d71ab66	0.05900135
98	0x3b292ee3	0.00258153
99	0xbc8b1603	-0.01697827
100	0x3c1492a5	0.009068166
101	0xbd0f2497	-0.034947004
102	0x3bdbd661	0.0067089056
103	0xbcbad556	-0.022806805
104	0xbd502219	-0.050813768
105	0x3d04bf3e	0.032408945
106	0xbc82fafc	-0.01598882
107	0x3d37b2c4	0.04484822
108	0xbce8fd39	-0.028441058
109	0xbbc1baa5	-0.0059121423
110	0xbb9bf423	-0.004759328
111	0xbb0c4e72	-0.0021409062
112	0x3d8e8f62	0.06960942
113	0x3d6c3a83	0.05767299
114	0x3b9f04f6	0.0048528863
115	0xbd0539ca	-0.032525815
116	0xbcc5faad	-0.024167383
117	0xba431010	-0.0007441053
118	0xbc6e59db	-0.01454779
119	0x3d8433a3	0.064551614
120	0x3d4a0e61	0.04933012
121	0xbba8404d	-0.0051346184
122	0x385f4846	5.3234653e-05
123	0xbcf0486e	-0.029331412
124	0xbc23bc8d	-0.0099936845
125	0xbc1a1b29	-0.00940589
126	0xbb024e6e	-0.0019883174
127	0x3b5d88da	0.0033803494
128	0xbd056094	-0.032562807
129	0x3d2deee1	0.04246414
130	0xbd6091b3	-0.05482645
131	0xbcb74ae4	-0.022374578
132	0x3d8ce392	0.06879343
133	0x3cbdb860	0.023159206
134	0x3c9fcb18	0.019506022
135	0x3d3819ae	0.044946365
136	0xba673139	-0.00088192854
137	0x3ba96054	0.005168954
138	0xb71593fd	-8.915548e-06
139	0xbcb4bf06	-0.022063743
140	0x38703e67	5.7278576e-05
141	0xbc9b10e7	-0.018928958
142	0x3d938af2	0.07204236
143	0x3d18235f	0.037143108
144	0xbc35da7b	-0.011099453
145	0x3ccf5c97	0.025312705
146	0xbc98069e	-0.018557843
147	0xbabef2f8	-0.001456826
148	0x3d414c65	0.047191996
149	0x3d3d231b	0.046176057
150	0x3d268aca	0.040659703
151	0x3cb922fb	0.022599688
152	0xbcc0280e	-0.0234566
153	0x3d836704	0.06416133
154	0x3c2020bb	0.009773429
155	0xbb68ee40	-0.0035542399
156	0xb9db789e	-0.00041860802
157	0x3d2cfe3a	0.042234637
158	0x3ba1ec52	0.0049415017
159	0xbb8a43e1	-0.0042195176
160	0x3d4c7597	0.04991683
161	0x3ce9a8c6	0.02852286
162	0x37c8e4d1	2.3948409e-05
163	0x3ca20f1c	0.019782595
164	0xbd1faa81	-0.038980965
165	0x3d0b0ccb	0.033947747
166	0x3ced47f4	0.028964974
167	0xbc26d25c	-0.0101819895
168	0xbb4e4314	-0.0031473087
169	0x3b0b6ccd	0.0021274567
170	0x3cff9ec6	0.031203639
171	0xbc9dc5a0	-0.019259274
172	0x3ccdc564	0.025118537
173	0x3d09a912	0.033608504
174	0x3d2820a0	0.04104674
175	0x3c56d38a	0.013111958
176	0xbd32b7a1	-0.043632153
177	0xbcebd268	-0.028786853
178	0x3b7c55b9	0.0038503243
179	0x3860486f	5.347322e-05
180	0x3b94dbe1	0.004542813
181	0x3b99fc46	0.004699263
182	0xb93548a1	-0.00017288562
183	0xbaef8088	-0.0018272558
184	0x3b217b46	0.0024640127
185	0x3bb094d1	0.005388834
186	0x3d4bea52	0.049784012
187	0x3c9d983e	0.019237634
188	0x3b96b87a	0.004599628
189	0x3d689fa7	0.05679288
190	0xb9811eb9	-0.00024627688
191	0x3a1a67d2	0.0005890104
192	0xb8cb68fe	-9.6993506e-05
193	0x3d15031b	0.036379915
194	0x3a8f237d	0.001092061
195	0xbbe1de77	-0.006892975
196	0x3cb8a3e9	0.022539096
197	0x3cccfeb9	0.025023805
198	0x3b9ba719	0.004750144
199	0x3c2f61e5	0.010704492
200	0xbd0ed5da	-0.034871913
201	0x3d393e45	0.0452254
202	0x3ccbc44e	0.024873879
203	0xbd30eb16	-0.043192945
204	0x3782ebc5	1.5606996e-05
205	0xbc4d0dea	-0.012515524
206	0xbc3b9329	-0.01144866
207	0xbc980dd5	-0.018561283
208	0x3cb5e3b7	0.02220331
209	0x3a7b6f2b	0.00095914555
210	0xbb922291	-0.004459687
211	0xbb90bf8a	-0.0044173645
212	0xbbe3a060	-0.0069466084
213	0xbc3f264c	-0.0116668455
214	0x3d2c13d0	0.042011082
215	0xbcb5b486	-0.022180807
216	0x3b99539a	0.0046791555
217	0x38c0e6a1	9.1982314e-05
218	0x3d3a26ac	0.045447037
219	0x3cc3dfb2	0.023910377
220	0x3c9ba9bc	0.019001834
221	0xbc66dd2e	-0.014090819
222	0x3d52009e	0.05127012
223	0x3ca1e1cb	0.019760987
224	0xb8f1ac62	-0.00011523884
225	0x3a6c70f7	0.00090195186
226	0x3c115c83	0.008872154
227	0x3c127435	0.008938839
228	0xbbbad42a	-0.0057015615
229	0x3c4b3ef6	0.012405148
230	0x3cb7c39d	0.022432143
231	0xbb0c5b0a	-0.0021416568
232	0x3c0b8a1b	0.008516814
233	0xbc856265	-0.01628227
234	0x3d28e170	0.04123062
235	0x3d66f842	0.0563891
236	0x3cebe4fe	0.028795715
237	0xbc3a124d	-0.011356902
238	0x3d389b29	0.045069847
239	0xbcdef03b	-0.02721416
240	0xbb993897	-0.0046759355
241	0x3d532d68	0.051556975
242	0x3c0baeef	0.008525594
243	0x3d6ff602	0.05858422
244	0xbbade84d	-0.0053072334
245	0xbcc888d2	-0.024479304
246	0x3ba6b967	0.0050880197
247	0xbcfe46eb	-0.031039676
248	0x393a9fa0	0.00017797807
249	0x3ae1bb2d	0.001722192
250	0xbc746bc9	-0.014918276
251	0x3d4fb82b	0.050712746
252	0xbb8c7241	-0.004286081
253	0xbc29561c	-0.0103354715
254	0xbc945aab	-0.01810964
255	0x3c2461c3	0.010033074

ff_model.3.bias f4 [120]
0	0x3d19e826	0.03757491
1	0x3db8a1ea	0.09015258
2	0x3c9ea636	0.019366365
3	0x3db19f60	0.086729765
4	0xbc8fcbf8	-0.017553315
5	0x3d94f2e5	0.07272891
6	0x3bdbd6f6	0.006708975
7	0x3c95948d	0.018259311
8	0xbd6c326c	-0.057665274
9	0xbc22b1fb	-0.009930129
10	0xbd45e5df	-0.048314925
11	0xbc064984	-0.008196238
12	0xbd21b7ce	-0.03948193
13	0x3bb71f0f	0.0055884193
14	0x3d81b943	0.06334164
15	0x3db35dc3	0.08758118
16	0xbd032987	-0.032022025
17	0xbc824b9c	-0.015905194
18	0xbcae0589	-0.021242874
19	0x3c05de0b	0.008170615
20	0x3d7679d3	0.060174774
21	0x3c54251f	0.0129483035
22	0xbd3c3803	-0.045951854
23	0x3d591fa0	0.053008676
24	0xbbb9e02e	-0.0056724763
25	0x3cf00f7e	0.029304262
26	0xbd711249	-0.05885533
27	0xbb16a856	-0.002298852
28	0xbc815e0f	-0.015791921
29	0x3bcb1969	0.0061980975
30	0x3d500276	0.050783597
31	0xbd18f3e9	-0.037341986
32	0x3d7bbe60	0.061460853
33	0xbc6e3cb3	-0.014540839
34	0x3d16ff20	0.0368644
35	0x3db3c1b8	0.08777183
36	0x3d0f72f8	0.035021752
37	0x3d1846a0	0.03717673
38	0x3d017403	0.031604778
39	0x3cbbb959	0.02291553
40	0x3d6124a4	0.054966584
41	0xbc2a80cb	-0.010406683
42	0x3d74fd67	0.059811976
43	0x3d758aaa	0.059946693
44	0xbd146d46	-0.036237024
45	0x3db93ea5	0.090451516
46	0x3c5d5a7c	0.013510343
47	0xbc6d82c1	-0.014496506
48	0x3d9a2785	0.07527069
49	0xbc66a408	-0.014077194
50	0xbb9bd0f2	-0.004755133
51	0x3d1bb091	0.038010184
52	0x3d9db0f1	0.076997645
53	0x3d3b610c	0.045746848
54	0xbd5454c7	-0.051838662
55	0x3cf9dfb4	0.030502178
56	0xbc71879a	-0.014741803
57	0xbd0542f7	-0.032534566
58	0x3d887ca5	0.06664399
59	0xbc9c5280	-0.019082308
60	0x3cfd15b0	0.03089413
61	0xbce9caee	-0.028539147
62	0xbbd55c32	-0.0065112347
63	0xbcf6bd72	-0.030119631
64	0x3d77c3a5	0.060489316
65	0x3900d77e	0.00012287308
66	0xbd00b6fa	-0.0314245
67	0x3c09f26d	0.008419615
68	0x3cd7fa38	0.02636443
69	0xbd38d725	-0.045127053
70	0xbd11c1cb	-0.035585206
71	0xbc9395ae	-0.018015709
72	0xbd66791e	-0.05626785
73	0x3d255f92	0.040374346
74	0x3ba5a3a9	0.00505491
75	0x3c989dfe	0.018630024
76	0xbb433839	-0.002978815
77	0x3d271d67	0.040799525
78	0x3d414b0f	0.047190722
79	0x3da6b101	0.081392296
80	0x3ca3f9a4	0.020016499
81	0x3b872e3f	0.004125386
82	0xbd52e86d	-0.05149119
83	0x3c7130a3	0.014721069
84	0x3d1d99fe	0.038476937
85	0xbd739b9a	-0.059474565
86	0x3d8b463b	0.06800505
87	0xbc9c6b08	-0.019094005
88	0x3bf816eb	0.0075710914
89	0xbd1bd8ba	-0.038048483
90	0x3d6c581a	0.057701208
91	0xbd3c053d	-0.045903433
92	0x3d8804ac	0.06641516
93	0x3b960f81	0.004579485
94	0x3bcf6cdf	0.006330117
95	0x3c84186f	0.016124932
96	0x3da4347e	0.080178246
97	0xbd427b1a	-0.04748068
98	0xbbbcbbca	-0.005759691
99	0xbc08e550	-0.008355454
100	0x3d47270e	0.04862123
101	0x3cdf1bee	0.027234998
102	0x3c22b4ce	0.0099308025
103	0xbd14c1ae	-0.03631752
104	0xbd3adbad	-0.045619655
105	0x3d751791	0.059836928
106	0x3d6975ec	0.056997225
107	0x3d0b6a93	0.034037184
108	0xbcd3118f	-0.025765209
109	0xbc0c55ba	-0.008565361
110	0xbbb9af1f	-0.005666628
111	0xbd105044	-0.035232797
112	0x3cb90ba0	0.022588551
113	0xbd18c732	-0.037299342
114	0x3d83f74e	0.06443654
115	0x3d6213d7	0.055194702
116	0x3d9c8e3f	0.07644319
117	0x3d5ae3cb	0.053439897
118	0xbd2f770a	-0.042838134
119	0x3c2b0e09	0.010440358

ff_model.6.weight f4 [45, 120]
0	0x3d290dec	0.041273043
1	0xbc41e2f5	-0.011833896
2	0x3da465b9	0.080272146
3	0x3d7a661f	0.061132547
4	0x3d26fb41	0.04076696
5	0x3d7f0fdf	0.062270995
6	0x3d4a1cea	0.04934398
7	0xbd7cfa8b	-0.061762374
8	0xbd1b0742	-0.03784872
9	0xbcc5c144	-0.024140008
10	0x3bf80d98	0.00756998
11	0x3d52b17f	0.051438805
12	0xbd72be5d	-0.059263576
13	0x3bf6ee46	0.0075357286
14	0x3d158777	0.036506142
15	0x3d948465	0.07251815
16	0x39ffd36a	0.00048794906
17	0x3d68325c	0.05668865
18	0x3b96a9a7	0.004597861
19	0x3d3515c3	0.044210207
20	0xbd3c0b3e	-0.04590916
21	0x3cc41b10	0.023938686
22	0x3da4aba3	0.080405496
23	0xbd10446d	-0.035221506
24	0x3bd46866	0.006482172
25	0x3d373c46	0.044735216
26	0xbd658176	-0.056031667
27	0x3dc2dfa7	0.095153145
28	0x3d10fa66	0.03539505
29	0x3d31364f	0.043264683
30	0x3d496525	0.049168725
31	0x3d2b25b7	0.041784015
32	0x3da361a0	0.07977605
33	0x3d2c7013	0.04209907
34	0xbd04b598	-0.032399744
35	0x3d6be31e	0.057589643
36	0x3be421e2	0.006962047
37	0xbcd31c89	-0.025770443
38	0xbb93fd8e	-0.00451631
39	0x3d8a1d5e	0.067438826
40	0x3d3eadf4	0.046552613
41	0xbc70ae6c	-0.014690023
42	0xbd7e61d0	-0.062105
43	0x3b43859b	0.0029834274
44	0x3dbcd9fc	0.09221265
45	0xbc3c205b	-0.0114823235
46	0xbd698beb	-0.0570182
47	0x3d878cbc	0.0661864
48	0xbcc50dc4	-0.024054416
49	0x3d8744f6	0.0660495
50	0x3dbc2834	0.09187356
51	0x3dbea800	0.09309387
52	0x3c0bbe51	0.008529262
53	0x3bc12b91	0.005895086
54	0x3d858f03	0.06521418
55	0x3d1b7e2e	0.03796213
56	0x3ca0d0f7	0.019630892
57	0xbcb4a9b2	-0.022053573
58	0x3cd848bc	0.02640187
59	0x3cae3e49	0.021269934
60	0x3cfbaab5	0.030721048
61	0x3d6d94a9	0.0580031
62	0x3d943a80	0.072377205
63	0x3c16daf7	0.009207479
64	0xbd82f89e	-0.06395076
65	0xbd0d1734	-0.034445956
66	0xbbd3d755	-0.0064648786
67	0x3d3aff80	0.04565382
68	0xbc9bdb8d	-0.019025588
69	0x3dade6fd	0.08491323
70	0x3ca6d59a	0.020365525
71	0x3c8c9ede	0.017165598
72	0x3dba0575	0.09083072
73	0x3db1f666	0.08689575
74	0x3d59e58f	0.05319744
75	0xbcaa5bf9	-0.02079581
76	0xbd60e862	-0.054909118
77	0xbca78181	-0.020447494
78	0xbd5ee796	-0.054420076
79	0x3daa3894	0.08311573
80	0x3cc01941	0.023449542
81	0x3da82602	0.082103744
82	0xbcb8a175	-0.022537926
83	0x3b9b3033	0.0047359704
84	0xbd70cbce	-0.058788113
85	0x3ca33d42	0.019926671
86	0xbc89f273	-0.016839242
87	0x3d12a2e8	0.03579989
88	0x3d177585	0.03697731
89	0x3abef88d	0.0014569924
90	0x3d54fb57	0.05199751
91	0x3d7e783e	0.06212639
92	0x3b9767a5	0.0046205097
93	0x3c95c2e5	0.01828141
94	0x3bd558bc	0.006510822
95	0x3d90d21e	0.07071327
96	0xbcb6c62b	-0.02231129
97	0x3c599d79	0.013282173
98	0xbc04c0cc	-0.008102607
99	0xbcac4db1	-0.02103314
100	0x3cda72dc	0.026666097
101	0x3d1ce993	0.03830869
102	0xbd5fc175	-0.054627854
103	0x3c82274c	0.015887879
104	0x3d8ba719	0.06818981
105	0x3c2d0813	0.010561007
106	0xbd90ee76	-0.07076733
107	0x3ab6ad81	0.0013937206
108	0xbcfcff1e	-0.030883368
109	0x3da4e382	0.08051206
110	0x3cd3b915	0.02584509
111	0x3d8d1a1b	0.06889745
112	0xbd15be98	-0.036558717
113	0xbd2fd70c	-0.042929694
114	0x3da97453	0.0827414
115	0x3d1174d0	0.03551179
116	0x3c832435	0.016008476
117	0x3d9b7a06	0.075916335
118	0x3d2a60bf	0.04159617
119	0xbd0014c0	-0.03126979
120	0x3b688eb1	0.0035485441
121	0x3d31bfcb	0.0433958
122	0x3cf2f07c	0.029655688
123	0x3cfe6b49	0.031057017
124	0xbc123b12	-0.008925216
125	0xbcc0564f	-0.023478655
126	0x3c9e67f1	0.019336672
127	0x3c321e09	0.010871419
128	0x3c4caf36	0.012492945
129	0x3d34580f	0.04402929
130	0xbc70dc3b	-0.014700945
131	0x3cfba707	0.030719293
132	0xbc13bacf	-0.009016707
133	0x3bc9c418	0.0061574094
134	0xbbba5226	-0.0056860624
135	0xbba35806	-0.0049848584
136	0xbbf6c0de	-0.007530316
137	0x3ca525c2	0.020159606
138	0x3aee55ce	0.0018183531
139	0x3d011d1e	0.03152191
140	0x3c979d07	0.018507494
141	0x3cda621e	0.026658114
142	0x3d47594d	0.04866915
143	0x3c81a51b	0.015825799
144	0x3d11b388	0.035571605
145	0x3b1e761e	0.002417929
146	0x3c1537cc	0.009107541
147	0xbb3d2a9f	-0.0028864515
148	0xbc2c2ea7	-0.01050917
149	0x3a9d22a8	0.0011988478
150	0xbbb7d8ff	-0.0056105847
151	0x3d79b2ef	0.06096166
152	0x3ca591a0	0.020211041
153	0x3d1abc81	0.037777428
154	0x3d048251	0.032350842
155	0xbcfc001b	-0.030761769
156	0x3cfcffad	0.030883634
157	0x3cb39f81	0.021926643
158	0x3d1792a1	0.03700507
159	0x3d37e046	0.04489162
160	0x3c2d1d6c	0.010566097
161	0x3cb680d1	0.022278221
162	0x3cb4a30c	0.022050403
163	0x3c88f87f	0.016720055
164	0x3d3d8571	0.046269838
165	0x3ca9c1fb	0.02072238
166	0x3d1fe3b9	0.039035533
167	0xbcd66bed	-0.02617451
168	0xbc6cd9a7	-0.014456189
169	0x3d0907e5	0.033454794
170	0x3d400f6b	0.046889704
171	0x3c966e5b	0.018363168
172	0x3cc44b4a	0.023961682
173	0x3cbe99df	0.02326673
174	0x3ce3d720	0.02781254
175	0x3d152325	0.03641047
176	0x3cd99d32	0.026564214
177	0x3d18f3f6	0.037342034
178	0xbc7fb036	-0.015605977
179	0x3c8f5d86	0.01750065
180	0x3d3a5199	0.045487974
181	0x3c3e533e	0.011616526
182	0x3d095e3d	0.03353714
183	0xbd01d28b	-0.03169493
184	0x3cae473b	0.0212742
185	0x3d09fa3e	0.033685915
186	0x3b5fcc00	0.0034148693
187	0x3d4daa39	0.050211165
188	0xbcd6321d	-0.026146943
189	0xbcda8418	-0.026674315
190	0x3d19f4f3	0.037587117
191	0x3c3ee3f5	0.011651029
192	0x3cfe6c5c	0.03105753
193	0x3b78b6bb	0.0037950713
194	0x3d0726bd	0.032995928
195	0x3cd0519f	0.025429545
196	0x3d65a832	0.056068607
197	0x39c1f011	0.00036990692
198	0x3cddf85d	0.027095968
199	0x3d084e37	0.033277716
200	0x3d8548a8	0.06507999
201	0xbba701f9	-0.0050966707
202	0x3cee07d7	0.029056473
203	0x3c83f930	0.016110033
204	0x3d144977	0.036202874
205	0x3d80ddae	0.06292282
206	0x3cef7aa8	0.029233292
207	0x3cedf3e7	0.029046966
208	0x3d36c29e	0.044619195
209	0x3d11ec43	0.035625707
210	0x3d1455e6	0.03621473
211	0xbcaba19b	-0.020951083
212	0x3d41ca35	0.04731198
213	0x3bfae0fc	0.0076562148
214	0x3d0c6f71	0.034285966
215	0x3d16d349	0.03682259
216	0xbca5f80c	-0.02025988
217	0x3bd7c9e9	0.006585349
218	0x3cd45bb6	0.025922637
219	0x3d6b251c	0.057408437
220	0xbbb1d9f8	-0.005427595
221	0x3c2838b0	0.010267422
222	0x3d199afb	0.037501317
223	0xbbef517f	-0.0073034163
224	0x3d4f213f	0.050568815
225	0x3d2ddc4d	0.042446423
226	0x3af1d65a	0.0018450723
227	0x3ce3375c	0.027736358
228	0x3cd27ae2	0.02569336
229	0x3ce2c32f	0.027680961
230	0x3ccba7ee	0.024860349
231	0x3d8825d1	0.06647838
232	0x3d73074d	0.059333134
233	0x3c381487	0.011235363
234	0x3cff0f70	0.03113529
235	0x3cc48ea7	0.023993803
236	0x3d1480eb	0.03625576
237	0x3d02a12c	0.031891987
238	0x3cce0a1c	0.025151305
239	0x3b46beb9	0.0030326082
240	0x3c8a4077	0.016876442
241	0x3c296bd5	0.010340651
242	0x3da6612b	0.08124002
243	0xbd361d24	-0.044461384
244	0x3cd6cd72	0.02622101
245	0x3dcb6441	0.09931231
246	0xbbb94e4c	-0.0056550857
247	0x3bbc3178	0.005743202
248	0x3d1279bd	0.03576063
249	0x3d8acd79	0.06777472
250	0x3cce0209	0.025147455
251	0xbd1f21ab	-0.038850468
252	0xbcb89a0e	-0.022534396
253	0x3c9ed2ea	0.019387681
254	0x3d957a79	0.072987504
255	0x3d255a92	0.040369578

ff_model.6.bias f4 [45]
0	0xba3bf5c3	-0.0007170105
1	0x3bec1727	0.0072049084
2	0x3d684160	0.05670297
3	0x3d6e68ad	0.058205295
4	0x3c9d2b1f	0.0191856
5	0x3d2caf57	0.042159405
6	0xbd02d84c	-0.031944558
7	0x3d51c910	0.05121714
8	0xbd0311dd	-0.031999458
9	0x3dd96403	0.10614779
10	0xbcf04622	-0.029330317
11	0xbc356c70	-0.011073217
12	0xbcaa2a1c	-0.020772032
13	0xbce401fc	-0.027832977
14	0x3d92cbd6	0.07167785
15	0x3d12c73c	0.035834536
16	0x3d148e55	0.03626855
17	0xbc6b8f82	-0.014377477
18	0x3d1c0722	0.03809274
19	0x3d082a02	0.033243187
20	0xbd1290b2	-0.035782523
21	0xbc5ea1dd	-0.013588396
22	0x3c75c79e	0.015001206
23	0xbc815cf0	-0.015791386
24	0xbc23caa3	-0.009997043
25	0xbd0e8b49	-0.0348008
26	0xbc512522	-0.012765201
27	0x3c5ae567	0.013360358
28	0x3db67426	0.08908872
29	0x3d4727a5	0.048621792
30	0xbd3e3975	-0.046441514
31	0xbd2783f0	-0.04089731
32	0xbd4c4e90	-0.04987961
33	0x3cd6432e	0.02615508
34	0xbd8c439b	-0.06848832
35	0x3d9958ea	0.07487662
36	0x3d3b107f	0.04567003
37	0xbcec2e0a	-0.028830547
38	0x3dc38c2d	0.09548221
39	0xbd408f58	-0.047011703
40	0x3cd60f8a	0.026130456
41	0xbdb9bb65	-0.09068946
42	0x3c3b7fad	0.0114440145
43	0x3d8fe484	0.07026008
44	0xbd85fbd9	-0.06542177

ff_model.9.weight f4 [2, 45]
0	0x3dde0dcf	0.108424775
1	0x3d02fda2	0.031980164
2	0x3e1988f2	0.14993647
3	0xbd88f4be	-0.06687306
4	0x3da55023	0.080719255
5	0x3dbc13cc	0.091834635
6	0x3d110af2	0.03541083
7	0x3dc89841	0.09794665
8	0xbddc2393	-0.10748973
9	0x3ddd3897	0.10801809
10	0x3deea81a	0.116531566
11	0x3d11d25a	0.035600998
12	0x3e1062d7	0.14100204
13	0xbdf8c8fb	-0.12147709
14	0xbc6497f7	-0.013952247
15	0xbde2f01b	-0.11080953
16	0x3cea9584	0.028635748
17	0xbc2db793	-0.01060285
18	0x3db1ea7d	0.08687303
19	0xbc4eadd6	-0.012614688
20	0xbc4076c3	-0.011747065
21	0xbcf63fd8	-0.03005974
22	0xbdd7ce9e	-0.10537456
23	0xbd8a8acb	-0.06764754
24	0x3d5f3b7b	0.054500084
25	0x3e1cc02e	0.15307686
26	0x3e17a4ec	0.14809006
27	0x3e2fe46b	0.17176978
28	0x3e29cdc6	0.16582403
29	0x3c66c132	0.014084147
30	0xbdaf67ca	-0.08564718
31	0x3e16ffb9	0.14745988
32	0xbd989a30	-0.07451284
33	0x3e11a6b4	0.14223748
34	0xbd783abd	-0.060602892
35	0x3e146d4d	0.1449482
36	0x3cfdb6b1	0.030970903
37	0xbdcfa4b3	-0.10138836
38	0x3e0a783b	0.13522427
39	0xbd974d51	-0.07387794
40	0xbdd9123a	-0.105991796
41	0x3c20ef7b	0.009822722
42	0x3e0ccac6	0.13749227
43	0x3d965ac2	0.073415294
44	0xbdc2af05	-0.095060386
45	0xbe191a06	-0.14951333
46	0xbd2f25f8	-0.04276082
47	0xbc7040b4	-0.014663864
48	0x3d416202	0.04721261
49	0xbd681ecb	-0.05666999
50	0xbe034edd	-0.12823053
51	0x3de9c06f	0.11413657
52	0x3a1e0828	0.0006028437
53	0x3ddb44aa	0.10706456
54	0xbd733a2c	-0.05938165
55	0xbd08c105	-0.033387203
56	0xbda444d4	-0.080209404
57	0x3d64beb1	0.05584592
58	0xbbbcd849	-0.005763088
59	0x3d1bbae0	0.038020015
60	0x3dc0e272	0.09418191
61	0xbd731725	-0.059348244
62	0xbe0fc4d3	-0.14039926
63	0xbd926abd	-0.07149265
64	0xbe1e9918	-0.15488088
65	0xbe029d46	-0.12755308
66	0xbd8f4ca4	-0.0699704
67	0x3dc12480	0.0943079
68	0xbd4dd956	-0.050256096
69	0xbda9ab4f	-0.08284628
70	0xbde5bc38	-0.112175405
71	0x3d30840e	0.043094687
72	0x3d87d2d0	0.06632006
73	0x3db01e2f	0.08599507
74	0x3de88990	0.11354363
75	0x3d9f760f	0.0778619
76	0xbe1c1b25	-0.1524473
77	0xbc68e2a3	-0.014214191
78	0x3dbc5882	0.09196569
79	0x3dc4fce3	0.09618547
80	0xbdbce9a9	-0.09224255
81	0x3de40273	0.1113328
82	0x3c71bb90	0.014754191
83	0xbcd30cc1	-0.025762917
84	0xbcc77561	-0.024347963
85	0x3dbdf998	0.09276122
86	0x3d8ecdb9	0.06972832
87	0x3d9f33b4	0.077735335
88	0x3d7ba97a	0.061440922
89	0x3c543f20	0.012954503

ff_model.9.bias f4 [2]
0	0xbdbf4529	-0.09339363
1	0xbe15fe25	-0.1464773
